best_model.pth (torch, 10299 bytes, 4 tensors)

linear1.weight f4 [128, 11]
000000 cf ab 7e 3f b5 28 f7 3e 76 ac 46 3f 74 74 45 3e
       0.9948091 0.48273245 0.77606905 0.19282705
000010 c1 8e b3 be 46 6d 96 3e 59 f2 b6 be c0 49 1b 3e
       -0.3506985 0.29380244 -0.35731772 0.15164852
000020 7c c0 05 3f 73 6c 15 3d e9 ec 09 3f d0 69 88 3e
       0.5224683 0.03648038 0.5387712 0.2664323
000030 4e bf 6f 3e e3 64 9a 3e b5 57 4a 3d 29 4f c2 be
       0.2341282 0.30155095 0.04940005 -0.3795102
000040 9e 74 59 be 2f 31 06 be 4e bf b1 bd 89 ef 07 bf
       -0.21235892 -0.131047 -0.086790666 -0.53099877
000050 0b 8b 9e 3d 63 c0 48 38 a4 47 a5 bd bb f1 06 bf
       0.07741364 4.786289e-05 -0.08070305 -0.527126
000060 8e df ee be 24 27 d5 3e 2b fa fe 3e 33 6e b4 3e
       -0.46654934 0.41631424 0.49800238 0.35240325
000070 b7 0c fc 3e 70 0b 27 be dd e7 d7 bc df f2 ad be
       0.4922845 -0.16312957 -0.026355678 -0.33974358
000080 22 ec 77 be c5 25 8c 3e c6 bf 8a 3f a7 f6 d5 be
       -0.24211171 0.27372566 1.0839775 -0.41789743
000090 5a b6 17 be f5 8c 05 3e 8c 87 96 3d f7 b6 0c 3e
       -0.14815655 0.13042052 0.07350072 0.1374167
0000a0 6a cf b4 be 09 6c 9a bd 4e 8e 5d 3e 28 ea 52 be
       -0.35314494 -0.07540137 0.21636316 -0.20597136
0000b0 6d f4 ca be 3f a3 87 be 8c 82 d7 be 31 c1 94 3e
       -0.39639607 -0.26491734 -0.42091787 0.29053643
0000c0 49 17 7c 3e ed d0 c2 3d 7e 34 17 bc 16 d9 c6 be
       0.24618258 0.09512506 -0.009228824 -0.38837498
0000d0 d1 51 9d be 72 7c d1 bd 60 a3 d4 bd 67 7a 39 bf
       -0.30726483 -0.10228814 -0.10382724 -0.72452396
0000e0 df e2 a1 be 04 59 17 3f 45 65 77 bf f7 89 83 3e
       -0.316184 0.591202 -0.966389 0.25691196
0000f0 17 cb b8 3e ff bf 2d be f1 fb 5e bf 5b 72 6d bd
       0.36092445 -0.16967772 -0.8710318 -0.057970386
000100 88 1f fc bd 96 20 99 3e 81 ef 20 3f 25 80 46 be
       -0.123107016 0.29907674 0.62865454 -0.19384821
000110 1b 2f 60 3f b6 15 8f 3e 5b 15 93 be b8 5b 26 bd
       0.8757188 0.27946252 -0.2872723 -0.040614814
000120 5b d5 71 3e 2e 02 61 3e 80 27 ea 3e f2 6f d7 3e
       0.23616545 0.21973488 0.4573326 0.42077595
000130 20 c9 a3 be 2c 26 3d 3f 35 41 30 bf 96 19 05 bf
       -0.31989384 0.7388637 -0.688495 -0.51992166
000140 28 ba 44 3e c7 df f0 3d fd 0b fb 3d ad 59 c6 bd
       0.19211638 0.11761432 0.12258146 -0.09685073
000150 c1 7b 42 be 06 b6 37 be b9 3f d7 bc ef bc 79 3d
       -0.18992521 -0.1794053 -0.026275503 0.060971197
000160 41 5e f2 3e a7 07 c3 3c f8 22 37 3d ca 8c a0 3e
       0.47337535 0.02380736 0.044711083 0.31357414
000170 71 86 c5 be 30 c0 44 bf 3c e7 28 3f 8b c1 87 be
       -0.38579133 -0.76855755 0.65977836 -0.2651485
000180 a5 69 fd 3e 1a 76 1b 3f 85 a0 53 bf bf eb e7 bd
       0.49494663 0.60727084 -0.8266681 -0.11324262
000190 be 30 0f 3f d1 48 3a bc ff e0 3a bf 39 85 32 bf
       0.5593375 -0.0113699 -0.72999567 -0.6973453
0001a0 c0 9e 03 3f ee c3 30 3f 6d 8c 3a bf 91 2d 01 bf
       0.5141411 0.69048965 -0.7287052 -0.50460154
0001b0 56 04 2b 3f 7b fa 28 3f 4a 73 c3 be f5 09 97 3f
       0.6680349 0.660072 -0.38173896 1.1799914
0001c0 53 29 2c be 49 29 9e 3e a5 39 08 bf a8 61 cb 3e
       -0.16812639 0.30890873 -0.5321296 0.39722943
0001d0 49 17 57 bd 19 52 87 3e e5 dd 23 bf 71 09 ca bd
       -0.05251244 0.26429823 -0.6401046 -0.09865082
0001e0 05 24 a8 3e 51 e5 42 bf 82 df 0b bf c6 7d 8a be
       0.3283998 -0.7613116 -0.5463792 -0.27049083
0001f0 a1 b6 b4 3e 25 a4 95 3e 88 80 17 3e cb af 62 3e
       0.35295585 0.29226795 0.14795125 0.22137372
000200 b2 df a8 be 1b c7 57 be 92 ca 57 bd 66 13 c4 bd
       -0.32983166 -0.21072046 -0.05268342 -0.095740125
000210 67 97 55 3e 0b 7d 03 bd 2a f1 af bb 63 e7 ea 3e
       0.20858537 -0.032101672 -0.005369325 0.4587966
000220 d9 e0 2b 3f 7b 15 6a 3e ec c0 e6 be d6 9e 1e bf
       0.67139965 0.22859757 -0.45069063 -0.61961114
000230 f4 f8 57 bf 8f ce 0c be 8c 60 00 3f b9 0d 02 bf
       -0.8436425 -0.13750671 0.5014732 -0.5080219
000240 27 7b aa 3e d0 1f a5 bf 29 7d c4 3e e3 9c fa be
       0.33297083 -1.2900333 0.3837674 -0.4894782
000250 db 38 32 3e 4b 01 ad bd 30 4d c5 bd fe 73 97 bf
       0.17404501 -0.08447512 -0.09633863 -1.1832273
000260 f3 6f f2 3d 45 5f 89 bd 1c 78 09 bf b1 46 3e 3f
       0.11837759 -0.06707624 -0.536989 0.74326617
000270 9a c6 6e be ad 81 cf 3d d2 24 66 3d 56 44 e4 bc
       -0.23317948 0.101321556 0.05618746 -0.027864616
000280 5a bb 72 3e 66 23 15 be 5f fd 35 bd 23 20 97 3c
       0.23704281 -0.14564285 -0.044431087 0.018447941
000290 fc 41 27 bd c3 a7 83 be 15 06 83 bf 6f 00 f4 3e
       -0.040834412 -0.2571393 -1.0236231 0.4765658
0002a0 8c c6 5e 3e ca 01 f9 3d db e7 2d 3e 98 23 6b bc
       0.21755427 0.12158544 0.16982977 -0.014351748
0002b0 b0 da 50 be 7c c4 fe bd e8 13 46 be 62 c4 7a be
       -0.20395923 -0.1243982 -0.19343531 -0.24488977
0002c0 3b 55 9e 3f ff 8b b8 3d c2 1e 0c 3e 40 a5 23 3f
       1.236976 0.09011077 0.13683608 0.63924026
0002d0 ef d3 66 be 64 80 85 3e 91 60 e4 be 31 ce d1 be
       -0.22541784 0.26074517 -0.44604924 -0.40977624
0002e0 46 91 e2 3e b3 36 6a 3d 8c 5a 48 3f d2 ab a2 be
       0.4425146 0.05718107 0.78263164 -0.31771713
0002f0 82 f8 0e 3e 58 1d 8f be f9 61 e6 be 9e 32 de 3e
       0.13961986 -0.27952075 -0.44996622 0.43397993
000300 07 e7 40 be 58 a1 c6 3e 24 6b 63 bf 15 5c 8e 3d
       -0.1883813 0.3879497 -0.8883536 0.06951157
000310 bf 52 b4 3e de 14 15 3d 67 f0 01 3f b9 96 70 bf
       0.3521938 0.036396854 0.5075745 -0.93979985
000320 20 35 00 3f 87 b9 8e bd de a4 f5 bd 00 fb 86 3d
       0.5008106 -0.0696898 -0.119943365 0.06590843
000330 03 fe e5 bd 3f c1 3c be b6 e4 02 be 26 0e 5b be
       -0.112300895 -0.18433093 -0.12782559 -0.21392116
000340 2d 33 0a be 58 ca 9b be b9 80 e5 be 7a f9 17 bf
       -0.13496085 -0.30427814 -0.4482477 -0.59365046
000350 f8 b2 94 3e 7d 6b 98 3e 66 7d f1 bc 1a 91 c8 3c
       0.29042792 0.29769507 -0.02947874 0.024483252
000360 60 c0 85 bd 17 fe f0 3b e8 17 4a be 80 1c c2 be
       -0.06530833 0.0073545086 -0.19735682 -0.3791237
000370 af 21 04 3d 62 72 ec 3d db c5 f7 3e 85 b4 ad 3d
       0.032258686 0.11545254 0.4839314 0.08481697
000380 ec b2 e3 be ef 7e 88 be 91 ae ae 3e 32 a3 cf 3e
       -0.44472444 -0.26659343 0.3411756 0.40554196
000390 62 d1 eb be 3f a1 0b 3f fa de 13 bf 82 42 de 3e
       -0.46058184 0.54542917 -0.5776211 0.43410116
0003a0 81 e1 bc 3c 20 c9 00 be d6 50 1c bf 15 33 07 3f
       0.023056747 -0.12576723 -0.61060846 0.5281232
0003b0 c8 78 62 3e 46 bd 71 3f ff 93 3c 3f ca 62 c5 be
       0.22116387 0.94429433 0.73663324 -0.38551933
0003c0 4d 9a 1b be 98 34 40 bf d7 f4 17 3e c2 0b d6 3e
       -0.1519558 -0.7508025 0.14839493 0.41805845
0003d0 6c 6f 95 3e 54 42 31 bf 94 d4 2e bf dd 37 02 3f
       0.2918657 -0.69241834 -0.6829312 0.5086649
0003e0 50 ed 02 3f 16 8f 0d bf 0f 82 02 bf 5c 93 14 3f
       0.5114336 -0.55296457 -0.50979704 0.5803735
0003f0 12 3f 2a 3f 38 90 a0 3e 86 fa 13 3f 8a e6 5a bf
       0.6650249 0.3136003 0.57804143 -0.85508025

linear1.bias f4 [128]
000000 8a 69 09 bf 70 ca 07 bf 31 93 16 3e b2 e0 48 be
       -0.53676665 -0.5304327 0.14704587 -0.19616964
000010 48 cc 43 3f 6b ad e7 3e 28 c4 ae be d4 58 3d 3e
       0.76483583 0.45249495 -0.3413403 0.18490916
000020 55 a2 28 be 63 87 80 bd aa fb 13 3e 40 2c 54 3f
       -0.16468175 -0.06275823 0.14451471 0.8288002
000030 21 a1 25 3d 40 2b f6 3e 24 d3 a7 3e dc 85 21 3f
       0.040436868 0.48079872 0.32778275 0.6309488
000040 07 f5 f7 be 4e fa be 3e f3 62 6a be 61 4f 29 3f
       -0.4842913 0.37300342 -0.22889309 0.6613675
000050 58 1b 65 be 99 ce 96 be 2f 9a 17 be 00 cc c2 be
       -0.22373712 -0.29454497 -0.1480491 -0.38046265
000060 24 b2 e2 3e 73 0a 00 3f 1a 26 c1 be ad c1 4c 3f
       0.44276536 0.50015944 -0.37724382 0.79983026
000070 64 f9 12 3f 83 c3 d3 3c ec 83 3c be 7c ef 1c be
       0.5741179 0.025850063 -0.18409699 -0.15325731
000080 f8 5d e5 be dc 96 05 3e 20 24 0c be cc d5 42 be
       -0.44798255 0.1304583 -0.13685656 -0.1902687
000090 51 70 9b be d5 1d 4e be 34 7f a5 be ba 83 fc 3e
       -0.30359128 -0.20128568 -0.3232361 0.4931925
0000a0 51 96 f7 be 2b e7 cd 3d d4 cf a7 be fa ed 27 3d
       -0.4835687 0.100538574 -0.32775748 0.040998437
0000b0 e5 66 92 3e 63 3b 1c 3f 54 fd 13 3f 62 09 24 bf
       0.28594127 0.61028117 0.57808423 -0.6407682
0000c0 df 97 90 be 44 8c 3f be 8d 7f d5 be 2d 0e e3 3a
       -0.28240868 -0.18705851 -0.41698876 0.001732295
0000d0 d7 f2 40 3f 03 09 47 bb 91 f8 73 bd ef c4 d5 3d
       0.75370544 -0.0030370362 -0.059563223 0.10437953
0000e0 78 b1 16 3e 1e 76 0e bf 04 c4 1d 3d 9a a2 ff bd
       0.14716136 -0.5564898 0.038517013 -0.12482186
0000f0 9d f6 58 be 33 0e 18 3f bd 7b b4 be 0c 7f 0e 3f
       -0.21187826 0.59396666 -0.35250655 0.5566261
000100 6a 66 0d 3f 73 32 b5 3e da 12 b3 be 36 6d 97 be
       0.55234396 0.35390052 -0.3497532 -0.2957551
000110 ec ae 93 be 9e 9e a2 3e 49 27 a2 be 58 82 dd 3e
       -0.28844392 0.3176164 -0.31670597 0.43263507
000120 87 fc 91 3e ef c6 93 be e2 38 05 be ef f3 b7 bd
       0.28512976 -0.28862712 -0.1300998 -0.089820735
000130 c6 01 26 3f 8a 41 30 3f c1 ce e3 be b8 74 e6 be
       0.64846456 0.68850005 -0.44493678 -0.45010924
000140 67 6d 3c be e8 15 98 be eb 1e fc 3e d4 b8 e2 be
       -0.18401109 -0.29704213 0.4924234 -0.44281638
000150 83 f4 94 be 8f 9d 52 bb 01 52 5f be 41 0f a5 be
       -0.29092798 -0.003213737 -0.21808626 -0.322382
000160 ff 15 15 3e 06 c8 f7 be 3c b6 a3 3e 5c 83 c4 bc
       0.14559172 -0.48394793 0.3197497 -0.023988418
000170 3d 8e e7 bd 51 f0 9b 3e 41 81 7a be 03 41 02 be
       -0.11306427 0.30456784 -0.24463369 -0.12720113
000180 3b cf 3e bd 7b 69 32 3f ca 87 ec bd cd 88 a6 be
       -0.04658435 0.696922 -0.11549337 -0.32526246
000190 c1 d0 ef be 8b d3 03 bf 94 8b 5e 3e 41 ea 3c bf
       -0.46838954 -0.51494664 0.21732932 -0.73794943
0001a0 1e 2b d9 be 24 52 ec 3e 6b 4b 5c be af 3b 21 3f
       -0.42415708 0.46156418 -0.21513145 0.62981695
0001b0 e3 07 18 3e 83 e0 ae 3e 38 cd 02 3f 82 05 a0 be
       0.14846759 0.34155664 0.5109439 -0.31254202
0001c0 2b 9f 2c 3e 0c f8 ed 3e 78 7b 05 be 0a f5 6d bc
       0.16857593 0.46478307 -0.13035381 -0.014523754
0001d0 d8 e0 52 be 4d 86 ab be 66 db 11 3f 99 d4 9b be
       -0.20593584 -0.335009 0.569754 -0.30435637
0001e0 09 0e 99 be be fe a2 be df ce b8 be 41 fe 15 3f
       -0.2989352 -0.31834978 -0.3609533 0.58591086
0001f0 70 da 43 be c8 5b 23 3f e8 e6 79 be 66 d6 b4 3e
       -0.19126296 0.6381192 -0.2440449 0.35319823

linear2.weight f4 [3, 128]
000000 36 72 fa be 37 08 f4 bd 33 6a 9b 3d e5 b2 39 bd
       -0.4891526 -0.11915629 0.07588615 -0.045336623
000010 16 ad 7c 3e 3e 10 f4 3e 1b 53 43 be d9 a7 53 bc
       0.24675402 0.47668642 -0.19074671 -0.012918436
000020 e0 8d c6 bf c7 e8 fd 3e f6 6e f3 3e 22 8e 19 3f
       -1.5512047 0.49591658 0.47545594 0.599825
000030 c8 21 43 bf 2b 7a e3 3e 2c 94 88 3e bd 80 9e 3e
       -0.7622342 0.44429144 0.26675546 0.30957595
000040 7d b7 88 bf ca d8 26 3f 9b fb b4 bb d6 f0 5b 3e
       -1.0680996 0.65174544 -0.005523158 0.2147859
000050 6b a6 00 bd bd 91 c7 bf 00 de a1 3e 10 f8 81 bc
       -0.03140871 -1.5591351 0.31614685 -0.015865356
000060 45 2e 04 3f 2f 59 bd 3e eb 53 50 bf 47 8d a6 3e
       0.516331 0.36982104 -0.8137805 0.3252966
000070 8b 6f f7 3e 8c b0 f2 bd fb 21 62 bc e8 1e 24 3c
       0.48327288 -0.1185008 -0.013802047 0.010017134
000080 dd ec 46 bf 97 f7 79 bc 05 cc b7 bd 26 7e 35 bf
       -0.77705175 -0.015256784 -0.089744605 -0.7089561
000090 e6 27 79 be 66 41 47 be 24 04 50 3d 67 35 21 3f
       -0.24331626 -0.19458541 0.0507852 0.6297211
0000a0 2e 4a 64 be fe 2b 90 be f6 37 65 3d a9 9c 37 3f
       -0.22293922 -0.28158563 0.05596157 0.7172342
0000b0 8b 43 0d 3f a3 a4 a9 3e 1b 51 c2 3e 27 48 e4 be
       0.5518119 0.3313342 0.37952504 -0.44586298
0000c0 89 5b 3b be 7a cc 9c 3d ab f2 53 bf c8 85 f6 bc
       -0.18296637 0.07656188 -0.82792157 -0.030093089
0000d0 17 8f c1 3e b0 4e 58 3d e4 a6 9c be 30 99 8d be
       0.3780448 0.052809417 -0.30596077 -0.27655935
0000e0 b6 94 27 3f 0a 33 cf bc e6 fd 55 3d 8c e6 87 3c
       0.6546129 -0.025292892 0.05224409 0.016589426
0000f0 cc c9 63 be 12 76 32 3e fe 76 0f bd a9 c5 a5 3d
       -0.22244948 0.17427853 -0.03502559 0.08094341
000100 aa 81 51 3e a5 aa ba 3e 36 d5 8b be 6c 7e 69 bd
       0.20459619 0.36458316 -0.27311105 -0.05700533
000110 f7 f0 61 bd 61 1e 83 3c a5 f5 fb bd bd d3 91 3e
       -0.055161443 0.016005697 -0.12302712 0.28481856
000120 d3 a5 98 3e 0b 47 23 bf e5 87 28 be 42 25 1e 3e
       0.29814014 -0.6378028 -0.1645809 0.154439
000130 ba fe 0f 3f 29 1e a6 3e 65 14 3f be 2f fc 05 be
       0.56248057 0.32444885 -0.18660124 -0.13084482
000140 bf c3 89 3d 63 05 17 ba 3f 8c d8 bb d7 d7 01 bf
       0.06726789 -0.00057609956 -0.0066085155 -0.5071997
000150 c0 9c 08 bd a0 40 1b bd b1 89 8c bf 51 7f a8 be
       -0.033352613 -0.037903428 -1.097952 -0.32909635
000160 51 a0 ac 3e 44 3a e5 be 3d 90 d2 3e cb 2f 32 3d
       0.33716062 -0.44771016 0.4112567 0.04350261
000170 55 d3 3f 3e 11 35 0d 3f e7 56 9a 3d fe 14 8b be
       0.1873296 0.551591 0.075361066 -0.27164453
000180 74 81 c7 3d fc 9b 81 3e d0 ab 6d 3e b3 fd d3 bc
       0.09741488 0.2531432 0.23210073 -0.02587781
000190 ff 18 7f be 64 53 9a bd 7d 7a 97 bd 32 63 8f be
       -0.24911879 -0.07535437 -0.0739641 -0.28005368
0001a0 e1 19 2f 3a 96 d5 15 3f 18 14 ea 3c 97 ab 06 3f
       0.00066795765 0.5852903 0.028574035 0.52605575
0001b0 0f 32 b7 3e e5 94 cf 3e 6c c9 d0 3e 04 2d 41 bf
       0.3578038 0.40543285 0.40778673 -0.75459313
0001c0 3a 28 1c 3d 0d 2c 08 3f 1a 5a 5e bc b6 6d 9b 3d
       0.0381243 0.53192216 -0.013571287 0.07589285
0001d0 42 69 62 3d e9 9b 8c bf a2 c6 4e 3e b1 ca 55 be
       0.055276163 -1.098508 0.2019296 -0.20878102
0001e0 9d c0 4b be 45 1c d2 bd f1 4c a5 be 1e a9 30 3d
       -0.19897695 -0.10259298 -0.32285264 0.043130033
0001f0 0c 3e 6b bd 21 17 8b 3e 9b 0e a1 3d b2 0e 4e 3e
       -0.05743222 0.27166083 0.07864114 0.20122793
000200 e9 60 0b be 93 cf 33 bd d2 66 83 3e e7 d9 68 bf
       -0.13611187 -0.04389913 0.25664383 -0.9095749
000210 b2 c0 a8 3e a1 ae 95 3e 8f 66 59 3e 1d bd ab 3e
       0.32959515 0.29234794 0.21230529 0.3354272
000220 b5 64 b8 3e 24 c1 c1 bf 0d 38 28 bf 7a eb 03 3f
       0.36014333 -1.5137067 -0.65710527 0.51531184
000230 e9 ea 24 3f 2a 98 34 bd 3a 6f da bd c9 68 09 3f
       0.64420944 -0.044090427 -0.10665746 0.53675514
000240 58 4b 95 3e 8f 1c 9c bd 09 a2 ee 3d c8 61 d5 3e
       0.29159045 -0.076226346 0.116519995 0.41676164
000250 89 d9 81 3e d0 87 b5 3e 6c 15 af bf b3 e0 36 be
       0.2536128 0.3545518 -1.3678412 -0.17859153
000260 bc 44 04 3f d0 13 cb bc 6d 2b f9 3d 7c 7c e8 3e
       0.5166738 -0.02478972 0.12166486 0.45407474
000270 15 b3 2d 3f a9 56 0e 3d ca 11 03 3e 97 0a 4c 3e
       0.6785138 0.034750614 0.12799755 0.19925915
000280 0e 2b 00 3d d4 ef 8b 3e 24 02 3a bf ac 3e 7e 3e
       0.03129106 0.27331412 -0.72659516 0.24828595
000290 4e 09 8a bd 7b e5 3b be e4 01 94 be 0e 11 23 3e
       -0.06740056 -0.18349259 -0.28907692 0.15924475
0002a0 51 40 c6 bd 4b b4 58 3e ee 04 12 be 5e 9d e5 bf
       -0.09680236 0.21162526 -0.14259693 -1.793865
0002b0 00 7c 74 bf bf de 8c 3d da 22 95 3d 67 7b 99 be
       -0.9550171 0.06878423 0.07282038 -0.2997696
0002c0 24 75 51 be 87 a4 a9 be fa b4 90 bd ba 8f ea 3d
       -0.20454842 -0.33133337 -0.070657685 0.11453195
0002d0 f1 dc c4 3e 2f e6 5e 3e 63 f4 02 bf b0 df f5 3e
       0.38449815 0.21767496 -0.51154155 0.48022223
0002e0 5d 38 8d 3e c2 1b 63 be 65 07 47 be 30 c5 2a bd
       0.27582064 -0.22178558 -0.19436415 -0.04169196
0002f0 38 fb ae be d9 3a 06 3f 84 11 03 bf d3 ff 00 3f
       -0.3417604 0.52433544 -0.511986 0.50390357
000300 66 8f 11 3f 0b 2b 79 3e 95 ec da 3d 32 9f 76 3d
       0.56859434 0.24332826 0.10689656 0.060210414
000310 c9 6b 9e 3c a8 26 d7 3d 51 56 a7 be ca f6 8a 3e
       0.019338505 0.1050542 -0.32683042 0.2714141
000320 31 7e 09 bf c0 f3 a8 3e bf 15 f3 3d b4 f9 11 3e
       -0.5370818 0.32998466 0.11869382 0.1425541
000330 54 ff 33 3e 6b 47 8b 3d 17 c7 4f be 1f fd cc bd
       0.17577869 0.06800731 -0.2029079 -0.100092165
000340 77 4d bc bf f2 8d 94 3d e5 8f c5 3e bd 1d 20 3e
       -1.471114 0.072536364 0.38586345 0.15636344
000350 b8 73 9b 3c c7 c9 0a bc 0a c8 52 bf 47 a4 13 bf
       0.018976077 -0.008470959 -0.82336485 -0.5767254
000360 0f f2 e8 3d c4 c4 1f be 3a fc 44 3f 83 2e 39 3e
       0.11374294 -0.15602404 0.7694737 0.18084149
000370 19 8e 8c be f2 39 94 3e 54 65 35 3d 19 57 1a 3c
       -0.27452162 0.2895046 0.044286087 0.00942018
000380 bd be ad 3e 01 0b cc 3e 78 ea 8a bf 00 3e 29 3a
       0.33934584 0.39852145 -1.0852804 0.0006456077
000390 03 cb 77 3d 51 09 76 3d e6 68 52 3e 86 c5 e5 be
       0.06049634 0.06006748 0.20547828 -0.4487726
0003a0 1d 2d f8 bc 10 f3 e6 3e 3e b8 30 3d c0 7b 17 3f
       -0.03029495 0.45107317 0.043144457 0.591732
0003b0 4a 85 f5 3e 5b 65 95 3d 05 97 63 3e f9 f9 95 bd
       0.47953254 0.07294723 0.22225578 -0.07323069
0003c0 20 e4 31 3e 51 03 1c bd fc d9 34 be cd 12 53 bd
       0.17372179 -0.0380891 -0.1766128 -0.0515316
0003d0 70 90 c1 bb ad 34 df 3e 45 c3 18 3f 5e ab 03 be
       -0.005907111 0.43594876 0.5967296 -0.1285834
0003e0 c7 84 f9 3c 7a 60 53 be 83 a9 a2 3e 81 20 0c 3f
       0.030458821 -0.20642272 0.31769952 0.547371
0003f0 38 30 b4 be c0 04 e9 3e 2b 02 4e bf 9d 23 c4 3d
       -0.35193038 0.45511436 -0.8047206 0.09577105

linear2.bias f4 [3]
000000 7d c3 6f 3e 50 43 87 3e e6 c2 68 3e
       0.23414417 0.26418543 0.22730598
