ddqn_model.pth (torch, 19127 bytes, 8 tensors)

linear1.weight f4 [128, 11]
000000 36 d8 1a 3f 02 f1 97 3e e5 25 a5 3e 2b 51 f6 be
       0.6048616 0.29676062 0.32255474 -0.481088
000010 5a 73 a8 be 48 af ed be 1e d2 4f be 2f 2b d0 3e
       -0.32900506 -0.4642279 -0.20294997 0.40657946
000020 8a 2e 1d 3e a6 d6 a2 3e 02 8a c9 3e 39 7d c1 be
       0.15349784 0.3180439 0.39363104 -0.3779085
000030 f7 6c 4e 3f 97 5f ea be ad e1 6e 3c ec 2e ef 3d
       0.8063502 -0.45776054 0.0145801725 0.116788715
000040 7c cd b5 3e f1 5e f1 bc 30 76 dc be 3d b5 d3 be
       0.35508335 -0.029464217 -0.4305892 -0.4134921
000050 92 fc fd bd a3 aa ac be 54 5b 9d be 97 41 b3 3c
       -0.124016896 -0.33723935 -0.3073374 0.021881862
000060 82 95 62 3f 2b f5 b0 bd 5b b4 0d be c3 8b a0 3d
       0.8850938 -0.08640512 -0.13838331 0.078391574
000070 a7 93 cd be cb 8d 90 3d a5 2d 1d 3e fc 62 27 3d
       -0.40151712 0.07058295 0.15349443 0.040865883
000080 da 28 1d bd 4d 43 7a be 7c 88 83 3e df a9 89 be
       -0.038369037 -0.24439736 0.25690067 -0.26887414
000090 bd b7 8e 3e 66 d4 20 bf 6f 70 4c 3f 82 dc eb bd
       0.27874556 -0.62824094 0.7985906 -0.11516668
0000a0 9c 0a f6 3d 2c 2c 53 bf da 37 80 be da f0 35 3f
       0.12013742 -0.82489276 -0.2504261 0.71070635
0000b0 0e 3e df 3e 44 52 79 3f fa e9 fa be ed 6e 97 bd
       0.4360203 0.9739115 -0.49006635 -0.07394204
0000c0 ef d9 4b 3e df e0 0c 3d 54 b6 bc be c1 dd 58 3e
       0.19907354 0.03439414 -0.36857855 0.21178342
0000d0 85 17 8e 3e 22 87 a8 bd 9b 08 7e 3c d1 5c 77 3f
       0.2775232 -0.082288995 0.015504981 0.96626
0000e0 3f e8 9b 3d b0 2e f8 3d 2b df 9e be 75 41 08 3f
       0.07612657 0.1211828 -0.3102964 0.5322488
0000f0 03 ca 02 bd 90 19 6a 3f c8 6a 1f 3f ed 91 0a be
       -0.031930935 0.91445255 0.6227231 -0.13532229
000100 03 64 e7 3e 4f 95 e3 be b4 ce b4 3e 44 94 e6 be
       0.4519349 -0.4444985 0.35313952 -0.45034993
000110 af 0a 0c bf 21 ac c2 3e 55 56 70 3e 14 f6 9d 3e
       -0.547038 0.3802195 0.23470433 0.30851805
000120 11 9b fb 3d bb d7 2b be 5f 3b 91 be 44 3b 11 be
       0.12285436 -0.16781513 -0.2836561 -0.14182764
000130 04 39 52 bd 66 92 32 3f e1 a6 ee 3c 23 02 a4 3d
       -0.051323906 0.69754636 0.029132308 0.0800822
000140 cb 34 51 3f 25 4b 28 3d 1c 7b 28 be 8f 97 f7 be
       0.8172118 0.04108729 -0.16453212 -0.48357818
000150 92 21 ed be bc 7d 84 3e 40 85 d4 3e 5f a8 4e 3f
       -0.46314675 0.25877178 0.41507912 0.80725664
000160 d7 69 92 3e 4b 8f 9d 3e a1 33 db 3d 97 08 22 be
       0.28596374 0.30773386 0.10703207 -0.1582359
000170 ec ef e1 be c2 f4 f9 bd b1 52 65 bd 3c 21 a7 3d
       -0.44128358 -0.12204887 -0.055987064 0.08160636
000180 2f 19 6f be 9f bf 82 3e 99 ae 32 3d ac 7f a0 3e
       -0.2334945 0.2553682 0.04362354 0.31347406
000190 f4 b8 dd be 75 31 70 3f 29 8f 7c 3e 1b 76 a2 bc
       -0.4330517 0.93825465 0.24663986 -0.019831708
0001a0 d5 56 c2 3d 2d 07 1f be e5 dc cb 3c 0c 02 b6 3e
       0.09489218 -0.15530081 0.024885604 0.35548437
0001b0 a2 54 fd 3b f6 42 d0 3c ba c0 2b 3f 56 3f 14 3f
       0.0077310363 0.025422554 0.6709095 0.5790914
0001c0 22 4f 99 bf 19 b8 07 3e 68 13 d0 3e 12 ee 36 3d
       -1.1977274 0.13253821 0.40639806 0.044660635
0001d0 4d 15 3e 3e b1 21 9f be 16 cf fc bd 68 52 07 3e
       0.18562813 -0.31080392 -0.12344186 0.13215029
0001e0 3f 38 23 3e 07 a4 25 bf 55 a1 f0 bc 1d 66 5c bf
       0.15939425 -0.6470341 -0.029373804 -0.8609331
0001f0 f5 36 af 3e 27 36 c1 3e 60 32 38 3d 03 83 a0 3d
       0.34221616 0.37736627 0.044969916 0.078374885
000200 4b f6 ca be f2 e7 de be 7b 82 18 be f6 ab c5 bd
       -0.39641032 -0.43536335 -0.14893524 -0.096519396
000210 e2 da ba be b6 bd c8 3c 08 d6 07 3e f9 cf 50 3e
       -0.3649512 0.024504524 0.1326524 0.20391835
000220 6a 57 1e 3f 4e 68 18 bf 65 09 11 3f b9 a0 4c 3e
       0.61852133 -0.59534156 0.5665496 0.19983186
000230 18 d6 c8 be 0d 2c 98 bf 67 45 6e 3e 3a 88 3b 3e
       -0.3922584 -1.1888443 0.23268662 0.18313685
000240 fb 8b 5f 3b 00 e5 11 3c ec 65 d9 bd 43 17 90 be
       0.0034110534 0.0089046955 -0.10615143 -0.28142747
000250 5c 6c a4 bd a4 a0 66 be 6c 2f 92 3d 78 67 03 3d
       -0.080284804 -0.22522217 0.07137951 0.032081097
000260 e4 3d 89 be 3a 3b 79 be b1 a5 c6 be 29 11 01 3f
       -0.2680503 -0.24339 -0.38798288 0.5041681
000270 cc 56 44 3f fe db 06 3e a3 94 33 3d 90 be 92 3e
       0.7669494 0.13169858 0.043842923 0.28661013
000280 21 d6 6e be 54 fa a0 3e cc 8f 9d 3e f2 4c b7 3e
       -0.23323871 0.31440985 0.3077377 0.35800892
000290 bf 2f ca 3c cf 95 88 3d db 58 3c 3d 59 c8 3b 3f
       0.02468097 0.06669199 0.045983177 0.7335258
0002a0 32 70 42 3e e7 52 4f be 2e 33 e0 be ca f3 38 3f
       0.18988112 -0.20246468 -0.43789047 0.7224699
0002b0 df 38 b0 3e 4a f8 40 bf d5 d7 03 bf f7 a0 ab be
       0.3441839 -0.7537886 -0.5150121 -0.33521244
0002c0 b7 a4 86 3f be 8d ea bd 8d bd f7 3d 29 dc 0b 3e
       1.0519017 -0.114528164 0.12096701 0.13658203
0002d0 26 9e 34 3f 3d 40 84 be 1f 32 06 bf d8 ff 52 bd
       0.70553815 -0.2583026 -0.5242023 -0.051513523
0002e0 04 0d e2 be d9 64 00 3f 44 28 59 3f 54 2e 04 3f
       -0.44150555 0.5015388 0.84827065 0.5163319
0002f0 e0 d0 30 3f 0b 39 e4 3e bf a5 a0 be 1c 8c 1c 3d
       0.6906872 0.4457477 -0.31376454 0.038219556
000300 12 cf e9 3c 9c 32 55 be 00 00 39 3f 58 4b 8f 3c
       0.028541122 -0.20820087 0.72265625 0.017491981
000310 80 99 a6 3e 47 5f 17 3f b3 24 df 3e 06 c2 0d bf
       0.32538986 0.59129757 0.43582687 -0.5537418
000320 c0 40 d4 be ee 5a 37 3e 55 84 8d bb 1f 6b ba 3b
       -0.4145565 0.1790578 -0.0043187537 0.0056890394
000330 2c ce 05 3e 69 e0 d7 bc 21 45 0e 3e d0 96 76 be
       0.1306693 -0.026352124 0.13893558 -0.24080968
000340 8f 50 64 be 2c e6 89 be f7 3a f8 be 38 b2 e5 be
       -0.22296356 -0.2693342 -0.48482487 -0.44862533
000350 bc 40 80 bd 3a 28 03 3f 28 5b 2b 3f 81 1f 76 3e
       -0.06262347 0.51233256 0.6693597 0.24035455
000360 6a cf 50 3d c3 e8 f9 3d 0d b0 20 be ea 2a 67 bf
       0.050979055 0.12202599 -0.15692158 -0.90299857
000370 35 63 7a bf a6 fd 37 3f a6 34 99 3e ac 73 65 be
       -0.9780763 0.7187141 0.2992298 -0.22407407
000380 3f 9d 98 be 93 f1 6d 3e 8d 73 fd 3b be 28 a9 be
       -0.2980747 0.23236685 0.007734722 -0.33038896
000390 2a f1 f1 be d2 0b 39 bd 0d 94 86 be c1 95 1c 3f
       -0.47254306 -0.04517729 -0.2628483 0.61166006
0003a0 c1 ce ea 3e 37 e4 2d 3f 01 05 f2 bd 7f a5 c4 3c
       0.45860866 0.67926353 -0.11817361 0.024004696
0003b0 32 8f f4 bc 29 31 1b 3d 97 77 e7 3e 43 27 25 3e
       -0.029853437 0.03788868 0.45208427 0.16128258
0003c0 1d 51 8e 3e 2d ec ea 3e 18 34 1a bd e0 6a 5e bc
       0.2779626 0.45883313 -0.037647337 -0.013575286
0003d0 45 69 d7 3d 00 10 22 bd 9f fc 8a bd 41 7d 80 be
       0.105181254 -0.03956604 -0.06786465 -0.2509556
0003e0 14 b3 f8 bd 9f 0c 0c be 9e 6a be bd 4c 0f 5a be
       -0.121435314 -0.1367669 -0.09297679 -0.21294898
0003f0 74 85 1a 3e 31 f0 84 be 2e 85 12 bf e7 25 b7 be
       0.15089971 -0.25964502 -0.57234466 -0.35771105

linear1.bias f4 [128]
000000 b5 a8 83 be 3a 1f 06 3f 49 46 8e be 6a 67 76 3c
       -0.2571465 0.523914 -0.27787998 0.015039304
000010 d7 21 17 be 88 43 fa be 31 e0 01 3f 18 e6 bf be
       -0.14759003 -0.48879647 0.50732714 -0.37480235
000020 05 b2 d9 be 2b db e6 be b9 27 b2 3d 14 ab 23 3f
       -0.4251863 -0.45089087 0.08698983 0.6393292
000030 61 db 51 3e 8f 75 ab be 33 00 db bd 54 9c cc bc
       0.20493843 -0.33488128 -0.106933974 -0.024976887
000040 82 59 d9 be 97 ad d8 be 3b 47 6e 3e 62 41 22 3f
       -0.42451102 -0.4231994 0.2326936 0.63381016
000050 07 e8 a9 3b 5c 49 fb be 04 01 73 be 95 ae 41 3f
       0.0051851305 -0.49079406 -0.23730856 0.75657016
000060 f9 1a 46 be 2f b4 cd 3e 15 44 0f be 6c e0 e7 be
       -0.19346227 0.40176532 -0.13990815 -0.45288408
000070 fd 66 42 3f 1f 5f 03 bf 61 03 8c bd d6 45 58 bc
       0.759384 -0.5131702 -0.06836582 -0.013200244
000080 17 79 29 be d5 8b d4 bd 5d 64 4c bd d6 46 1d 3d
       -0.16550098 -0.10378233 -0.0499004 0.038397633
000090 f9 da a2 bd f4 e8 38 bf 57 aa 05 bf 39 f3 ec 3e
       -0.07951922 -0.7223046 -0.5221304 0.46279314
0000a0 59 6e 40 3f 90 2e 49 bc 39 e5 3d 3e 8d 4c ae be
       0.7516838 -0.012279168 0.18544473 -0.3404278
0000b0 0d bf 7c be d1 d7 ee bd 28 36 7a be b6 49 80 3e
       -0.24682255 -0.116622575 -0.24434721 0.25056237
0000c0 4e 82 b1 be 63 ed cc 3e 43 45 8f be 5d ca 11 3f
       -0.34669727 0.40024862 -0.2798253 0.56949407
0000d0 dc 98 9c be 78 83 30 3f 01 8b 30 bf f4 f4 cc 3e
       -0.30585372 0.68950605 -0.68962103 0.40030634
0000e0 a0 b9 a3 3e 2a 8c 3c 3e 59 63 38 be a0 67 d4 bc
       0.31977558 0.18412843 -0.18006648 -0.025928319
0000f0 4b 64 63 3e 60 ad 12 be 5a 8c df be 51 52 af bc
       0.22206227 -0.1432395 -0.43661767 -0.021401556
000100 b9 8b 81 be 92 3c 54 be be cb ff 3e 00 5c ba 3e
       -0.25301912 -0.2072623 0.4996013 0.36398315
000110 ea 04 07 bd a3 86 f5 be 26 38 06 3f fe 95 d4 be
       -0.03296367 -0.47954282 0.52429426 -0.41520685
000120 92 b5 01 3f 81 e2 bb be 69 07 f1 3d 78 b0 e5 3e
       0.5066768 -0.36696246 0.117689915 0.44861197
000130 5c e0 90 be 10 db 74 be a1 c2 00 bf e5 4e 3b 3f
       -0.28296173 -0.2391169 -0.5029698 0.7316726
000140 96 08 0f be c8 1c 9c be a3 15 7a bd 79 a6 42 be
       -0.13968119 -0.30490708 -0.06105579 -0.19008817
000150 4e c8 ef be 2f af 9e bd 46 cf 31 3f a1 d3 a9 bc
       -0.46832508 -0.07748257 0.694569 -0.020730795
000160 de a8 e2 bc 2c 2f 96 3e a6 79 2c be c9 b7 04 bf
       -0.027668413 0.29332864 -0.1684328 -0.51842934
000170 06 59 e7 3e 1b eb 3b 3e 10 ec 3d 3e 78 4b 7a bd
       0.45185107 0.18351404 0.18547082 -0.06110713
000180 8e 8f 0e 3f 2b 13 8c 3e 14 05 f2 3d 12 dc 28 3f
       0.556878 0.27358374 0.11817375 0.659608
000190 88 c1 03 3e f8 68 a6 bd 3b ca a5 3e 5f 50 eb be
       0.12866795 -0.0812549 0.32380852 -0.45959756
0001a0 c8 57 2d 3f 58 67 b0 be a5 80 a9 be ae ad 90 be
       0.6771207 -0.34453845 -0.3310596 -0.28257507
0001b0 48 1e a5 3e a1 ac f4 3e 8f 34 8b be aa f2 be 3e
       0.32249665 0.47787955 -0.27188537 0.37294513
0001c0 a0 58 9f be c9 a6 ca bd 7a 06 b8 be dd 20 85 bc
       -0.31122303 -0.09895093 -0.3594244 -0.016251022
0001d0 d7 56 b8 be 89 d7 41 3f ea 34 05 3f d7 6f e6 be
       -0.36003754 0.75719506 0.52033865 -0.45007202
0001e0 a3 ea dc 3d dc af a6 be 57 db ed 3e 68 3e 00 bf
       0.10786941 -0.32556045 0.46456406 -0.50095224
0001f0 56 a3 93 be 54 5e 22 3e 2b 47 be be cc 71 e7 be
       -0.28835553 0.15856296 -0.37163672 -0.45204008

linear2.weight f4 [3, 128]
000000 a3 d7 e1 bd e2 4f a9 3e 98 9c cb 3d 06 a7 fc 3e
       -0.110274576 0.33068758 0.09941977 0.4934618
000010 e6 72 8e bc 37 79 b2 bf 05 6a 0c 3e 86 06 96 bf
       -0.017388772 -1.3943242 0.13712318 -1.1720741
000020 c2 55 35 be 48 82 b5 bc 5d cc 67 3d 6d 2a 90 3e
       -0.17708495 -0.02215685 0.05659138 0.28157368
000030 5b 5e 06 3f fa d0 67 3d 7d 57 77 3e 16 c2 45 3e
       0.52487725 0.05659578 0.24154468 0.19312319
000040 95 d8 a0 bf a1 65 c0 be 9b bb a4 bc f0 e8 be 3e
       -1.2566096 -0.37577537 -0.020108989 0.37287092
000050 b2 eb 11 3e c9 7c 20 be d2 df 37 bd de ef 9b 3e
       0.14250067 -0.15672602 -0.044891186 0.30456442
000060 bf a4 63 bf 55 e2 c4 3e db db 8c be 2f 93 3e be
       -0.8892326 0.38453928 -0.27511486 -0.18610834
000070 2a b3 7c 3e 8f 76 f6 be 4a b1 02 be 73 ae 2e 3d
       0.2467772 -0.48137328 -0.12762943 0.042646836
000080 2f 6a 51 bd 12 fb 73 bf c5 e0 a1 3e 19 e8 4c 3d
       -0.051126655 -0.9530498 0.31616798 0.050026033
000090 51 e7 9f 3c 0e 01 aa bd 51 95 5a 3c ad 5d da 3e
       0.01951948 -0.083009824 0.013341264 0.42649594
0000a0 2b 8e 07 3f aa 76 99 3d 33 8c 11 3e 0c 73 88 be
       0.52951306 0.074933365 0.14213638 -0.26650274
0000b0 c1 cb b4 3d 15 0b 64 bf 19 8f e0 3c 7d 1c 74 3e
       0.088279255 -0.8907941 0.027411984 0.23838992
0000c0 93 63 e5 be 9b c6 b7 3e 88 f6 12 be ed 1a a9 3e
       -0.44802532 0.3589371 -0.14351857 0.33028355
0000d0 90 7e fc be 81 3b cf 3e d6 a2 1a be 1d c9 bb 3d
       -0.4931531 0.40475085 -0.1510118 0.09169219
0000e0 6b c8 40 3e 16 6e 39 3f 3f 0a 57 3e 9e 19 24 3d
       0.18826453 0.724336 0.21000002 0.040063493
0000f0 0b 33 11 3f 5f 7c fa be 0d 26 97 be 58 d0 13 3e
       0.5671851 -0.48923013 -0.29521218 0.14434946
000100 20 ef ea 3c e0 80 de bc 8e 47 1c 3f 1c 8d d0 3e
       0.028678477 -0.027161062 0.61046684 0.40732658
000110 c8 12 a6 3e 54 67 9a be b2 ec 38 3f 14 ac 6d bc
       0.32436204 -0.30156958 0.7223617 -0.014506359
000120 c2 b3 d2 3e 7e 1c c4 be 0d 38 29 3f bb fc 1b 3e
       0.4115277 -0.38302988 0.6610115 0.15233128
000130 b8 36 fb 37 de 87 ec 3c 87 74 08 be 08 91 88 3d
       2.9947012e-05 0.02887338 -0.13325702 0.066682875
000140 16 60 b6 bf db ac ae 3d d4 0b e8 ba 76 e0 15 bc
       -1.4248073 0.08529063 -0.001770372 -0.009147754
000150 f3 a5 4a be 25 2e ee 3e 57 a7 cf 3e a9 f5 00 bc
       -0.19789867 0.4651958 0.40557358 -0.00787107
000160 4d 5a 07 3e 96 0a a2 3e 0b 1d ad bd 7d ae 53 bc
       0.13218041 0.316487 -0.08452805 -0.012920019
000170 6a 06 2f 3f 98 4b 77 3e 86 1f 83 3e 2a 6c 2c bd
       0.6836916 0.2414993 0.25609988 -0.04209534
000180 9a 26 a9 3d 92 32 2b 3d ef e9 b2 3e bc 9b 49 3f
       0.08259316 0.041796274 0.34944102 0.78753257
000190 4f ee c8 3d 2b db 6b 3e de 21 36 3e 45 be 31 be
       0.09811079 0.23032825 0.17786357 -0.17357738
0001a0 6b ac 38 3f 62 ec ad bf 69 14 8f bd a3 33 c9 38
       0.7213809 -1.3587763 -0.06986315 9.594045e-05
0001b0 6d c5 23 3f fe 70 0d 3f cf d5 e7 ba 15 f8 03 3f
       0.6397312 0.5525054 -0.0017687621 0.5155042
0001c0 93 92 b4 bf f9 2f 06 3e ff 28 b6 bf c3 50 6c be
       -1.4107231 0.13104238 -1.4231261 -0.23077683
0001d0 19 3b 04 3d f1 dc 10 3f 0e 2d 28 3e c9 91 23 be
       0.032282922 0.5658713 0.16423437 -0.15973581
0001e0 7f bc d2 3e a9 18 17 bd 47 57 19 3f fc 69 f3 be
       0.41159436 -0.036888752 0.598988 -0.47541797
0001f0 7f a3 71 be 2b 72 d1 bb 77 ac 94 3c 44 fa 81 be
       -0.23597525 -0.0063917837 0.018148644 -0.2538625
000200 7b a0 89 bd 0c a1 90 3c eb a8 5c bd bb 3f 3f bf
       -0.06720062 0.017654918 -0.05387203 -0.7470662
000210 c0 1d d8 be de 99 c5 3d 25 35 b1 3e de ca a7 3e
       -0.42210197 0.096484885 0.3461086 0.32771963
000220 7b 0e 1f 3d 26 94 03 3e 99 0c 16 be 91 ea 90 3e
       0.03883217 0.12849483 -0.14653243 0.2830396
000230 41 4c d3 3e b8 39 76 3b 3b 72 55 be 83 46 84 3e
       0.41269115 0.0037571024 -0.20844357 0.25835046
000240 3b 93 fb 3e 6d 37 fa be 35 9d 70 3e d2 6b e9 3e
       0.49135765 -0.48870412 0.2349747 0.45590073
000250 b9 bc b0 be 0e e7 4b be 82 f1 30 3d 00 4f e4 3e
       -0.34518984 -0.19912359 0.04319907 0.44591522
000260 13 20 ae bb f2 dd 68 bc 69 8b 29 3e 64 33 39 be
       -0.005313882 -0.014213072 0.16557087 -0.1808601
000270 b9 13 10 3f 85 c0 97 3d 7c 68 0f 3e d4 e0 93 3e
       0.56280094 0.07409767 0.14004701 0.28882468
000280 15 af 92 bd 9e d5 87 3e 27 96 90 bf f2 f6 84 bf
       -0.071623005 0.26530164 -1.1295823 -1.0387862
000290 aa 02 36 bb cb 58 87 be be 7a c3 3d f6 6e c8 bd
       -0.0027772584 -0.2643493 0.095448956 -0.09786789
0002a0 aa d2 07 3f 48 7e ba 3e 64 e8 0b 3f 40 79 8b bf
       0.5305582 0.3642447 0.54651475 -1.0896378
0002b0 ff d6 d5 3e 51 78 40 3f dc 45 02 3d dc ad 8f be
       0.41765592 0.7518359 0.031804904 -0.28062332
0002c0 5f 5a 22 3e 16 b3 e3 3e ad ae cf 3c 82 4c 53 3f
       0.15854786 0.4447257 0.025351847 0.82538617
0002d0 64 a6 f4 3e 73 cf 17 3e ac 34 92 3d 02 41 21 3f
       0.47783196 0.1482523 0.071389526 0.6298982
0002e0 ee 02 ed bd 82 c1 0f 3f c2 d5 0a bf d8 3e 15 bc
       -0.115728244 0.56154644 -0.5423242 -0.009109221
0002f0 40 70 6c bf 3a 6e a2 3e 87 8e b1 be b7 6f b2 bd
       -0.9235878 0.3172472 -0.34679052 -0.08712714
000300 63 e8 3e 3c 2a 4c ac bd 68 7b 24 3f e1 ef 96 bf
       0.011652085 -0.08412965 0.64250803 -1.1791955
000310 dc 44 d4 3d 15 28 a1 bd c2 1d df 3e ed 7e 3c be
       0.103646964 -0.07868973 0.4357739 -0.18407793
000320 2f a7 ef 3e ae 51 fe be 26 04 5d bf 51 46 85 3d
       0.46807238 -0.49671692 -0.86334455 0.065075524
000330 42 7d 1c be 6f 9e 75 3e 64 34 3d 3d da 0b 04 3f
       -0.15282157 0.23986219 0.04619254 0.51580584
000340 42 08 95 3f 1c 09 89 bd 65 f7 78 bf e4 39 cb 3b
       1.1643145 -0.066911906 -0.97252494 0.0062019695
000350 b2 42 27 be b8 bf 4e bf 35 ef 02 3f 28 a4 8e be
       -0.16334036 -0.8076129 0.5114625 -0.27859616
000360 00 74 47 bf 86 73 e3 3e cd 03 dd be 82 c0 5c 3d
       -0.77911377 0.44424075 -0.43166962 0.053894527
000370 d4 7b 1f be af 32 98 be 29 ff 88 be 3b 14 fc 3c
       -0.1557458 -0.2972617 -0.26757172 0.030771365
000380 ee df 05 3f 91 a0 22 bd 53 6a 00 bf 39 e8 23 be
       0.52294815 -0.03970391 -0.5016224 -0.16006555
000390 f3 d0 71 be 75 7e f6 be e6 79 13 3f 02 e0 91 bd
       -0.23614864 -0.48143354 0.5760788 -0.07122804
0003a0 99 98 0b be df 06 7f 3e 74 6d 52 be 26 82 6d 3d
       -0.1363243 0.24904965 -0.20549566 0.057985447
0003b0 94 34 dd 3e 1d 1c 0b be de 35 00 3d 62 d3 70 bd
       0.43204176 -0.13584943 0.03130137 -0.05879534
0003c0 c6 d8 a6 3d d2 74 b9 bd b0 c1 dd be ea cb 24 3f
       0.08146815 -0.09055485 -0.43311834 0.6437365
0003d0 d3 81 4e 3e 26 e3 b0 3e b5 28 39 3f 69 d1 0c bd
       0.20166712 0.345483 0.7232774 -0.034379397
0003e0 54 a8 af 3d 6e 40 13 3d f8 98 a7 3e 6c 36 ad be
       0.08577028 0.035950117 0.32733893 -0.33830583
0003f0 52 41 1c bf 33 c2 0e 3f b1 c5 b2 bd f8 91 a4 be
       -0.6103717 0.55765074 -0.08729113 -0.32142615

linear2.bias f4 [3]
000000 08 c8 91 3e c5 e4 45 3e d2 ab 8d 3e
       0.28472924 0.1932555 0.2767015

linear1.weight f4 [128, 11]
000000 5b 64 1a 3f ed 6f 97 3e c8 97 a5 3e c3 6b f6 be
       0.6030938 0.2957758 0.32342362 -0.4812909
000010 44 38 aa be f7 18 ed be 20 dd 52 be 62 c2 cd 3e
       -0.33246052 -0.4630811 -0.20592165 0.40187365
000020 d8 31 1d 3e fb d5 a2 3e 10 9e c7 3e e9 d0 bf be
       0.15351045 0.3180388 0.3898778 -0.37464073
000030 d8 b4 4e 3f f6 5f ea be 37 78 6e 3c 98 ed f0 3d
       0.80744696 -0.45776337 0.014555029 0.117640674
000040 07 0a b5 3e 47 0e c7 bc 76 50 dc be 89 b6 d3 be
       0.35359213 -0.0242988 -0.43030137 -0.413502
000050 f9 6e 00 be d5 c0 a9 be 5b 88 9e be a5 59 ab 3c
       -0.12542333 -0.33154932 -0.30963406 0.02091677
000060 1f a4 62 3f 35 42 b5 bd cd b4 0d be 54 2f a2 3d
       0.8853168 -0.088505186 -0.13838501 0.079191834
000070 97 94 cd be 16 f5 90 3d 6e 2c 1d 3e 80 59 27 3d
       -0.40152428 0.070779964 0.1534898 0.04085684
000080 bf 29 1b bd 66 32 78 be 19 42 84 3e 11 aa 87 be
       -0.03788161 -0.24237975 0.25831679 -0.26496938
000090 68 7a 8e 3e c8 ac 21 bf 16 54 4c 3f b1 4e eb bd
       0.27827764 -0.6315427 0.79815805 -0.114896186
0000a0 d0 45 ea 3d 6e 39 53 bf 10 1c 81 be cc d6 35 3f
       0.11439097 -0.82509506 -0.25216722 0.7103088
0000b0 f8 7a df 3e 92 2a 7a 3f bf da fa be 49 32 97 bd
       0.43648505 0.9772121 -0.48995015 -0.07382638
0000c0 98 9c 48 3e 7a 01 0b 3d 6a 13 bc be 28 88 53 3e
       0.19590986 0.033936955 -0.36733562 0.20657408
0000d0 9b 19 8e 3e 95 59 a9 bd 8c 48 52 3c 41 a7 77 3f
       0.2775391 -0.082690395 0.012834679 0.96739584
0000e0 c2 c2 9d 3d 09 3d f8 3d 17 8d 9e be 8f 5b 08 3f
       0.07703163 0.121210165 -0.30967018 0.5326471
0000f0 12 fa 02 bd 02 50 6a 3f 18 36 20 3f 92 90 0a be
       -0.031976767 0.9152833 0.6258254 -0.13531712
000100 b3 76 e7 3e 33 11 e3 be 9e a7 b5 3e 10 ab e4 be
       0.45207748 -0.4434906 0.35479444 -0.4466176
000110 e3 a1 0c bf 50 ee c2 3e d5 50 73 3e 5e d6 9c 3e
       -0.5493452 0.38072443 0.23761304 0.306323
000120 72 84 06 3e 1c 86 25 be 53 83 91 be e7 04 12 be
       0.13136461 -0.1616444 -0.28420505 -0.14259683
000130 82 00 2e bd 93 dd 32 3f 0b 41 f4 3c 3c 2d a4 3d
       -0.042480953 0.69869345 0.029816171 0.0801644
000140 54 4a 51 3f ff 0a 35 3d 7b 71 28 be b8 69 f7 be
       0.8175404 0.04419994 -0.1644954 -0.48322845
000150 e5 34 ec be 5b 5f 85 3e f1 a8 d4 3e 62 61 4f 3f
       -0.46134105 0.26049313 0.41535142 0.8100797
000160 4d e8 94 3e d4 7a 9e 3e 07 11 dc 3d e7 5d 21 be
       0.2908348 0.30953085 0.10745435 -0.15758477
000170 ec ef e1 be 74 f4 f9 bd 49 d2 56 bd 26 75 ab 3d
       -0.44128358 -0.12204829 -0.052446637 0.08371954
000180 e9 19 6f be 71 bf 82 3e 64 dc 57 3d 4c 41 a0 3e
       -0.23349728 0.25536683 0.052700415 0.31299818
000190 5d b5 de be 4e 8f 6f 3f 35 20 7c 3e 4a 6b a2 bc
       -0.43497744 0.9357804 0.24621661 -0.01982655
0001a0 14 82 be 3d 19 08 1f be 0f f5 bb 3c 43 0b b6 3e
       0.09302154 -0.15530433 0.022944001 0.35555467
0001b0 8b ed fd 3b c9 3b c5 3c 86 56 2c 3f e8 32 15 3f
       0.0077492646 0.02407636 0.67319524 0.582808
0001c0 4c 13 99 bf fb c9 07 3e cf 3f d0 3e 90 ef 34 3d
       -1.1959014 0.13260643 0.40673682 0.044173777
0001d0 01 4e 3e 3e 0c 69 9f be 65 6b fd bd 2c f4 06 3e
       0.18584444 -0.31134832 -0.123739995 0.13179082
0001e0 23 f3 23 3e 15 a4 25 bf 8a a9 ea bc 1d 66 5c bf
       0.16010718 -0.64703494 -0.028645296 -0.8609331
0001f0 b6 52 af 3e d2 ff c1 3e 19 3b 32 3d dd 3a ae 3d
       0.3424279 0.37890488 0.04351339 0.08507321
000200 a2 9c c8 be da 6a df be 93 ac 19 be ad d3 b6 bd
       -0.39182 -0.4363621 -0.15007238 -0.08927093
000210 07 d7 bb be 36 18 b8 3c c3 e5 05 3e 6b b8 50 3e
       -0.3668749 0.022472482 0.13075928 0.2038285
000220 ae 42 1e 3f 6a b2 1a bf 0f b7 12 3f cf 89 4f 3e
       0.61820495 -0.6042849 0.57310575 0.20267414
000230 76 90 c9 be 0d 2c 98 bf 3c 5a 73 3e 3a 88 3b 3e
       -0.39368027 -1.1888443 0.2376489 0.18313685
000240 fb 8b 5f 3b 00 e5 11 3c ec 65 d9 bd 43 17 90 be
       0.0034110534 0.0089046955 -0.10615143 -0.28142747
000250 5c 6c a4 bd a4 a0 66 be 6c 2f 92 3d 78 67 03 3d
       -0.080284804 -0.22522217 0.07137951 0.032081097
000260 e4 3d 89 be 3a 3b 79 be 2f b8 c7 be 10 55 00 3f
       -0.2680503 -0.24339 -0.39007708 0.50129795
000270 0b 9b 44 3f 46 60 06 3e 2c 3e 25 3d a2 ee 92 3e
       0.76799077 0.13122663 0.040342495 0.28697687
000280 ba c3 70 be 28 c4 9f 3e aa fa 9c 3e 79 21 b7 3e
       -0.23512164 0.31204343 0.30659992 0.35767725
000290 e8 15 a5 3c e8 6d 81 3d 6c 38 2f 3d 93 f9 3a 3f
       0.020152047 0.06319791 0.042778417 0.7303707
0002a0 aa 92 42 3e ca 52 4f be 6a 72 e2 be f2 fe 39 3f
       0.1900126 -0.20246425 -0.44227916 0.7265464
0002b0 14 6a b0 3e a5 f8 40 bf b7 a7 03 bf ff 01 aa be
       0.3445593 -0.753794 -0.5142779 -0.33204648
0002c0 89 c7 86 3f 90 35 e8 bd 4e 50 f5 3d af 49 0c 3e
       1.0529643 -0.11338341 0.119782075 0.13699983
0002d0 39 7f 35 3f 21 b5 85 be 82 d4 05 bf 4e 13 4b bd
       0.7089725 -0.26114753 -0.52277386 -0.049578957
0002e0 a2 f9 e0 be dd 7d 00 3f d8 ef 59 3f 93 e1 03 3f
       -0.43940455 0.5019205 0.851316 0.51516074
0002f0 bb 92 30 3f bf fb e4 3e 8a 33 a1 be 22 99 14 3d
       0.6897389 0.44723317 -0.31484634 0.03627885
000300 0c 1c fb 3c f6 df 5a be 50 76 37 3f 16 26 9c 3c
       0.030653022 -0.21374497 0.71664906 0.01906113
000310 3d 7a a6 3e f0 1c 16 3f 38 bf df 3e b7 b6 0c bf
       0.32515135 0.58637905 0.43700576 -0.549663
000320 a2 40 d4 be bb c8 37 3e 6e c2 71 bb 1e 1d c9 3b
       -0.4145556 0.17947666 -0.003688957 0.0061375042
000330 36 ff 0b 3e b9 be a2 bc 04 7b 0e 3e 21 f3 75 be
       0.13671574 -0.019866334 0.13914114 -0.24018528
000340 f5 25 5e be e0 e6 89 be 03 3c f8 be f6 d0 e6 be
       -0.21694167 -0.26933956 -0.48483285 -0.450813
000350 50 35 7f bd ad 5f 03 3f 83 d4 2a 3f 18 fc 79 3e
       -0.062306702 0.51317865 0.6673052 0.24412572
000360 bb 3a 60 3d fb 06 f8 3d 6c ba 21 be 63 29 66 bf
       0.05474351 0.121107064 -0.1579377 -0.899069
000370 35 63 7a bf 9c d1 37 3f 8e 34 99 3e 47 74 65 be
       -0.9780763 0.71804214 0.2992291 -0.22407638
000380 46 8e 98 be ff b8 6c 3e bb 11 de 3b 92 eb a9 be
       -0.29796046 0.23117445 0.006777016 -0.33187538
000390 45 e4 f1 be 7d ae 3d bd 1f 18 87 be e8 1d 1c 3f
       -0.47244468 -0.046308983 -0.2638559 0.60983133
0003a0 71 c5 e9 3e fd 33 2e 3f 6e 44 f4 bd e6 d4 b0 3c
       0.45658448 0.6804808 -0.119271144 0.021585893
0003b0 f2 5a e3 bc e2 d4 05 3d 38 a2 e4 3e f4 73 26 3e
       -0.027753327 0.032673724 0.44655013 0.1625517
0003c0 1c 76 8e 3e 27 2b e8 3e 18 34 1a bd e0 6a 5e bc
       0.27824485 0.45345423 -0.037647337 -0.013575286
0003d0 45 69 d7 3d 00 10 22 bd 9f fc 8a bd 41 7d 80 be
       0.105181254 -0.03956604 -0.06786465 -0.2509556
0003e0 14 b3 f8 bd 9f 0c 0c be 9e 6a be bd 4c 0f 5a be
       -0.121435314 -0.1367669 -0.09297679 -0.21294898
0003f0 74 85 1a 3e 90 f0 84 be a3 2d 12 bf 6e 40 b8 be
       0.15089971 -0.25964785 -0.57100886 -0.35986656

linear1.bias f4 [128]
000000 dd 47 85 be 81 c4 06 3f 2a 34 8e be 33 a5 5d 3c
       -0.2603139 0.5264359 -0.27774173 0.013528156
000010 ca 67 19 be 1e cf f9 be 10 1a 03 3f eb be be be
       -0.14980999 -0.4879083 0.51211643 -0.37255034
000020 b3 c7 d8 be b5 6c e7 be ab 7c b2 3d 48 a4 24 3f
       -0.42339858 -0.45200124 0.08715185 0.64313173
000030 33 22 56 3e 8f 75 ab be d3 ea df bd de 1d b6 bc
       0.20911483 -0.33488128 -0.10933461 -0.022231039
000040 e7 02 d8 be 3d a8 da be 69 96 72 3e d9 98 22 3f
       -0.42189714 -0.4270648 0.2369019 0.63514477
000050 bb 47 78 3b eb 1c fd be 04 01 73 be 56 cb 42 3f
       0.0037884552 -0.49436125 -0.23730856 0.76091516
000060 12 66 45 be d8 68 ce 3e 06 cf 0e be c0 2d e8 be
       -0.19277218 0.40314364 -0.1394616 -0.45347404
000070 d7 ad 43 3f 28 50 03 bf da c1 8f bd 4d 5f 19 bc
       0.76437134 -0.51294184 -0.07019396 -0.0093611
000080 17 79 29 be 18 9e d1 bd d8 35 47 bd a5 86 1f 3d
       -0.16550098 -0.10235232 -0.048635334 0.038946766
000090 f9 da a2 bd f5 dc 38 bf a8 49 07 bf 62 66 ed 3e
       -0.07951922 -0.72212154 -0.52846766 0.46367174
0000a0 2b 76 41 3f f7 cc 4e bc c9 32 3e 3e eb fa ad be
       0.75570935 -0.01262211 0.1857406 -0.33980498
0000b0 da cf 7d be 44 21 e9 bd 28 36 7a be 1c 02 7f 3e
       -0.2478632 -0.11383298 -0.24434721 0.24903148
0000c0 3a 9e b2 be db 18 cf 3e b3 e8 90 be e7 e5 12 3f
       -0.34886342 0.4044865 -0.28302535 0.57382053
0000d0 63 b2 9c be fa 25 31 3f 11 b3 30 bf c1 9e cf 3e
       -0.30604848 0.6919857 -0.69023234 0.40550807
0000e0 1e 60 a3 3e df a3 41 3e ad 16 3b be c6 0f da bc
       0.3190927 0.18910168 -0.18270369 -0.02661885
0000f0 87 47 63 3e 7b 3f 12 be 98 30 e1 be 38 6e a1 bc
       0.22195254 -0.14282028 -0.43982387 -0.019705877
000100 b9 8b 81 be 92 3c 54 be 78 01 01 3f 41 b1 b8 3e
       -0.25301912 -0.2072623 0.50392866 0.36072734
000110 3c 2b 02 bd da d1 f4 be f8 f4 06 3f fe 95 d4 be
       -0.031779513 -0.47816354 0.5271754 -0.41520685
000120 0f dc 02 3f ec 57 be be 9f 0d ea 3d fb fb e6 3e
       0.5111703 -0.37176454 0.11428379 0.4511412
000130 1e cf 91 be c5 36 77 be b1 c2 00 bf 40 98 3c 3f
       -0.2847833 -0.24141987 -0.50297076 0.73669815
000140 a4 31 0c be c8 1c 9c be 0c e4 76 bd 79 a6 42 be
       -0.13690811 -0.30490708 -0.060276076 -0.19008817
000150 0f c1 f0 be e9 df a0 bd 9a fd 32 3f 69 12 99 bc
       -0.47022292 -0.078552075 0.69918215 -0.018685536
000160 5d 4a ff bc be 21 99 3e 40 0f 32 be 8e ee 04 bf
       -0.031163389 0.29908556 -0.1738863 -0.51926506
000170 81 0d e9 3e 4b 20 3f 3e d2 70 3e 3e 4b ab 67 bd
       0.45518115 0.18664663 0.18597725 -0.056559842
000180 09 09 10 3f 04 1b 8d 3e af 2a f1 3d 27 24 29 3f
       0.56263787 0.27559674 0.117757194 0.6607079
000190 ee 7e 05 3e 14 68 ad bd 53 73 a8 3e 1a fe ea be
       0.13036701 -0.08467117 0.32900485 -0.4589699
0001a0 2b a1 2d 3f 77 4d af be d3 7a a9 be ae ad 90 be
       0.6782405 -0.34238788 -0.3310152 -0.28257507
0001b0 7b 97 a4 3e f6 36 f5 3e 8f 34 8b be 3a 1f c0 3e
       0.3214682 0.47893494 -0.27188537 0.37523824
0001c0 aa 81 9e be 91 24 c2 bd 64 f0 b7 be 13 f9 4a bc
       -0.309583 -0.09479631 -0.3592559 -0.0123884855
0001d0 54 11 b9 be a1 9b 42 3f 80 d8 06 3f bd 7d e6 be
       -0.36146033 0.7601872 0.526741 -0.45017806
0001e0 7f ca db 3d 63 03 a7 be 98 db ee 3e 69 c1 00 bf
       0.107319824 -0.3261977 0.46651912 -0.5029512
0001f0 39 43 94 be 12 9c 24 3e 09 df be be 90 bc e8 be
       -0.28957537 0.16075161 -0.37279537 -0.45456362

linear2.weight f4 [3, 128]
000000 d1 18 e4 bd 3c 47 a9 3e 6e 99 cb 3d 1e dc fd 3e
       -0.11137546 0.3306216 0.09941374 0.49582
000010 df 2a 98 bc 1a 9b b2 bf 60 6e 0e 3e 30 46 96 bf
       -0.01857513 -1.3953583 0.13909292 -1.174017
000020 97 55 35 be 24 97 b5 bc 80 01 6d 3d 08 45 91 3e
       -0.17708431 -0.022166796 0.05786276 0.2837298
000030 b7 2f 07 3f fa d0 67 3d b2 1f 76 3e 01 9f 48 3e
       0.5280718 0.05659578 0.24035528 0.19591905
000040 9a 23 a1 bf 0c 1e c1 be e5 e2 95 bc cf 4e be 3e
       -1.258899 -0.37718236 -0.018296668 0.371695
000050 36 35 11 3e 2e c9 21 be d2 df 37 bd 9a df 9c 3e
       0.14180455 -0.157994 -0.044891186 0.30639344
000060 eb ee 63 bf 5e 67 c5 3e d9 db 8c be 64 a0 3e be
       -0.89036435 0.38555425 -0.2751148 -0.18615872
000070 a5 7b 7e 3e 93 8d f6 be ea c3 02 be e4 28 36 3d
       0.24851854 -0.48154888 -0.12770048 0.04447259
000080 2f 6a 51 bd fe 97 74 bf d4 e9 a1 3e 27 d3 4c 3d
       -0.051126655 -0.9554442 0.3162371 0.050006058
000090 51 e7 9f 3c cf 13 aa bd 87 93 5a 3c ab 0b db 3e
       0.01951948 -0.083045594 0.013340837 0.4278234
0000a0 f7 28 08 3f e4 25 96 3d 20 27 14 3e 48 9e 88 be
       0.5318751 0.07331446 0.1446805 -0.2668326
0000b0 20 98 b3 3d 54 27 64 bf 19 8f e0 3c 09 48 76 3e
       0.0876925 -0.8912251 0.027411984 0.24050917
0000c0 1f 82 e5 be d9 23 b9 3e c1 03 11 be 95 56 a9 3e
       -0.44825837 0.36160162 -0.14161588 0.3307387
0000d0 c3 7d fc be 43 ca cf 3e d3 a2 1a be f4 51 be 3d
       -0.493147 0.40584 -0.15101175 0.09292975
0000e0 1c ea 3f 3e 64 6a 39 3f bd 12 58 3e 07 e9 31 3d
       0.1874165 0.72427964 0.21100898 0.043435123
0000f0 c8 eb 10 3f a1 7d fa be ba 36 98 be f1 ce 13 3e
       0.56609774 -0.48923972 -0.29729253 0.1443441
000100 20 ef ea 3c e0 80 de bc f4 ca 1c 3f e7 35 d0 3e
       0.028678477 -0.027161062 0.6124718 0.40666124
000110 a7 78 a6 3e 12 c4 9a be 6d 34 39 3f 14 ac 6d bc
       0.32513925 -0.30227715 0.7234562 -0.014506359
000120 c5 5f d3 3e 29 38 c4 be e2 f8 28 3f ef 3e 1c 3e
       0.41284004 -0.38324097 0.66004765 0.15258382
000130 05 a8 10 3b 71 74 ec 3c 87 74 08 be c1 48 8d 3d
       0.0022072804 0.028864117 -0.13325702 0.06898642
000140 f7 96 b6 bf db ac ae 3d 1a 9b 1e bb 76 e0 15 bc
       -1.4264821 0.08529063 -0.0024201334 -0.009147754
000150 f4 2b 4b be ea 2b ee 3e ae db d0 3e 18 29 de bb
       -0.19840986 0.4651788 0.40792602 -0.006779801
000160 b2 c6 09 3e c0 a5 a3 3e 31 6e aa bd 7c b0 53 bc
       0.13454702 0.31962395 -0.083217986 -0.012920495
000170 dd ec 2f 3f af 45 78 3e 29 35 83 3e 5c 98 2c bd
       0.687208 0.24245332 0.25626495 -0.04213749
000180 7f 26 ab 3d d3 c9 2d 3d 0f 83 b2 3e e3 df 49 3f
       0.08356952 0.042428803 0.34865615 0.7885725
000190 25 29 c8 3d 99 51 6c 3e cb 45 36 3e 98 9b 32 be
       0.09773473 0.23078002 0.17800061 -0.17442167
0001a0 2a d0 38 3f 2b 3e ae bf 93 b6 91 bd a3 33 c9 38
       0.72192633 -1.3612722 -0.071149014 9.594045e-05
0001b0 0d 83 23 3f 1e db 0d 3f cf d5 e7 ba 70 77 04 3f
       0.6387184 0.5541247 -0.0017687621 0.5174475
0001c0 b5 b9 b4 bf 2a ea 08 3e 5c 29 b6 bf 77 3b 68 be
       -1.4119173 0.13370577 -1.4231372 -0.22678934
0001d0 3f dd 01 3d e3 31 11 3f 79 62 2b 3e b9 91 23 be
       0.031705137 0.56716746 0.16736783 -0.15973558
0001e0 39 48 d2 3e 1e 41 17 bd a7 6e 19 3f 54 77 f4 be
       0.41070727 -0.036927335 0.5993447 -0.4774729
0001f0 49 49 72 be 13 51 ea bb 12 ed 92 3c 4a 82 82 be
       -0.23660769 -0.007150778 0.01793531 -0.25490028
000200 d9 a4 81 bd 12 c3 8d 3c 69 37 6b bd 1b 0f 3e bf
       -0.0633027 0.01730493 -0.05742589 -0.742418
000210 be 05 d7 be 9e 51 ce 3d 1c 9e b3 3e 65 e0 a7 3e
       -0.41996568 0.10074161 0.35081565 0.32788387
000220 f1 0c 1f 3d 34 33 02 3e 1b 6a 13 be 36 d1 92 3e
       0.0388307 0.12714845 -0.14395945 0.2867524
000230 a6 2e d8 3e b8 39 76 3b d6 f1 55 be ac f0 86 3e
       0.4222309 0.0037571024 -0.20893034 0.26355493
000240 39 e1 fc 3e 4d 1b f7 be 4d 3c 73 3e 4f 29 ea 3e
       0.4939058 -0.48263016 0.23753472 0.4573464
000250 ce bc b0 be 1c 64 48 be 82 f1 30 3d b0 49 e6 3e
       -0.34519047 -0.19569439 0.04319907 0.44978094
000260 1e ad 22 bb 80 4f 31 bc 6e 3e 29 3e 06 da 38 be
       -0.0024822424 -0.010822177 0.16527721 -0.1805192
000270 fd 37 11 3f 90 47 98 3d ca 1b 0f 3e e3 12 94 3e
       0.56726056 0.074355245 0.13975444 0.2892066
000280 15 af 92 bd b3 55 89 3e 73 98 90 bf 27 f7 84 bf
       -0.071623005 0.26823196 -1.1296524 -1.0387925
000290 aa 02 36 bb e3 58 87 be 93 1a bc 3d 5d 49 c7 bd
       -0.0027772584 -0.26435003 0.09184756 -0.0973079
0002a0 7b e1 08 3f fd bf b9 3e 46 d6 0b 3f b4 73 8b bf
       0.53469056 0.36279288 0.5462383 -1.0894685
0002b0 73 4c d5 3e 00 f0 40 3f dc 45 02 3d 15 67 8c be
       0.4165989 0.7536621 0.031804904 -0.27422395
0002c0 d8 f2 24 3e 73 36 e6 3e bf 82 e4 3c eb 21 54 3f
       0.16108263 0.44963416 0.027894376 0.82864255
0002d0 d5 b8 f4 3e 60 cb 1c 3e 76 35 92 3d f1 30 22 3f
       0.47797266 0.15311956 0.07139103 0.6335593
0002e0 15 d4 f3 bd 12 dd 0f 3f 26 b9 0a bf dd a7 a0 bb
       -0.11905686 0.561967 -0.54188764 -0.0049028234
0002f0 6e 96 6c bf d6 6d a2 3e 0e 09 ae be b5 81 bd bd
       -0.9241704 0.31724423 -0.33991283 -0.09253255
000300 63 e8 3e 3c 2a 4c ac bd 9a 62 25 3f 17 8e 96 bf
       0.011652085 -0.08412965 0.6460358 -1.1762112
000310 9d 55 e4 3d 56 9d a3 bd 29 e7 e1 3e ed 7e 3c be
       0.11149142 -0.07988994 0.44121674 -0.18407793
000320 1b 1a f0 3e 33 0e fd be 80 ee 5b bf 7f b5 8d 3d
       0.46894917 -0.49424896 -0.859108 0.06919383
000330 37 6c 1b be b7 cd 73 3e d1 32 3d 3d ba 32 05 3f
       -0.15178 0.23808943 0.04619104 0.5203053
000340 8c 88 95 3f 1c 09 89 bd 9b f7 78 bf e4 39 cb 3b
       1.1682296 -0.066911906 -0.97252816 0.0062019695
000350 84 bf 27 be db 8f 4e bf a4 ae 03 3f e9 d7 8e be
       -0.16381651 -0.80688256 0.51438355 -0.278991
000360 1c 9f 46 bf 5c 69 e6 3e e6 a0 db be 4a c0 5c 3d
       -0.7758653 0.45002258 -0.42896193 0.05389432
000370 7c 50 17 be 60 c4 99 be 4e 9c 8b be 1d 7a 02 3d
       -0.14776796 -0.30032635 -0.2726769 0.031854738
000380 ee 78 06 3f 6d 44 20 bd 60 6a 00 bf 82 99 1d be
       0.52528274 -0.039127756 -0.50162315 -0.1539059
000390 d8 d1 71 be 94 9e f2 be ed f5 13 3f 66 dc 91 bd
       -0.23615205 -0.4738661 0.5779713 -0.07122116
0003a0 18 8e 05 be 33 c7 82 3e 35 c1 50 be 26 82 6d 3d
       -0.13042486 0.25542602 -0.20386203 0.057985447
0003b0 82 50 dd 3e b7 6f 05 be de 35 00 3d d9 63 72 bd
       0.43225485 -0.13030897 0.03130137 -0.059177253
0003c0 d4 a7 a5 3d ab 4d c2 bd 7a c6 dd be fb 67 25 3f
       0.08088651 -0.0948747 -0.43315488 0.64611787
0003d0 55 08 4d 3e 98 94 b2 3e cd 71 3a 3f 59 cc 0c bd
       0.2002271 0.34878993 0.72829896 -0.03437457
0003e0 0a bd ac 3d 99 4e 0d 3d 06 cc a7 3e 64 dd aa be
       0.08434494 0.034498785 0.32772845 -0.33372033
0003f0 6c e5 1a bf 74 ec 0e 3f 2c 18 b6 bd f5 7a a4 be
       -0.6050632 0.5582955 -0.08891329 -0.3212506

linear2.bias f4 [3]
000000 04 7f 92 3e 13 19 4b 3e 1d 2d 8e 3e
       0.2861253 0.19833784 0.27768794
