models/AveragedDQN.pth (torch, 14213 bytes, 44 tensors)

linear1.weight f4 [128, 11]
00000000: 0e16 ffbd d369 273e ef3e bb3e fe77 d5bd
00000010: c16e 593e 369c dabe a1d6 b4be 68b9 bd3d
00000020: f548 82be b330 9abe 54d2 eebe 25ac 1d3f
00000030: dc08 a9be 6740 4abf 4123 293e ea23 7a3e
00000040: 697d f9bd 01ef 9a3e 7a0e a5bd 70d1 8abe
00000050: 179d 23bd 5e58 49be b32e a5bd 62d4 4bbd
00000060: e842 893e 9b67 593f beee 433f 69e9 71bf
00000070: 25d2 94bf 099b 303f ef5d 293f df0f 78bf
00000080: d28e 7ebf 8b5b 463e d7c1 4f3f f3d0 a0bf
00000090: eebd 53be 6ad3 df3d bf71 6cbe 8e3d b0be
000000a0: 07b1 04bf 17d4 bfbe 55d5 a8be d78b a4be
000000b0: 889b b4be 4f0c 923f 7d67 203f 5910 19bf
000000c0: 84d5 493e 1da4 c4be 6c0c 24bf 3b7d 3cbf
000000d0: 6d05 afbe c3b1 5c3e 802a 87bd 4490 86be
000000e0: 856f c13e a2f6 7cbd 0ea5 96bf 8558 853e
000000f0: d1da 2dbe 1fc5 5cbf fa7e a7bf e830 c8be
00000100: 1c74 7d3e 8422 8ebf 809d 12bf 2096 6abf
00000110: ffe6 e4bc 6ceb 363f 998b f7be c0aa b33d
00000120: b61b 33be 166f b33d 0ce7 97bf 9ac3 fdbd
00000130: 8c51 81bf 6932 c3be bd6e e3be 387e a43d
00000140: e63c 083f 79f8 093f a74d 9b3e 1bd0 853e
00000150: 07c7 c2be 2b5b 47be 26d0 d2be 1ca2 6fbe
00000160: 5ff6 0a3f c028 6e3f 246e f43e d96a a7be
00000170: b15e 36bf ce97 adbe ede1 25bf 0a6a c13e
00000180: 006f c8bd 3ccd 873e a2a1 a13e 156d 4ebd
00000190: c2ab 873f 2927 88bf 554a c8be a3e3 48bc
000001a0: ef41 a6be 0dd4 2bbf dd53 02bf 32c1 abbe
000001b0: 4135 f9be f387 a3bf 10f2 33bf c68d 86be
000001c0: 13af a8be f3f5 8b3e 6fc6 3d3e d6b0 c83d
000001d0: 9534 c23e 2eb3 a9bc 3c6f 4abd 3c2e 01bf
000001e0: 2b87 ccbe 00c3 c63a c168 8ebe 516b 3ebd
000001f0: 6f52 7c3d 9dfd 3cbe b989 84be a6e4 95bd
00000200: 380b 403d 5ced 93bc e268 17be bf01 92be
00000210: b47b 883e ed92 f63e de1f 70bf 0454 e0be
00000220: c4ad 5fbd a1ef a6be d55a a23b 9100 e23b
00000230: 008a fa3c ae15 233d ebbf ee3d a146 e93e
00000240: e318 2bbf c391 1f3f d27e 4fbd 12be d3be
00000250: 0b22 0bbf 39b6 2fbd 0ddd 7b3d 1030 c9be
00000260: 09e1 a8bd 1602 92be 058d 633e a758 63bf
00000270: fa1b 2c3f 6f72 8bbe a158 c3bd 0f7b 9c3e
00000280: 52f4 f3be 2f23 c7be ed36 d1be 7f86 4bbb
00000290: 29aa 0cbf 36a9 343f d5b5 c4bf eaf3 d53e
000002a0: 47c0 483e daca 13bd 2fdc bd3d 8444 a53d
000002b0: c7d6 04be 8175 33bd 90fb bf3b 0bc6 e9bc
000002c0: b34d a23f 6296 3abf 20d1 e8bd efa9 4b3f
000002d0: 6bde 663e d032 6a3e c8d2 523f 11e1 28bf
000002e0: 76ed 05be f9c9 113e f45c debe 9cb3 e2be
000002f0: 3a1a e73d b613 31be 4a5b 3c3f 1118 90bf
00000300: c404 4a3f 213c 97bf 28d3 4f3f 846c a1bf
00000310: 32d3 fabf 5371 c2bf 8c4c 17bf c942 b1bd
00000320: 6b86 0ebf a9ca 1e3f 17e6 fa3e d3dc a23e
00000330: 7bec d23e 8581 f0bd 2d82 d8be 9fea 13bf
00000340: 6de4 68be 8027 f3bb a780 83be 7832 b6bd
00000350: 1665 2f3e 9ba7 07be 3e90 42be dcaa 3b3e
00000360: b6ad a4bd 3423 8fbd ea1e 3abe de3a 41be
00000370: 6fad 203f ac49 5abf 841c a63e 4292 ac3d
00000380: 1171 edbe bcaa 61be b118 6fbd 1402 d4bd
00000390: 38c6 40be e99d b33e ae85 e8be df63 2d3f
000003a0: 3d1b 683e a4c2 98bd cfc1 f1bd b7f8 06bf
000003b0: e5c6 433f 9b26 0e3f 22ef bd3e 741f 193f
000003c0: 8e0c 7fbf ed8c 3abf 08e1 bd3e d36b 833e
000003d0: 3897 2bbf 7256 583c fcf7 f7bd afe4 55be
000003e0: 2291 cdbe a807 bd3d 0718 3d3e 600c d1bd
000003f0: 0252 33be e298 553f b714 403f 9d1f 5ebf
-0.124553785 0.16348962 0.36571452 -0.10423277 0.21233656 -0.42697304 -0.3532 0.09263879
-0.25446287 -0.3011528 -0.46644843 0.61590797 -0.33014572 -0.7900452 0.16517355 0.24427763
-0.12182123 0.3026047 -0.08059402 -0.27112913 -0.039944734 -0.19662616 -0.08065548 -0.04976309
0.26808858 0.84923714 0.76536167 -0.9449678 -1.1626631 0.68986565 0.66158956 -0.9689922
-0.99436677 0.19370858 0.8115515 -1.2563766 -0.20677921 0.10928996 -0.23090266 -0.34421962
-0.5183262 -0.374665 -0.3297526 -0.3213794 -0.3527491 1.1410006 0.6265791 -0.5979057
0.19710356 -0.38406458 -0.64081454 -0.73628587 -0.34183827 0.21552186 -0.06599903 -0.2628194
0.37780395 -0.061758645 -1.1769121 0.26044098 -0.16978003 -0.8623828 -1.3085625 -0.39099813
0.24751323 -1.1104283 -0.57271576 -0.9163532 -0.027942179 0.71452975 -0.48348692 0.08772802
-0.1749104 0.08761422 -1.1867385 -0.12390824 -1.0103011 -0.38124397 -0.44420424 0.08031887
0.53217924 0.53894764 0.30332682 0.26135334 -0.3804247 -0.19468372 -0.4117443 -0.23401684
0.5428218 0.9303093 0.4774028 -0.32698706 -0.7123824 -0.3390488 -0.6479786 0.37776214
-0.097867966 0.2652377 0.3156863 -0.050396997 1.0599291 -1.0636951 -0.3911921 -0.012261304
-0.32472178 -0.6712044 -0.50909215 -0.33545834 -0.48673442 -1.2775863 -0.70291233 -0.2628004
-0.3294607 0.27336082 0.18532728 0.09799354 0.37930742 -0.020715322 -0.049422488 -0.50461173
-0.39946875 0.0015164316 -0.27814296 -0.046489064 0.061602052 -0.18456121 -0.25886324 -0.07319002
0.0468857 -0.018057518 -0.14786103 -0.28516957 0.26656878 0.4815897 -0.93798625 -0.438141
-0.054609075 -0.32604697 0.0049546757 0.00689704 0.030583382 0.039815597 0.11657699 0.45561698
-0.6683485 0.6233179 -0.050658055 -0.4135595 -0.5434882 -0.04289839 0.061490107 -0.3929448
-0.08246047 -0.28517216 0.22221763 -0.8880715 0.6723019 -0.27235743 -0.09538389 0.30562636
-0.4764734 -0.3889403 -0.40862218 -0.0031055508 -0.54947144 0.70570695 -1.5367991 0.41787654
0.19604598 -0.036082126 0.09270512 0.08069709 -0.12972556 -0.043813232 0.005858846 -0.028536817
1.2679962 -0.72885716 -0.113680124 0.79556173 0.22545783 0.22870946 0.82352877 -0.65968424
-0.13078865 0.14237203 -0.43430293 -0.44277656 0.11284299 -0.17292675 0.73576796 -1.1257344
0.7891352 -1.1815225 0.81181574 -1.2611241 -1.9595702 -1.5190834 -0.59101176 -0.086553164
-0.55673856 0.62027985 0.4900367 0.318091 0.41196045 -0.11743454 -0.42286816 -0.5777988
-0.22743388 -0.0074204803 -0.2568409 -0.08896345 0.17128405 -0.1324753 -0.19000337 0.18326896
-0.08040945 -0.06989136 -0.18175855 -0.18870112 0.6276464 -0.85268664 0.3244363 0.08426334
-0.46375325 -0.22037786 -0.058373157 -0.10351959 -0.18825614 0.35081413 -0.4541449 0.67730516
0.2266664 -0.07459 -0.11804544 -0.5272326 0.76475364 0.5552766 0.37096506 0.5981362
-0.9962853 -0.72871286 0.37085748 0.256682 -0.67027617 0.013204204 -0.12107846 -0.20888017
-0.4014979 0.09229976 0.18466197 -0.102074385 -0.17511752 0.83436406 0.7503161 -0.8676699

linear1.bias f4 [128]
00000000: aa44 49bf d879 f1bd 91d0 373e 7a22 ae3d
00000010: 6283 c7be f764 a43e 9f35 db3e 76ee 3b3f
00000020: 2570 2ebf 4069 0c3e 3cf9 9a3f 79ee e3bd
00000030: abbc 6bbf 9c81 09bf 0165 aebd 1ff3 07bf
00000040: 3f5f d6be 5b44 743e 130d 8b3f 41dc 06be
00000050: 91f3 f1be 00e3 b3be c8d7 5ebf eb9a 42be
00000060: c1f9 27bf b160 31bf 5761 01be 7f4f 763f
00000070: efa0 9abd 4c7d 61bf a58c 263e 733e 643f
00000080: eab7 66bf 4d56 ccbe ae1d d0bd df22 6d3e
00000090: 8c5d 683f 02f7 af3e 638e 113f 75f5 a9be
000000a0: a8fa 1abe 7c5c a0be 4eac 203f 08d6 09be
000000b0: 25df 46bf 4e16 64bf f44b 6ebf a2d0 86be
000000c0: f6b0 ddbe 6a1e 44be 6e89 91be 6ff5 49bf
000000d0: 11ba d0bc da97 8d3e 624c e5be a538 e83e
000000e0: 10bd 983e f69e 853e f26c e1be d8b6 debe
000000f0: d6c5 1ebf b3da ed3e 2580 aebe e4e1 5cbf
00000100: 5a55 fabe 25ce 96be d0cf 953d c780 27be
00000110: 3065 113f 4eff 14bf a59e f4be 170c 043f
00000120: 2ecd 5ebf a951 903f 0364 9c3e 6c72 c1bd
00000130: 8272 02bf 4bce 9f3f 6ea4 51bf 42e0 e1be
00000140: b60a 463d 33d1 2abe 3b31 aabe 9ee3 33bf
00000150: da17 17bf f11a 8ebc b2ae 6fbf 32bb 0b3d
00000160: 1aa1 0cbf 98e8 3bbe 97ea 873e 8d3c 29be
00000170: 2680 4fbf 8191 e5bc 7cca 50be 054a 46be
00000180: 525f 3a3e 69b5 f73d 0160 7d3e dde9 90bc
00000190: 8939 31bf a6df 2dbf 71ce 8bbf 9661 2ebf
000001a0: c24c 363f 7c0b 3f3f ec74 87bd 5d7d 10bf
000001b0: 719d b8bd fe93 4d3f 5e4b 343d eb85 cabe
000001c0: a443 163f 96c9 e5be e704 5abc 85fc d03d
000001d0: 178f 36be b054 a73d 17e9 403f 6313 b1be
000001e0: cc75 163e 9c94 03bf d156 d0be b193 2f3f
000001f0: 6ffc 7e3e 5332 cebc 2fb9 9fbd af48 28bf
-0.786204 -0.11790818 0.17950656 0.0850267 -0.38967425 0.3210828 0.42814347 0.7341074
-0.6813987 0.13712025 1.210731 -0.111294694 -0.9208476 -0.53713393 -0.08515359 -0.5310535
-0.41869542 0.238542 1.0863365 -0.13169958 -0.4725614 -0.35134125 -0.87048006 -0.19004409
-0.6561547 -0.69288164 -0.12634788 0.9621505 -0.07550227 -0.8808181 0.16264589 0.8915779
-0.9012438 -0.39909592 -0.10161911 0.23157834 0.9076774 0.3436814 0.5685789 -0.3319508
-0.1513468 -0.3132056 0.62762916 -0.13460553 -0.7768424 -0.89096534 -0.93084645 -0.2633105
-0.43299073 -0.19152227 -0.28425163 -0.78890127 -0.025479348 0.27654916 -0.44784838 0.45355716
0.29831743 0.2609784 -0.4402843 -0.43498874 -0.62020624 0.46455917 -0.34082142 -0.8628218
-0.48893243 -0.2945415 0.07315028 -0.16357718 0.56795025 -0.58202064 -0.47777286 0.5158095
-0.8703183 1.1274921 0.30545053 -0.09445652 -0.50955975 1.2484831 -0.81891525 -0.44116408
0.04835006 -0.16681366 -0.33240685 -0.7026919 -0.5902077 -0.017346831 -0.9362594 0.03411407
-0.5493332 -0.18350446 0.26546165 -0.16527005 -0.81054914 -0.028023483 -0.20389742 -0.19364174
0.18200424 0.12095148 0.24743654 -0.01768964 -0.69228417 -0.67919385 -1.0922376 -0.68117654
0.71210873 0.746269 -0.06614098 -0.5644129 -0.090144046 0.80303943 0.04401719 -0.39555296
0.5869696 -0.4488036 -0.013306833 0.10204414 -0.17828022 0.0817045 0.75355667 -0.34585103
0.14693373 -0.51398635 -0.40691236 0.68584734 0.24900983 -0.02517048 -0.07798993 -0.65735906

linear2.weight f4 [3, 128]
00000000: 020f 3e3c 1333 3fbd 0ac3 193f 16f0 eb3d
00000010: f2b8 59bd df82 163e a0ab b73e 0dec 393e
00000020: 5bcd 20be a33e 793e 2a73 df3e a15f 24bd
00000030: 7ec3 0fbe f2a2 debd 751d 2c3c 6c16 39bb
00000040: 5c8f a2bf 9263 383f d770 fa3e 2842 623c
00000050: cf3f 813c d326 74bf fcc8 69bd a07f 33be
00000060: 2344 6b3c 8609 c13c 33ff ca3d ee62 f63e
00000070: 88c3 443d 0e28 8dbe c59d 373d 10cf e23e
00000080: 27cd 6ebe 9287 28bc 74d3 183e d78c c13d
00000090: 3966 923e 0fc6 833e 74b4 383e b068 c0bd
000000a0: e836 8a3c 2b98 b23a 22b4 6f3e 7728 61bd
000000b0: cf29 b7be 3559 463e 5f06 4b3c 4071 4dbf
000000c0: 017b 7fbd a6c0 cbbd dac9 0a3d 114c b8bf
000000d0: 9be5 e53c 41b3 f23e 70fd 1cbe bda8 a83d
000000e0: cec7 4a3f 2f74 373e 399e 15be 1cf9 5ebd
000000f0: a9cb 6fbe 0f91 313f 139d 6bbe 94c2 eabd
00000100: 9e9b 41bc 28c1 8cbd 7144 223e ddad 05bf
00000110: aa91 153e 36e0 64bf c819 69be fe3b 073f
00000120: bb0f 33bd 0041 c83e 6145 0b3f 2315 483c
00000130: 77ce adbf 6ab4 443f 77ca 42b9 fbbe 6ebe
00000140: efaa 31bf 6c44 863c 14b7 dc3c 7802 8ebc
00000150: 68dd e2bc f1f8 9f3d ccac 0bbf a721 e03d
00000160: ccc4 8cbd 8b3a babc 7ccb 6a3e 5b41 adbe
00000170: a790 febe c553 93be 7fc2 f3bd 958b c93d
00000180: 3fbe 953d e8d3 aebe 6eed 743e 25b6 5abd
00000190: 6105 3fbd 3d75 94bf b81c 10bf be22 09be
000001a0: ede2 583f 916a 013e 5947 313e 403b aebc
000001b0: ca3f 913e 6ba0 573e e745 c7bd bb39 2cbd
000001c0: 1198 7cbd 892f 5cbf 1c8f 0a3e 2ca7 b2b9
000001d0: 44d7 d2bf a25e 223b 9b4b 143f a7bd 1fbc
000001e0: dc79 b93e 81de 53bf 3375 563e d992 293e
000001f0: 20a4 303f aab8 373d 997a 11bf d20a 3cbf
00000200: 94cd 8abc 22a7 193e 6d95 afbf 51cd 44be
00000210: 0906 b0bf 0a96 e1be a8d3 283f 3dfb d03e
00000220: 51c4 d1bd 3fdc 5dbf 7666 183f 3e91 b73b
00000230: 9d17 62be d4f0 053e 0a78 55bd 22c1 3e3e
00000240: 0f09 9f3e 281e 02bf 4b4d 1e3f 0d4d a43d
00000250: 48eb 2a3e f374 1b3f 9fd3 b6bd 9ddf 48bf
00000260: 067d 9abf 0629 c5bb 99a7 85be 4a63 fe3e
00000270: 354e 133d 0f06 8a3d 0ec0 46bf c29e 293f
00000280: 9883 133e 03b4 05bf b101 d23e a181 81bf
00000290: 5eab f83d b973 afbd 5b34 cd3d 1e82 40bd
000002a0: 87f6 a9bf 9ea7 373d 0ea9 e63e fa22 b2bf
000002b0: b864 2e3e 3f38 0bbc 72cb 3b3d 4731 083f
000002c0: 5a60 efbe 89b7 493d 216a 3bbd e59c cf3d
000002d0: c02c 683b 5236 4d3d acdb 593e bee1 f53c
000002e0: f37e d8bf 7e15 95bf 067a 7fbf 19db c9bf
000002f0: 86f9 3d3e 6746 20bf 6dc1 303e 9a57 3cbf
00000300: a6ed 6d3c 3b63 863d ff03 55bf c760 fb3e
00000310: e8e6 da3e 2c27 663c 7b6c 7d3e 59a2 e13e
00000320: 4150 ddbd e21f 023f 6912 823f 7b52 efbf
00000330: cf22 d83e 3d9e 523f 809e b0bd c46b eb3e
00000340: 4cbd 923e 2cce 8f3c 8a13 963c fa41 d8be
00000350: 7e9c 003c ee8c 63bf 5729 e23d e4a2 86bf
00000360: 1c40 9e3e c69a 27bf 19a6 df3e d1f0 babe
00000370: 603c 663c 35ca 4abc 3dd4 3d3e 2227 b0bf
00000380: d4f4 48bf a774 023f 9c53 9c3e 6678 063e
00000390: 9ec9 d5be 1c66 053e 60f7 3d3d 4d19 82bf
000003a0: 9e15 093c ea69 6a3e e6dc 48be da1d e2bc
000003b0: 9108 39bf c27a 9e3e 462f 973e d990 933e
000003c0: 4991 023f 190a 573e 8b12 2e3e 3f73 fd3d
000003d0: 55b3 663e f8c7 bebd 5307 a43e fb08 ccbc
000003e0: f917 333f 7f17 9b3d 3efd 4dbe 77a9 d13e
000003f0: 76d5 923f 0988 ddbd fe91 8a3e 5c27 0d3e
0.011600258 -0.046679568 0.6006323 0.11520402 -0.053154893 0.14698361 0.35873127 0.18156452
-0.15703337 0.243403 0.4364255 -0.04013026 -0.14039418 -0.10870923 0.01050507 -0.0028242124
-1.27 0.7202693 0.48914215 0.013809718 0.015777497 -0.9537174 -0.05707644 -0.17529154
0.014359507 0.023564111 0.09911957 0.48122352 0.048038036 -0.27569622 0.044828195 0.442986
-0.23320447 -0.010286229 0.14924413 0.09450691 0.28593615 0.25737044 0.18037587 -0.093949676
0.016871884 0.0013625672 0.23408559 -0.05497023 -0.35774085 0.19369967 0.012391656 -0.8025093
-0.062373165 -0.09948854 0.033883907 -1.4398214 0.028063586 0.47402385 -0.15331054 0.08235309
0.7921113 0.17915414 -0.14611138 -0.054436788 -0.23417534 0.69361967 -0.23009138 -0.11462894
-0.011816887 -0.06872779 0.15846421 -0.5221842 0.14606348 -0.8940462 -0.22763741 0.52825916
-0.043716174 0.3911209 0.5440274 0.012212071 -1.3578633 0.7683779 -0.00018576706 -0.23315041
-0.6940145 0.016390048 0.026942767 -0.017335162 -0.027693465 0.07811154 -0.5456054 0.10943919
-0.068734735 -0.022732994 0.22929186 -0.33838925 -0.49719736 -0.2877485 -0.119023316 0.09841076
0.07311677 -0.34146047 0.23918697 -0.053396363 -0.04663599 -1.1598278 -0.5629382 -0.1339216
0.8472126 0.12638308 0.17312373 -0.021268487 0.2836898 0.21057288 -0.0973013 -0.042047244
-0.06166846 -0.8601003 0.13531154 -0.00034075358 -1.6471944 0.0024775644 0.57927865 -0.0097498065
0.36225784 -0.8276139 0.20943145 0.16559924 0.69000435 0.044853844 -0.56827694 -0.7345401
-0.01694373 0.15005162 -1.3717476 -0.19218947 -1.3751842 -0.44059783 0.6594796 0.4081668
-0.102425225 -0.86664194 0.59531343 0.005602031 -0.2207932 0.1308015 -0.05211643 0.18628362
0.310616 -0.50827265 0.6183669 0.08022509 0.16691315 0.60725325 -0.08927082 -0.78466207
-1.2069404 -0.0060168533 -0.2610443 0.49685127 0.035963256 0.06739437 -0.776368 0.6625787
0.14405668 -0.522278 0.41016915 -1.0117685 0.12142061 -0.08566994 0.10019752 -0.04699909
-1.3278359 0.044837587 0.45050853 -1.3916924 0.17030609 -0.008497297 0.045848317 0.5320019
-0.46753198 0.0492473 -0.04575551 0.10137347 0.0035427064 0.050100632 0.21275204 0.030014869
-1.6913742 -1.1647184 -0.9979557 -1.5769988 0.18552217 -0.62607425 0.17261286 -0.7357117
0.014521992 0.065618955 -0.8320922 0.49097273 0.42754292 0.014047425 0.24748413 0.44069174
-0.10806323 0.508299 1.0161868 -1.8697046 0.42214057 0.822727 -0.086239815 0.45980656
0.28660047 0.017554365 0.018319864 -0.42237836 0.007849811 -0.88886917 0.11043041 -1.051846
0.30908287 -0.6547054 0.4368141 -0.36511853 0.01405248 -0.0123773115 0.18537994 -1.3761942
-0.7849858 0.5095925 0.3053254 0.13131866 -0.41755384 0.13027233 0.046378493 -1.0163971
0.00836697 0.22891966 -0.19615516 -0.027602125 -0.72278696 0.30953032 0.29528254 0.28821447
0.5100294 0.20999946 0.16999261 0.12375497 0.22529347 -0.09315485 0.32036838 -0.024906626
0.69958454 0.07572841 -0.20116135 0.40949604 1.1471393 -0.10816962 0.27064508 0.13784546

linear2.bias f4 [3]
00000000: 31a2 1a3f 5d4a ad3e 668b e23e
0.60403734 0.33845797 0.44246978

linear1.weight f4 [128, 11]
00000000: 0e16 ffbd d369 273e ef3e bb3e fe77 d5bd
00000010: c16e 593e 369c dabe a1d6 b4be 68b9 bd3d
00000020: f548 82be b330 9abe 54d2 eebe 25ac 1d3f
00000030: dc08 a9be 6740 4abf 4123 293e ea23 7a3e
00000040: 697d f9bd 01ef 9a3e 7a0e a5bd 70d1 8abe
00000050: 179d 23bd 5e58 49be b32e a5bd 62d4 4bbd
00000060: e842 893e 9b67 593f beee 433f 69e9 71bf
00000070: 25d2 94bf 099b 303f ef5d 293f df0f 78bf
00000080: d28e 7ebf 8b5b 463e d7c1 4f3f f3d0 a0bf
00000090: eebd 53be 6ad3 df3d bf71 6cbe 8e3d b0be
000000a0: 07b1 04bf 17d4 bfbe 55d5 a8be d78b a4be
000000b0: 889b b4be 4f0c 923f 7d67 203f 5910 19bf
000000c0: 84d5 493e 1da4 c4be 6c0c 24bf 3b7d 3cbf
000000d0: 6d05 afbe c3b1 5c3e 802a 87bd 4490 86be
000000e0: 856f c13e a2f6 7cbd 0ea5 96bf 8558 853e
000000f0: d1da 2dbe 1fc5 5cbf fa7e a7bf e830 c8be
00000100: 1c74 7d3e 8422 8ebf 809d 12bf 2096 6abf
00000110: ffe6 e4bc 6ceb 363f 998b f7be c0aa b33d
00000120: b61b 33be 166f b33d 0ce7 97bf 9ac3 fdbd
00000130: 8c51 81bf 6932 c3be bd6e e3be 387e a43d
00000140: e63c 083f 79f8 093f a74d 9b3e 1bd0 853e
00000150: 07c7 c2be 2b5b 47be 26d0 d2be 1ca2 6fbe
00000160: 5ff6 0a3f c028 6e3f 246e f43e d96a a7be
00000170: b15e 36bf ce97 adbe ede1 25bf 0a6a c13e
00000180: 006f c8bd 3ccd 873e a2a1 a13e 156d 4ebd
00000190: c2ab 873f 2927 88bf 554a c8be a3e3 48bc
000001a0: ef41 a6be 0dd4 2bbf dd53 02bf 32c1 abbe
000001b0: 4135 f9be f387 a3bf 10f2 33bf c68d 86be
000001c0: 13af a8be f3f5 8b3e 6fc6 3d3e d6b0 c83d
000001d0: 9534 c23e 2eb3 a9bc 3c6f 4abd 3c2e 01bf
000001e0: 2b87 ccbe 00c3 c63a c168 8ebe 516b 3ebd
000001f0: 6f52 7c3d 9dfd 3cbe b989 84be a6e4 95bd
00000200: 380b 403d 5ced 93bc e268 17be bf01 92be
00000210: b47b 883e ed92 f63e de1f 70bf 0454 e0be
00000220: c4ad 5fbd a1ef a6be d55a a23b 9100 e23b
00000230: 008a fa3c ae15 233d ebbf ee3d a146 e93e
00000240: e318 2bbf c391 1f3f d27e 4fbd 12be d3be
00000250: 0b22 0bbf 39b6 2fbd 0ddd 7b3d 1030 c9be
00000260: 09e1 a8bd 1602 92be 058d 633e a758 63bf
00000270: fa1b 2c3f 6f72 8bbe a158 c3bd 0f7b 9c3e
00000280: 52f4 f3be 2f23 c7be ed36 d1be 7f86 4bbb
00000290: 29aa 0cbf 36a9 343f d5b5 c4bf eaf3 d53e
000002a0: 47c0 483e daca 13bd 2fdc bd3d 8444 a53d
000002b0: c7d6 04be 8175 33bd 90fb bf3b 0bc6 e9bc
000002c0: b34d a23f 6296 3abf 20d1 e8bd efa9 4b3f
000002d0: 6bde 663e d032 6a3e c8d2 523f 11e1 28bf
000002e0: 76ed 05be f9c9 113e f45c debe 9cb3 e2be
000002f0: 3a1a e73d b613 31be 4a5b 3c3f 1118 90bf
00000300: c404 4a3f 213c 97bf 28d3 4f3f 846c a1bf
00000310: 32d3 fabf 5371 c2bf 8c4c 17bf c942 b1bd
00000320: 6b86 0ebf a9ca 1e3f 17e6 fa3e d3dc a23e
00000330: 7bec d23e 8581 f0bd 2d82 d8be 9fea 13bf
00000340: 6de4 68be 8027 f3bb a780 83be 7832 b6bd
00000350: 1665 2f3e 9ba7 07be 3e90 42be dcaa 3b3e
00000360: b6ad a4bd 3423 8fbd ea1e 3abe de3a 41be
00000370: 6fad 203f ac49 5abf 841c a63e 4292 ac3d
00000380: 1171 edbe bcaa 61be b118 6fbd 1402 d4bd
00000390: 38c6 40be e99d b33e ae85 e8be df63 2d3f
000003a0: 3d1b 683e a4c2 98bd cfc1 f1bd b7f8 06bf
000003b0: e5c6 433f 9b26 0e3f 22ef bd3e 741f 193f
000003c0: 8e0c 7fbf ed8c 3abf 08e1 bd3e d36b 833e
000003d0: 3897 2bbf 7256 583c fcf7 f7bd afe4 55be
000003e0: 2291 cdbe a807 bd3d 0718 3d3e 600c d1bd
000003f0: 0252 33be e298 553f b714 403f 9d1f 5ebf
-0.124553785 0.16348962 0.36571452 -0.10423277 0.21233656 -0.42697304 -0.3532 0.09263879
-0.25446287 -0.3011528 -0.46644843 0.61590797 -0.33014572 -0.7900452 0.16517355 0.24427763
-0.12182123 0.3026047 -0.08059402 -0.27112913 -0.039944734 -0.19662616 -0.08065548 -0.04976309
0.26808858 0.84923714 0.76536167 -0.9449678 -1.1626631 0.68986565 0.66158956 -0.9689922
-0.99436677 0.19370858 0.8115515 -1.2563766 -0.20677921 0.10928996 -0.23090266 -0.34421962
-0.5183262 -0.374665 -0.3297526 -0.3213794 -0.3527491 1.1410006 0.6265791 -0.5979057
0.19710356 -0.38406458 -0.64081454 -0.73628587 -0.34183827 0.21552186 -0.06599903 -0.2628194
0.37780395 -0.061758645 -1.1769121 0.26044098 -0.16978003 -0.8623828 -1.3085625 -0.39099813
0.24751323 -1.1104283 -0.57271576 -0.9163532 -0.027942179 0.71452975 -0.48348692 0.08772802
-0.1749104 0.08761422 -1.1867385 -0.12390824 -1.0103011 -0.38124397 -0.44420424 0.08031887
0.53217924 0.53894764 0.30332682 0.26135334 -0.3804247 -0.19468372 -0.4117443 -0.23401684
0.5428218 0.9303093 0.4774028 -0.32698706 -0.7123824 -0.3390488 -0.6479786 0.37776214
-0.097867966 0.2652377 0.3156863 -0.050396997 1.0599291 -1.0636951 -0.3911921 -0.012261304
-0.32472178 -0.6712044 -0.50909215 -0.33545834 -0.48673442 -1.2775863 -0.70291233 -0.2628004
-0.3294607 0.27336082 0.18532728 0.09799354 0.37930742 -0.020715322 -0.049422488 -0.50461173
-0.39946875 0.0015164316 -0.27814296 -0.046489064 0.061602052 -0.18456121 -0.25886324 -0.07319002
0.0468857 -0.018057518 -0.14786103 -0.28516957 0.26656878 0.4815897 -0.93798625 -0.438141
-0.054609075 -0.32604697 0.0049546757 0.00689704 0.030583382 0.039815597 0.11657699 0.45561698
-0.6683485 0.6233179 -0.050658055 -0.4135595 -0.5434882 -0.04289839 0.061490107 -0.3929448
-0.08246047 -0.28517216 0.22221763 -0.8880715 0.6723019 -0.27235743 -0.09538389 0.30562636
-0.4764734 -0.3889403 -0.40862218 -0.0031055508 -0.54947144 0.70570695 -1.5367991 0.41787654
0.19604598 -0.036082126 0.09270512 0.08069709 -0.12972556 -0.043813232 0.005858846 -0.028536817
1.2679962 -0.72885716 -0.113680124 0.79556173 0.22545783 0.22870946 0.82352877 -0.65968424
-0.13078865 0.14237203 -0.43430293 -0.44277656 0.11284299 -0.17292675 0.73576796 -1.1257344
0.7891352 -1.1815225 0.81181574 -1.2611241 -1.9595702 -1.5190834 -0.59101176 -0.086553164
-0.55673856 0.62027985 0.4900367 0.318091 0.41196045 -0.11743454 -0.42286816 -0.5777988
-0.22743388 -0.0074204803 -0.2568409 -0.08896345 0.17128405 -0.1324753 -0.19000337 0.18326896
-0.08040945 -0.06989136 -0.18175855 -0.18870112 0.6276464 -0.85268664 0.3244363 0.08426334
-0.46375325 -0.22037786 -0.058373157 -0.10351959 -0.18825614 0.35081413 -0.4541449 0.67730516
0.2266664 -0.07459 -0.11804544 -0.5272326 0.76475364 0.5552766 0.37096506 0.5981362
-0.9962853 -0.72871286 0.37085748 0.256682 -0.67027617 0.013204204 -0.12107846 -0.20888017
-0.4014979 0.09229976 0.18466197 -0.102074385 -0.17511752 0.83436406 0.7503161 -0.8676699

linear1.bias f4 [128]
00000000: aa44 49bf d879 f1bd 91d0 373e 7a22 ae3d
00000010: 6283 c7be f764 a43e 9f35 db3e 76ee 3b3f
00000020: 2570 2ebf 4069 0c3e 3cf9 9a3f 79ee e3bd
00000030: abbc 6bbf 9c81 09bf 0165 aebd 1ff3 07bf
00000040: 3f5f d6be 5b44 743e 130d 8b3f 41dc 06be
00000050: 91f3 f1be 00e3 b3be c8d7 5ebf eb9a 42be
00000060: c1f9 27bf b160 31bf 5761 01be 7f4f 763f
00000070: efa0 9abd 4c7d 61bf a58c 263e 733e 643f
00000080: eab7 66bf 4d56 ccbe ae1d d0bd df22 6d3e
00000090: 8c5d 683f 02f7 af3e 638e 113f 75f5 a9be
000000a0: a8fa 1abe 7c5c a0be 4eac 203f 08d6 09be
000000b0: 25df 46bf 4e16 64bf f44b 6ebf a2d0 86be
000000c0: f6b0 ddbe 6a1e 44be 6e89 91be 6ff5 49bf
000000d0: 11ba d0bc da97 8d3e 624c e5be a538 e83e
000000e0: 10bd 983e f69e 853e f26c e1be d8b6 debe
000000f0: d6c5 1ebf b3da ed3e 2580 aebe e4e1 5cbf
00000100: 5a55 fabe 25ce 96be d0cf 953d c780 27be
00000110: 3065 113f 4eff 14bf a59e f4be 170c 043f
00000120: 2ecd 5ebf a951 903f 0364 9c3e 6c72 c1bd
00000130: 8272 02bf 4bce 9f3f 6ea4 51bf 42e0 e1be
00000140: b60a 463d 33d1 2abe 3b31 aabe 9ee3 33bf
00000150: da17 17bf f11a 8ebc b2ae 6fbf 32bb 0b3d
00000160: 1aa1 0cbf 98e8 3bbe 97ea 873e 8d3c 29be
00000170: 2680 4fbf 8191 e5bc 7cca 50be 054a 46be
00000180: 525f 3a3e 69b5 f73d 0160 7d3e dde9 90bc
00000190: 8939 31bf a6df 2dbf 71ce 8bbf 9661 2ebf
000001a0: c24c 363f 7c0b 3f3f ec74 87bd 5d7d 10bf
000001b0: 719d b8bd fe93 4d3f 5e4b 343d eb85 cabe
000001c0: a443 163f 96c9 e5be e704 5abc 85fc d03d
000001d0: 178f 36be b054 a73d 17e9 403f 6313 b1be
000001e0: cc75 163e 9c94 03bf d156 d0be b193 2f3f
000001f0: 6ffc 7e3e 5332 cebc 2fb9 9fbd af48 28bf
-0.786204 -0.11790818 0.17950656 0.0850267 -0.38967425 0.3210828 0.42814347 0.7341074
-0.6813987 0.13712025 1.210731 -0.111294694 -0.9208476 -0.53713393 -0.08515359 -0.5310535
-0.41869542 0.238542 1.0863365 -0.13169958 -0.4725614 -0.35134125 -0.87048006 -0.19004409
-0.6561547 -0.69288164 -0.12634788 0.9621505 -0.07550227 -0.8808181 0.16264589 0.8915779
-0.9012438 -0.39909592 -0.10161911 0.23157834 0.9076774 0.3436814 0.5685789 -0.3319508
-0.1513468 -0.3132056 0.62762916 -0.13460553 -0.7768424 -0.89096534 -0.93084645 -0.2633105
-0.43299073 -0.19152227 -0.28425163 -0.78890127 -0.025479348 0.27654916 -0.44784838 0.45355716
0.29831743 0.2609784 -0.4402843 -0.43498874 -0.62020624 0.46455917 -0.34082142 -0.8628218
-0.48893243 -0.2945415 0.07315028 -0.16357718 0.56795025 -0.58202064 -0.47777286 0.5158095
-0.8703183 1.1274921 0.30545053 -0.09445652 -0.50955975 1.2484831 -0.81891525 -0.44116408
0.04835006 -0.16681366 -0.33240685 -0.7026919 -0.5902077 -0.017346831 -0.9362594 0.03411407
-0.5493332 -0.18350446 0.26546165 -0.16527005 -0.81054914 -0.028023483 -0.20389742 -0.19364174
0.18200424 0.12095148 0.24743654 -0.01768964 -0.69228417 -0.67919385 -1.0922376 -0.68117654
0.71210873 0.746269 -0.06614098 -0.5644129 -0.090144046 0.80303943 0.04401719 -0.39555296
0.5869696 -0.4488036 -0.013306833 0.10204414 -0.17828022 0.0817045 0.75355667 -0.34585103
0.14693373 -0.51398635 -0.40691236 0.68584734 0.24900983 -0.02517048 -0.07798993 -0.65735906

linear2.weight f4 [3, 128]
00000000: 020f 3e3c 1333 3fbd 0ac3 193f 16f0 eb3d
00000010: f2b8 59bd df82 163e a0ab b73e 0dec 393e
00000020: 5bcd 20be a33e 793e 2a73 df3e a15f 24bd
00000030: 7ec3 0fbe f2a2 debd 751d 2c3c 6c16 39bb
00000040: 5c8f a2bf 9263 383f d770 fa3e 2842 623c
00000050: cf3f 813c d326 74bf fcc8 69bd a07f 33be
00000060: 2344 6b3c 8609 c13c 33ff ca3d ee62 f63e
00000070: 88c3 443d 0e28 8dbe c59d 373d 10cf e23e
00000080: 27cd 6ebe 9287 28bc 74d3 183e d78c c13d
00000090: 3966 923e 0fc6 833e 74b4 383e b068 c0bd
000000a0: e836 8a3c 2b98 b23a 22b4 6f3e 7728 61bd
000000b0: cf29 b7be 3559 463e 5f06 4b3c 4071 4dbf
000000c0: 017b 7fbd a6c0 cbbd dac9 0a3d 114c b8bf
000000d0: 9be5 e53c 41b3 f23e 70fd 1cbe bda8 a83d
000000e0: cec7 4a3f 2f74 373e 399e 15be 1cf9 5ebd
000000f0: a9cb 6fbe 0f91 313f 139d 6bbe 94c2 eabd
00000100: 9e9b 41bc 28c1 8cbd 7144 223e ddad 05bf
00000110: aa91 153e 36e0 64bf c819 69be fe3b 073f
00000120: bb0f 33bd 0041 c83e 6145 0b3f 2315 483c
00000130: 77ce adbf 6ab4 443f 77ca 42b9 fbbe 6ebe
00000140: efaa 31bf 6c44 863c 14b7 dc3c 7802 8ebc
00000150: 68dd e2bc f1f8 9f3d ccac 0bbf a721 e03d
00000160: ccc4 8cbd 8b3a babc 7ccb 6a3e 5b41 adbe
00000170: a790 febe c553 93be 7fc2 f3bd 958b c93d
00000180: 3fbe 953d e8d3 aebe 6eed 743e 25b6 5abd
00000190: 6105 3fbd 3d75 94bf b81c 10bf be22 09be
000001a0: ede2 583f 916a 013e 5947 313e 403b aebc
000001b0: ca3f 913e 6ba0 573e e745 c7bd bb39 2cbd
000001c0: 1198 7cbd 892f 5cbf 1c8f 0a3e 2ca7 b2b9
000001d0: 44d7 d2bf a25e 223b 9b4b 143f a7bd 1fbc
000001e0: dc79 b93e 81de 53bf 3375 563e d992 293e
000001f0: 20a4 303f aab8 373d 997a 11bf d20a 3cbf
00000200: 94cd 8abc 22a7 193e 6d95 afbf 51cd 44be
00000210: 0906 b0bf 0a96 e1be a8d3 283f 3dfb d03e
00000220: 51c4 d1bd 3fdc 5dbf 7666 183f 3e91 b73b
00000230: 9d17 62be d4f0 053e 0a78 55bd 22c1 3e3e
00000240: 0f09 9f3e 281e 02bf 4b4d 1e3f 0d4d a43d
00000250: 48eb 2a3e f374 1b3f 9fd3 b6bd 9ddf 48bf
00000260: 067d 9abf 0629 c5bb 99a7 85be 4a63 fe3e
00000270: 354e 133d 0f06 8a3d 0ec0 46bf c29e 293f
00000280: 9883 133e 03b4 05bf b101 d23e a181 81bf
00000290: 5eab f83d b973 afbd 5b34 cd3d 1e82 40bd
000002a0: 87f6 a9bf 9ea7 373d 0ea9 e63e fa22 b2bf
000002b0: b864 2e3e 3f38 0bbc 72cb 3b3d 4731 083f
000002c0: 5a60 efbe 89b7 493d 216a 3bbd e59c cf3d
000002d0: c02c 683b 5236 4d3d acdb 593e bee1 f53c
000002e0: f37e d8bf 7e15 95bf 067a 7fbf 19db c9bf
000002f0: 86f9 3d3e 6746 20bf 6dc1 303e 9a57 3cbf
00000300: a6ed 6d3c 3b63 863d ff03 55bf c760 fb3e
00000310: e8e6 da3e 2c27 663c 7b6c 7d3e 59a2 e13e
00000320: 4150 ddbd e21f 023f 6912 823f 7b52 efbf
00000330: cf22 d83e 3d9e 523f 809e b0bd c46b eb3e
00000340: 4cbd 923e 2cce 8f3c 8a13 963c fa41 d8be
00000350: 7e9c 003c ee8c 63bf 5729 e23d e4a2 86bf
00000360: 1c40 9e3e c69a 27bf 19a6 df3e d1f0 babe
00000370: 603c 663c 35ca 4abc 3dd4 3d3e 2227 b0bf
00000380: d4f4 48bf a774 023f 9c53 9c3e 6678 063e
00000390: 9ec9 d5be 1c66 053e 60f7 3d3d 4d19 82bf
000003a0: 9e15 093c ea69 6a3e e6dc 48be da1d e2bc
000003b0: 9108 39bf c27a 9e3e 462f 973e d990 933e
000003c0: 4991 023f 190a 573e 8b12 2e3e 3f73 fd3d
000003d0: 55b3 663e f8c7 bebd 5307 a43e fb08 ccbc
000003e0: f917 333f 7f17 9b3d 3efd 4dbe 77a9 d13e
000003f0: 76d5 923f 0988 ddbd fe91 8a3e 5c27 0d3e
0.011600258 -0.046679568 0.6006323 0.11520402 -0.053154893 0.14698361 0.35873127 0.18156452
-0.15703337 0.243403 0.4364255 -0.04013026 -0.14039418 -0.10870923 0.01050507 -0.0028242124
-1.27 0.7202693 0.48914215 0.013809718 0.015777497 -0.9537174 -0.05707644 -0.17529154
0.014359507 0.023564111 0.09911957 0.48122352 0.048038036 -0.27569622 0.044828195 0.442986
-0.23320447 -0.010286229 0.14924413 0.09450691 0.28593615 0.25737044 0.18037587 -0.093949676
0.016871884 0.0013625672 0.23408559 -0.05497023 -0.35774085 0.19369967 0.012391656 -0.8025093
-0.062373165 -0.09948854 0.033883907 -1.4398214 0.028063586 0.47402385 -0.15331054 0.08235309
0.7921113 0.17915414 -0.14611138 -0.054436788 -0.23417534 0.69361967 -0.23009138 -0.11462894
-0.011816887 -0.06872779 0.15846421 -0.5221842 0.14606348 -0.8940462 -0.22763741 0.52825916
-0.043716174 0.3911209 0.5440274 0.012212071 -1.3578633 0.7683779 -0.00018576706 -0.23315041
-0.6940145 0.016390048 0.026942767 -0.017335162 -0.027693465 0.07811154 -0.5456054 0.10943919
-0.068734735 -0.022732994 0.22929186 -0.33838925 -0.49719736 -0.2877485 -0.119023316 0.09841076
0.07311677 -0.34146047 0.23918697 -0.053396363 -0.04663599 -1.1598278 -0.5629382 -0.1339216
0.8472126 0.12638308 0.17312373 -0.021268487 0.2836898 0.21057288 -0.0973013 -0.042047244
-0.06166846 -0.8601003 0.13531154 -0.00034075358 -1.6471944 0.0024775644 0.57927865 -0.0097498065
0.36225784 -0.8276139 0.20943145 0.16559924 0.69000435 0.044853844 -0.56827694 -0.7345401
-0.01694373 0.15005162 -1.3717476 -0.19218947 -1.3751842 -0.44059783 0.6594796 0.4081668
-0.102425225 -0.86664194 0.59531343 0.005602031 -0.2207932 0.1308015 -0.05211643 0.18628362
0.310616 -0.50827265 0.6183669 0.08022509 0.16691315 0.60725325 -0.08927082 -0.78466207
-1.2069404 -0.0060168533 -0.2610443 0.49685127 0.035963256 0.06739437 -0.776368 0.6625787
0.14405668 -0.522278 0.41016915 -1.0117685 0.12142061 -0.08566994 0.10019752 -0.04699909
-1.3278359 0.044837587 0.45050853 -1.3916924 0.17030609 -0.008497297 0.045848317 0.5320019
-0.46753198 0.0492473 -0.04575551 0.10137347 0.0035427064 0.050100632 0.21275204 0.030014869
-1.6913742 -1.1647184 -0.9979557 -1.5769988 0.18552217 -0.62607425 0.17261286 -0.7357117
0.014521992 0.065618955 -0.8320922 0.49097273 0.42754292 0.014047425 0.24748413 0.44069174
-0.10806323 0.508299 1.0161868 -1.8697046 0.42214057 0.822727 -0.086239815 0.45980656
0.28660047 0.017554365 0.018319864 -0.42237836 0.007849811 -0.88886917 0.11043041 -1.051846
0.30908287 -0.6547054 0.4368141 -0.36511853 0.01405248 -0.0123773115 0.18537994 -1.3761942
-0.7849858 0.5095925 0.3053254 0.13131866 -0.41755384 0.13027233 0.046378493 -1.0163971
0.00836697 0.22891966 -0.19615516 -0.027602125 -0.72278696 0.30953032 0.29528254 0.28821447
0.5100294 0.20999946 0.16999261 0.12375497 0.22529347 -0.09315485 0.32036838 -0.024906626
0.69958454 0.07572841 -0.20116135 0.40949604 1.1471393 -0.10816962 0.27064508 0.13784546

linear2.bias f4 [3]
00000000: 31a2 1a3f 5d4a ad3e 668b e23e
0.60403734 0.33845797 0.44246978

linear1.weight f4 [128, 11]
00000000: 0e16 ffbd d369 273e ef3e bb3e fe77 d5bd
00000010: c16e 593e 369c dabe a1d6 b4be 68b9 bd3d
00000020: f548 82be b330 9abe 54d2 eebe 25ac 1d3f
00000030: dc08 a9be 6740 4abf 4123 293e ea23 7a3e
00000040: 697d f9bd 01ef 9a3e 7a0e a5bd 70d1 8abe
00000050: 179d 23bd 5e58 49be b32e a5bd 62d4 4bbd
00000060: e842 893e 9b67 593f beee 433f 69e9 71bf
00000070: 25d2 94bf 099b 303f ef5d 293f df0f 78bf
00000080: d28e 7ebf 8b5b 463e d7c1 4f3f f3d0 a0bf
00000090: eebd 53be 6ad3 df3d bf71 6cbe 8e3d b0be
000000a0: 07b1 04bf 17d4 bfbe 55d5 a8be d78b a4be
000000b0: 889b b4be 4f0c 923f 7d67 203f 5910 19bf
000000c0: 84d5 493e 1da4 c4be 6c0c 24bf 3b7d 3cbf
000000d0: 6d05 afbe c3b1 5c3e 802a 87bd 4490 86be
000000e0: 856f c13e a2f6 7cbd 0ea5 96bf 8558 853e
000000f0: d1da 2dbe 1fc5 5cbf fa7e a7bf e830 c8be
00000100: 1c74 7d3e 8422 8ebf 809d 12bf 2096 6abf
00000110: ffe6 e4bc 6ceb 363f 998b f7be c0aa b33d
00000120: b61b 33be 166f b33d 0ce7 97bf 9ac3 fdbd
00000130: 8c51 81bf 6932 c3be bd6e e3be 387e a43d
00000140: e63c 083f 79f8 093f a74d 9b3e 1bd0 853e
00000150: 07c7 c2be 2b5b 47be 26d0 d2be 1ca2 6fbe
00000160: 5ff6 0a3f c028 6e3f 246e f43e d96a a7be
00000170: b15e 36bf ce97 adbe ede1 25bf 0a6a c13e
00000180: 006f c8bd 3ccd 873e a2a1 a13e 156d 4ebd
00000190: c2ab 873f 2927 88bf 554a c8be a3e3 48bc
000001a0: ef41 a6be 0dd4 2bbf dd53 02bf 32c1 abbe
000001b0: 4135 f9be f387 a3bf 10f2 33bf c68d 86be
000001c0: 13af a8be f3f5 8b3e 6fc6 3d3e d6b0 c83d
000001d0: 9534 c23e 2eb3 a9bc 3c6f 4abd 3c2e 01bf
000001e0: 2b87 ccbe 00c3 c63a c168 8ebe 516b 3ebd
000001f0: 6f52 7c3d 9dfd 3cbe b989 84be a6e4 95bd
00000200: 380b 403d 5ced 93bc e268 17be bf01 92be
00000210: b47b 883e ed92 f63e de1f 70bf 0454 e0be
00000220: c4ad 5fbd a1ef a6be d55a a23b 9100 e23b
00000230: 008a fa3c ae15 233d ebbf ee3d a146 e93e
00000240: e318 2bbf c391 1f3f d27e 4fbd 12be d3be
00000250: 0b22 0bbf 39b6 2fbd 0ddd 7b3d 1030 c9be
00000260: 09e1 a8bd 1602 92be 058d 633e a758 63bf
00000270: fa1b 2c3f 6f72 8bbe a158 c3bd 0f7b 9c3e
00000280: 52f4 f3be 2f23 c7be ed36 d1be 7f86 4bbb
00000290: 29aa 0cbf 36a9 343f d5b5 c4bf eaf3 d53e
000002a0: 47c0 483e daca 13bd 2fdc bd3d 8444 a53d
000002b0: c7d6 04be 8175 33bd 90fb bf3b 0bc6 e9bc
000002c0: b34d a23f 6296 3abf 20d1 e8bd efa9 4b3f
000002d0: 6bde 663e d032 6a3e c8d2 523f 11e1 28bf
000002e0: 76ed 05be f9c9 113e f45c debe 9cb3 e2be
000002f0: 3a1a e73d b613 31be 4a5b 3c3f 1118 90bf
00000300: c404 4a3f 213c 97bf 28d3 4f3f 846c a1bf
00000310: 32d3 fabf 5371 c2bf 8c4c 17bf c942 b1bd
00000320: 6b86 0ebf a9ca 1e3f 17e6 fa3e d3dc a23e
00000330: 7bec d23e 8581 f0bd 2d82 d8be 9fea 13bf
00000340: 6de4 68be 8027 f3bb a780 83be 7832 b6bd
00000350: 1665 2f3e 9ba7 07be 3e90 42be dcaa 3b3e
00000360: b6ad a4bd 3423 8fbd ea1e 3abe de3a 41be
00000370: 6fad 203f ac49 5abf 841c a63e 4292 ac3d
00000380: 1171 edbe bcaa 61be b118 6fbd 1402 d4bd
00000390: 38c6 40be e99d b33e ae85 e8be df63 2d3f
000003a0: 3d1b 683e a4c2 98bd cfc1 f1bd b7f8 06bf
000003b0: e5c6 433f 9b26 0e3f 22ef bd3e 741f 193f
000003c0: 8e0c 7fbf ed8c 3abf 08e1 bd3e d36b 833e
000003d0: 3897 2bbf 7256 583c fcf7 f7bd afe4 55be
000003e0: 2291 cdbe a807 bd3d 0718 3d3e 600c d1bd
000003f0: 0252 33be e298 553f b714 403f 9d1f 5ebf
-0.124553785 0.16348962 0.36571452 -0.10423277 0.21233656 -0.42697304 -0.3532 0.09263879
-0.25446287 -0.3011528 -0.46644843 0.61590797 -0.33014572 -0.7900452 0.16517355 0.24427763
-0.12182123 0.3026047 -0.08059402 -0.27112913 -0.039944734 -0.19662616 -0.08065548 -0.04976309
0.26808858 0.84923714 0.76536167 -0.9449678 -1.1626631 0.68986565 0.66158956 -0.9689922
-0.99436677 0.19370858 0.8115515 -1.2563766 -0.20677921 0.10928996 -0.23090266 -0.34421962
-0.5183262 -0.374665 -0.3297526 -0.3213794 -0.3527491 1.1410006 0.6265791 -0.5979057
0.19710356 -0.38406458 -0.64081454 -0.73628587 -0.34183827 0.21552186 -0.06599903 -0.2628194
0.37780395 -0.061758645 -1.1769121 0.26044098 -0.16978003 -0.8623828 -1.3085625 -0.39099813
0.24751323 -1.1104283 -0.57271576 -0.9163532 -0.027942179 0.71452975 -0.48348692 0.08772802
-0.1749104 0.08761422 -1.1867385 -0.12390824 -1.0103011 -0.38124397 -0.44420424 0.08031887
0.53217924 0.53894764 0.30332682 0.26135334 -0.3804247 -0.19468372 -0.4117443 -0.23401684
0.5428218 0.9303093 0.4774028 -0.32698706 -0.7123824 -0.3390488 -0.6479786 0.37776214
-0.097867966 0.2652377 0.3156863 -0.050396997 1.0599291 -1.0636951 -0.3911921 -0.012261304
-0.32472178 -0.6712044 -0.50909215 -0.33545834 -0.48673442 -1.2775863 -0.70291233 -0.2628004
-0.3294607 0.27336082 0.18532728 0.09799354 0.37930742 -0.020715322 -0.049422488 -0.50461173
-0.39946875 0.0015164316 -0.27814296 -0.046489064 0.061602052 -0.18456121 -0.25886324 -0.07319002
0.0468857 -0.018057518 -0.14786103 -0.28516957 0.26656878 0.4815897 -0.93798625 -0.438141
-0.054609075 -0.32604697 0.0049546757 0.00689704 0.030583382 0.039815597 0.11657699 0.45561698
-0.6683485 0.6233179 -0.050658055 -0.4135595 -0.5434882 -0.04289839 0.061490107 -0.3929448
-0.08246047 -0.28517216 0.22221763 -0.8880715 0.6723019 -0.27235743 -0.09538389 0.30562636
-0.4764734 -0.3889403 -0.40862218 -0.0031055508 -0.54947144 0.70570695 -1.5367991 0.41787654
0.19604598 -0.036082126 0.09270512 0.08069709 -0.12972556 -0.043813232 0.005858846 -0.028536817
1.2679962 -0.72885716 -0.113680124 0.79556173 0.22545783 0.22870946 0.82352877 -0.65968424
-0.13078865 0.14237203 -0.43430293 -0.44277656 0.11284299 -0.17292675 0.73576796 -1.1257344
0.7891352 -1.1815225 0.81181574 -1.2611241 -1.9595702 -1.5190834 -0.59101176 -0.086553164
-0.55673856 0.62027985 0.4900367 0.318091 0.41196045 -0.11743454 -0.42286816 -0.5777988
-0.22743388 -0.0074204803 -0.2568409 -0.08896345 0.17128405 -0.1324753 -0.19000337 0.18326896
-0.08040945 -0.06989136 -0.18175855 -0.18870112 0.6276464 -0.85268664 0.3244363 0.08426334
-0.46375325 -0.22037786 -0.058373157 -0.10351959 -0.18825614 0.35081413 -0.4541449 0.67730516
0.2266664 -0.07459 -0.11804544 -0.5272326 0.76475364 0.5552766 0.37096506 0.5981362
-0.9962853 -0.72871286 0.37085748 0.256682 -0.67027617 0.013204204 -0.12107846 -0.20888017
-0.4014979 0.09229976 0.18466197 -0.102074385 -0.17511752 0.83436406 0.7503161 -0.8676699

linear1.bias f4 [128]
00000000: aa44 49bf d879 f1bd 91d0 373e 7a22 ae3d
00000010: 6283 c7be f764 a43e 9f35 db3e 76ee 3b3f
00000020: 2570 2ebf 4069 0c3e 3cf9 9a3f 79ee e3bd
00000030: abbc 6bbf 9c81 09bf 0165 aebd 1ff3 07bf
00000040: 3f5f d6be 5b44 743e 130d 8b3f 41dc 06be
00000050: 91f3 f1be 00e3 b3be c8d7 5ebf eb9a 42be
00000060: c1f9 27bf b160 31bf 5761 01be 7f4f 763f
00000070: efa0 9abd 4c7d 61bf a58c 263e 733e 643f
00000080: eab7 66bf 4d56 ccbe ae1d d0bd df22 6d3e
00000090: 8c5d 683f 02f7 af3e 638e 113f 75f5 a9be
000000a0: a8fa 1abe 7c5c a0be 4eac 203f 08d6 09be
000000b0: 25df 46bf 4e16 64bf f44b 6ebf a2d0 86be
000000c0: f6b0 ddbe 6a1e 44be 6e89 91be 6ff5 49bf
000000d0: 11ba d0bc da97 8d3e 624c e5be a538 e83e
000000e0: 10bd 983e f69e 853e f26c e1be d8b6 debe
000000f0: d6c5 1ebf b3da ed3e 2580 aebe e4e1 5cbf
00000100: 5a55 fabe 25ce 96be d0cf 953d c780 27be
00000110: 3065 113f 4eff 14bf a59e f4be 170c 043f
00000120: 2ecd 5ebf a951 903f 0364 9c3e 6c72 c1bd
00000130: 8272 02bf 4bce 9f3f 6ea4 51bf 42e0 e1be
00000140: b60a 463d 33d1 2abe 3b31 aabe 9ee3 33bf
00000150: da17 17bf f11a 8ebc b2ae 6fbf 32bb 0b3d
00000160: 1aa1 0cbf 98e8 3bbe 97ea 873e 8d3c 29be
00000170: 2680 4fbf 8191 e5bc 7cca 50be 054a 46be
00000180: 525f 3a3e 69b5 f73d 0160 7d3e dde9 90bc
00000190: 8939 31bf a6df 2dbf 71ce 8bbf 9661 2ebf
000001a0: c24c 363f 7c0b 3f3f ec74 87bd 5d7d 10bf
000001b0: 719d b8bd fe93 4d3f 5e4b 343d eb85 cabe
000001c0: a443 163f 96c9 e5be e704 5abc 85fc d03d
000001d0: 178f 36be b054 a73d 17e9 403f 6313 b1be
000001e0: cc75 163e 9c94 03bf d156 d0be b193 2f3f
000001f0: 6ffc 7e3e 5332 cebc 2fb9 9fbd af48 28bf
-0.786204 -0.11790818 0.17950656 0.0850267 -0.38967425 0.3210828 0.42814347 0.7341074
-0.6813987 0.13712025 1.210731 -0.111294694 -0.9208476 -0.53713393 -0.08515359 -0.5310535
-0.41869542 0.238542 1.0863365 -0.13169958 -0.4725614 -0.35134125 -0.87048006 -0.19004409
-0.6561547 -0.69288164 -0.12634788 0.9621505 -0.07550227 -0.8808181 0.16264589 0.8915779
-0.9012438 -0.39909592 -0.10161911 0.23157834 0.9076774 0.3436814 0.5685789 -0.3319508
-0.1513468 -0.3132056 0.62762916 -0.13460553 -0.7768424 -0.89096534 -0.93084645 -0.2633105
-0.43299073 -0.19152227 -0.28425163 -0.78890127 -0.025479348 0.27654916 -0.44784838 0.45355716
0.29831743 0.2609784 -0.4402843 -0.43498874 -0.62020624 0.46455917 -0.34082142 -0.8628218
-0.48893243 -0.2945415 0.07315028 -0.16357718 0.56795025 -0.58202064 -0.47777286 0.5158095
-0.8703183 1.1274921 0.30545053 -0.09445652 -0.50955975 1.2484831 -0.81891525 -0.44116408
0.04835006 -0.16681366 -0.33240685 -0.7026919 -0.5902077 -0.017346831 -0.9362594 0.03411407
-0.5493332 -0.18350446 0.26546165 -0.16527005 -0.81054914 -0.028023483 -0.20389742 -0.19364174
0.18200424 0.12095148 0.24743654 -0.01768964 -0.69228417 -0.67919385 -1.0922376 -0.68117654
0.71210873 0.746269 -0.06614098 -0.5644129 -0.090144046 0.80303943 0.04401719 -0.39555296
0.5869696 -0.4488036 -0.013306833 0.10204414 -0.17828022 0.0817045 0.75355667 -0.34585103
0.14693373 -0.51398635 -0.40691236 0.68584734 0.24900983 -0.02517048 -0.07798993 -0.65735906

linear2.weight f4 [3, 128]
00000000: 020f 3e3c 1333 3fbd 0ac3 193f 16f0 eb3d
00000010: f2b8 59bd df82 163e a0ab b73e 0dec 393e
00000020: 5bcd 20be a33e 793e 2a73 df3e a15f 24bd
00000030: 7ec3 0fbe f2a2 debd 751d 2c3c 6c16 39bb
00000040: 5c8f a2bf 9263 383f d770 fa3e 2842 623c
00000050: cf3f 813c d326 74bf fcc8 69bd a07f 33be
00000060: 2344 6b3c 8609 c13c 33ff ca3d ee62 f63e
00000070: 88c3 443d 0e28 8dbe c59d 373d 10cf e23e
00000080: 27cd 6ebe 9287 28bc 74d3 183e d78c c13d
00000090: 3966 923e 0fc6 833e 74b4 383e b068 c0bd
000000a0: e836 8a3c 2b98 b23a 22b4 6f3e 7728 61bd
000000b0: cf29 b7be 3559 463e 5f06 4b3c 4071 4dbf
000000c0: 017b 7fbd a6c0 cbbd dac9 0a3d 114c b8bf
000000d0: 9be5 e53c 41b3 f23e 70fd 1cbe bda8 a83d
000000e0: cec7 4a3f 2f74 373e 399e 15be 1cf9 5ebd
000000f0: a9cb 6fbe 0f91 313f 139d 6bbe 94c2 eabd
00000100: 9e9b 41bc 28c1 8cbd 7144 223e ddad 05bf
00000110: aa91 153e 36e0 64bf c819 69be fe3b 073f
00000120: bb0f 33bd 0041 c83e 6145 0b3f 2315 483c
00000130: 77ce adbf 6ab4 443f 77ca 42b9 fbbe 6ebe
00000140: efaa 31bf 6c44 863c 14b7 dc3c 7802 8ebc
00000150: 68dd e2bc f1f8 9f3d ccac 0bbf a721 e03d
00000160: ccc4 8cbd 8b3a babc 7ccb 6a3e 5b41 adbe
00000170: a790 febe c553 93be 7fc2 f3bd 958b c93d
00000180: 3fbe 953d e8d3 aebe 6eed 743e 25b6 5abd
00000190: 6105 3fbd 3d75 94bf b81c 10bf be22 09be
000001a0: ede2 583f 916a 013e 5947 313e 403b aebc
000001b0: ca3f 913e 6ba0 573e e745 c7bd bb39 2cbd
000001c0: 1198 7cbd 892f 5cbf 1c8f 0a3e 2ca7 b2b9
000001d0: 44d7 d2bf a25e 223b 9b4b 143f a7bd 1fbc
000001e0: dc79 b93e 81de 53bf 3375 563e d992 293e
000001f0: 20a4 303f aab8 373d 997a 11bf d20a 3cbf
00000200: 94cd 8abc 22a7 193e 6d95 afbf 51cd 44be
00000210: 0906 b0bf 0a96 e1be a8d3 283f 3dfb d03e
00000220: 51c4 d1bd 3fdc 5dbf 7666 183f 3e91 b73b
00000230: 9d17 62be d4f0 053e 0a78 55bd 22c1 3e3e
00000240: 0f09 9f3e 281e 02bf 4b4d 1e3f 0d4d a43d
00000250: 48eb 2a3e f374 1b3f 9fd3 b6bd 9ddf 48bf
00000260: 067d 9abf 0629 c5bb 99a7 85be 4a63 fe3e
00000270: 354e 133d 0f06 8a3d 0ec0 46bf c29e 293f
00000280: 9883 133e 03b4 05bf b101 d23e a181 81bf
00000290: 5eab f83d b973 afbd 5b34 cd3d 1e82 40bd
000002a0: 87f6 a9bf 9ea7 373d 0ea9 e63e fa22 b2bf
000002b0: b864 2e3e 3f38 0bbc 72cb 3b3d 4731 083f
000002c0: 5a60 efbe 89b7 493d 216a 3bbd e59c cf3d
000002d0: c02c 683b 5236 4d3d acdb 593e bee1 f53c
000002e0: f37e d8bf 7e15 95bf 067a 7fbf 19db c9bf
000002f0: 86f9 3d3e 6746 20bf 6dc1 303e 9a57 3cbf
00000300: a6ed 6d3c 3b63 863d ff03 55bf c760 fb3e
00000310: e8e6 da3e 2c27 663c 7b6c 7d3e 59a2 e13e
00000320: 4150 ddbd e21f 023f 6912 823f 7b52 efbf
00000330: cf22 d83e 3d9e 523f 809e b0bd c46b eb3e
00000340: 4cbd 923e 2cce 8f3c 8a13 963c fa41 d8be
00000350: 7e9c 003c ee8c 63bf 5729 e23d e4a2 86bf
00000360: 1c40 9e3e c69a 27bf 19a6 df3e d1f0 babe
00000370: 603c 663c 35ca 4abc 3dd4 3d3e 2227 b0bf
00000380: d4f4 48bf a774 023f 9c53 9c3e 6678 063e
00000390: 9ec9 d5be 1c66 053e 60f7 3d3d 4d19 82bf
000003a0: 9e15 093c ea69 6a3e e6dc 48be da1d e2bc
000003b0: 9108 39bf c27a 9e3e 462f 973e d990 933e
000003c0: 4991 023f 190a 573e 8b12 2e3e 3f73 fd3d
000003d0: 55b3 663e f8c7 bebd 5307 a43e fb08 ccbc
000003e0: f917 333f 7f17 9b3d 3efd 4dbe 77a9 d13e
000003f0: 76d5 923f 0988 ddbd fe91 8a3e 5c27 0d3e
0.011600258 -0.046679568 0.6006323 0.11520402 -0.053154893 0.14698361 0.35873127 0.18156452
-0.15703337 0.243403 0.4364255 -0.04013026 -0.14039418 -0.10870923 0.01050507 -0.0028242124
-1.27 0.7202693 0.48914215 0.013809718 0.015777497 -0.9537174 -0.05707644 -0.17529154
0.014359507 0.023564111 0.09911957 0.48122352 0.048038036 -0.27569622 0.044828195 0.442986
-0.23320447 -0.010286229 0.14924413 0.09450691 0.28593615 0.25737044 0.18037587 -0.093949676
0.016871884 0.0013625672 0.23408559 -0.05497023 -0.35774085 0.19369967 0.012391656 -0.8025093
-0.062373165 -0.09948854 0.033883907 -1.4398214 0.028063586 0.47402385 -0.15331054 0.08235309
0.7921113 0.17915414 -0.14611138 -0.054436788 -0.23417534 0.69361967 -0.23009138 -0.11462894
-0.011816887 -0.06872779 0.15846421 -0.5221842 0.14606348 -0.8940462 -0.22763741 0.52825916
-0.043716174 0.3911209 0.5440274 0.012212071 -1.3578633 0.7683779 -0.00018576706 -0.23315041
-0.6940145 0.016390048 0.026942767 -0.017335162 -0.027693465 0.07811154 -0.5456054 0.10943919
-0.068734735 -0.022732994 0.22929186 -0.33838925 -0.49719736 -0.2877485 -0.119023316 0.09841076
0.07311677 -0.34146047 0.23918697 -0.053396363 -0.04663599 -1.1598278 -0.5629382 -0.1339216
0.8472126 0.12638308 0.17312373 -0.021268487 0.2836898 0.21057288 -0.0973013 -0.042047244
-0.06166846 -0.8601003 0.13531154 -0.00034075358 -1.6471944 0.0024775644 0.57927865 -0.0097498065
0.36225784 -0.8276139 0.20943145 0.16559924 0.69000435 0.044853844 -0.56827694 -0.7345401
-0.01694373 0.15005162 -1.3717476 -0.19218947 -1.3751842 -0.44059783 0.6594796 0.4081668
-0.102425225 -0.86664194 0.59531343 0.005602031 -0.2207932 0.1308015 -0.05211643 0.18628362
0.310616 -0.50827265 0.6183669 0.08022509 0.16691315 0.60725325 -0.08927082 -0.78466207
-1.2069404 -0.0060168533 -0.2610443 0.49685127 0.035963256 0.06739437 -0.776368 0.6625787
0.14405668 -0.522278 0.41016915 -1.0117685 0.12142061 -0.08566994 0.10019752 -0.04699909
-1.3278359 0.044837587 0.45050853 -1.3916924 0.17030609 -0.008497297 0.045848317 0.5320019
-0.46753198 0.0492473 -0.04575551 0.10137347 0.0035427064 0.050100632 0.21275204 0.030014869
-1.6913742 -1.1647184 -0.9979557 -1.5769988 0.18552217 -0.62607425 0.17261286 -0.7357117
0.014521992 0.065618955 -0.8320922 0.49097273 0.42754292 0.014047425 0.24748413 0.44069174
-0.10806323 0.508299 1.0161868 -1.8697046 0.42214057 0.822727 -0.086239815 0.45980656
0.28660047 0.017554365 0.018319864 -0.42237836 0.007849811 -0.88886917 0.11043041 -1.051846
0.30908287 -0.6547054 0.4368141 -0.36511853 0.01405248 -0.0123773115 0.18537994 -1.3761942
-0.7849858 0.5095925 0.3053254 0.13131866 -0.41755384 0.13027233 0.046378493 -1.0163971
0.00836697 0.22891966 -0.19615516 -0.027602125 -0.72278696 0.30953032 0.29528254 0.28821447
0.5100294 0.20999946 0.16999261 0.12375497 0.22529347 -0.09315485 0.32036838 -0.024906626
0.69958454 0.07572841 -0.20116135 0.40949604 1.1471393 -0.10816962 0.27064508 0.13784546

linear2.bias f4 [3]
00000000: 31a2 1a3f 5d4a ad3e 668b e23e
0.60403734 0.33845797 0.44246978
