models/last_model.pth (torch, 10299 bytes, 4 tensors)

linear1.weight f4 [128, 11]
0.99061 0.37634128 0.741535 0.19004302 -0.31859687 0.2892239 -0.39392075 0.15049978
0.5573423 0.022032294 0.5302563 0.24173108 0.2341282 0.27684975 0.024698896 -0.3795102
-0.21235892 -0.131047 -0.10674492 -0.53099877 0.031024076 -0.024279501 -0.120473474 -0.49687424
-0.42553443 0.42867082 0.49027076 0.33914524 0.5270818 -0.14686397 -0.026457567 -0.37172723
-0.23584636 0.33190063 1.0403125 -0.35738024 -0.10817473 0.11761693 0.033004478 0.11809617
-0.37788957 -0.08867934 0.19160892 -0.22802277 -0.42966124 -0.1736335 -0.38355085 0.3177596
0.22776407 0.0687893 0.055159774 -0.37752795 -0.2913439 -0.14035192 -0.07183903 -0.6993231
-0.28542364 0.6198748 -0.9229849 0.27026498 0.35035127 -0.16034049 -0.9279885 -0.07738401
-0.13090928 0.29868773 0.67147547 -0.28714916 0.866404 0.28002235 -0.22533743 -0.017420936
0.21383855 0.24002923 0.4839063 0.43846482 -0.27784908 0.7290709 -0.71184576 -0.49198857
0.19735864 0.12661897 0.11921463 -0.11751689 -0.23149247 -0.17998321 -0.05505415 0.11016125
0.49901 0.041677386 0.061247893 0.30016342 -0.3829598 -0.7551762 0.7734384 -0.26884225
0.5220662 0.61283034 -0.7213668 -0.16397744 0.52183837 0.017634187 -0.72999567 -0.6623179
0.50862354 0.68552846 -0.7012835 -0.5642501 0.66682994 0.66565984 -0.40268812 1.2587937
-0.12566781 0.31320187 -0.52518666 0.39256245 -0.023902364 0.26798627 -0.5901939 -0.11165693
0.3689624 -0.79277194 -0.46887308 -0.2321652 0.37818038 0.2848797 0.12762229 0.27082533
-0.31381243 -0.2019762 -0.07394307 -0.08051788 0.18453798 -0.06682952 -0.037438612 0.48300517
0.6994882 0.23894744 -0.48119932 -0.5992481 -0.777553 -0.15775818 0.52051264 -0.49716777
0.39484718 -1.2900333 0.39662716 -0.5003805 0.14530136 -0.048029914 -0.07952388 -1.2315373
0.10354608 -0.046958365 -0.49334228 0.82726246 -0.19964014 0.12867983 0.054672383 -0.042663164
0.26965797 -0.123791546 -0.056063797 0.0011869847 -0.028004441 -0.24225545 -0.9944812 0.52595896
0.24809888 0.11564736 0.13970117 0.011183408 -0.18835524 -0.11824137 -0.20842028 -0.2444016
1.2663833 0.07813691 0.11028847 0.63099647 -0.17597768 0.28167856 -0.42097577 -0.40821388
0.50810796 0.056634363 0.8118876 -0.27081782 0.190517 -0.2597906 -0.4628994 0.43755388
-0.19842827 0.41877714 -0.84627366 0.061611526 0.34001142 0.040401135 0.5663526 -0.93979985
0.559239 0.0005901102 -0.16991182 0.08317287 -0.045986954 -0.17113565 -0.0482745 -0.23767774
-0.06341077 -0.34058723 -0.4142693 -0.6319854 0.30067578 0.28026268 -0.06386054 0.047538437
-0.06664634 0.01369594 -0.24514702 -0.38033 0.07836852 0.10426988 0.4786878 0.12633605
-0.41135448 -0.22689961 0.3230916 0.44785574 -0.38890123 0.58466464 -0.6327855 0.4628409
0.049487405 -0.15013112 -0.5435438 0.4716478 0.23718083 0.9865089 0.7537611 -0.38085264
-0.1851228 -0.7437454 0.1050871 0.35850045 0.32099497 -0.66448504 -0.5413399 0.5091038
0.4906028 -0.5400601 -0.55908084 0.58798736 0.66358083 0.33797824 0.5618667 -0.85508025
00000000: 9e98 7d3f ceaf c03e 3dd5 3d3f a39a 423e
00000010: 211f a3be 2815 943e fbaf c9be 9d1c 1a3e
00000020: fcad 0e3f 127d b43c e0be 073f 5a88 773e
00000030: 4ebf 6f3e 40bf 8d3e 5755 ca3c 294f c2be
00000040: 9e74 59be 2f31 06be 159d dabd 89ef 07bf
00000050: 3426 fe3c cee5 c6bc ccba f6bd 4d66 febe
00000060: a6df d9be be7a db3e c504 fb3e 72a4 ad3e
00000070: d5ee 063f 8263 16be 8abd d8bc 0853 bebe
00000080: b581 71be e1ee a93e f628 853f 8bfa b6be
00000090: b68a ddbd 25e1 f03d b42f 073d 68dc f13d
000000a0: be7a c1be 849d b5bd 2135 443e cd7e 69be
000000b0: 8ffc dbbe fbcc 31be c760 c4be 63b1 a23e
000000c0: fc3a 693e 68e1 8c3d 37ef 613d 584b c1be
000000d0: 072b 95be 6ab8 0fbe 5720 93bd d706 33bf
000000e0: 0c23 92be 1db0 1e3f bd48 6cbf 2c60 8a3e
000000f0: 3e61 b33e 4c30 24be a890 6dbf 827b 9ebd
00000100: 150d 06be 99ed 983e d1e5 2b3f 3705 93be
00000110: a7cc 5d3f 175f 8f3e dbbe 66be 5ab6 8ebc
00000120: 7ef8 5a3e 39ca 753e 91c2 f73e 767e e03e
00000130: 3c42 8ebe 64a4 3a3f 863b 36bf ede5 fbbe
00000140: 6218 4a3e 67a8 013e cd26 f43d b2ac f0bd
00000150: 5d0c 6dbe 854d 38be 7680 61bd 399c e13d
00000160: 3d7e ff3e e8b5 2a3d 12df 7a3d 05af 993e
00000170: 4f13 c4be 3a53 41bf 0f00 463f b1a5 89be
00000180: 21a6 053f 73e2 1c3f 7fab 38bf b4e9 27be
00000190: 3397 053f 9275 903c ffe0 3abf aa8d 29bf
000001a0: 2735 023f cb7e 2f3f 5187 33bf b272 10bf
000001b0: 5eb5 2a3f af68 2a3f 232d cebe 2720 a13f
000001c0: 10af 00be ff5b a03e a272 06bf f2fd c83e
000001d0: e4ce c3bc 7f35 893e f316 17bf 63ac e4bd
000001e0: a4e8 bc3e 1af3 4abf 2210 f0be b7bc 6dbe
000001f0: dca0 c13e c1db 913e 6baf 023e 9ea9 8a3e
00000200: 06ac a0be d9d2 4ebe 776f 97bd 8fe6 a4bd
00000210: 86f7 3c3e eadd 88bd 3b59 19bd 744c f73e
00000220: a911 333f a3ae 743e c25f f6be 5368 19bf
00000230: b70d 47bf 5c8b 21be 5140 053f c68c febe
00000240: 6929 ca3e d01f a5bf b712 cb3e f018 00bf
00000250: e1c9 143e 04bb 44bd 6add a2bd 04a3 9dbf
00000260: f80f d43d 6a57 40bd 5c97 fcbe 79c7 533f
00000270: 776e 4cbe a5c4 033e 26f0 5f3d 92bf 2ebd
00000280: 9c10 8a3e 6c86 fdbd 27a3 65bd 9994 9b3a
00000290: 9269 e5bc d011 78be 5296 7ebf 3fa5 063f
000002a0: a20d 7e3e 86d8 ec3d d30d 0f3e 9d3a 373c
000002b0: 32e0 40be 8828 f2bd 206c 55be 6a44 7abe
000002c0: d918 a23f 3f06 a03d ecde e13d fc88 213f
000002d0: 7e33 34be 2c38 903e 238a d7be 6901 d1be
000002e0: 5d13 023f 6ff9 673d ded7 4f3f a2a8 8abe
000002f0: e316 433e 4603 85be 2601 edbe 1007 e03e
00000300: c830 4bbe f569 d63e 64a5 58bf 5e5c 7c3d
00000310: fa15 ae3e a97b 253d 7cfc 103f b996 70bf
00000320: 492a 0f3f a0b1 1a3a 5dfd 2dbe 8a56 aa3d
00000330: d15c 3cbd 2f3e 2fbe 7bbb 45bd cb61 73be
00000340: 81dd 81bd 7361 aebe 1b1b d4be ccc9 21bf
00000350: 2df2 993e 977e 8f3e 51c9 82bd aab7 423d
00000360: e07d 88bd f064 603c d207 7bbe 9dba c2be
00000370: ad7f a03d 728b d53d 9116 f53e 3d5e 013e
00000380: 0e9d d2be 5f58 68be 436c a53e 594d e53e
00000390: 101e c7be 95ac 153f 3bfe 21bf 7cf9 ec3e
000003a0: 4eb3 4a3d f9bb 19be b025 0bbf d27b f13e
000003b0: 88df 723e d98b 7c3f 7df6 403f 1eff c2be
000003c0: d590 3dbe 1966 3ebf e837 d73d 5f8d b73e
000003d0: 7459 a43e b11b 2abf 4095 0abf a054 023f
000003e0: 4a30 fb3e 6141 0abf ec1f 0fbf 5786 163f
000003f0: 6fe0 293f 7c0b ad3e 7fd6 0f3f 8ae6 5abf

linear1.bias f4 [128]
-0.5721591 -0.5551333 0.15987726 -0.21733351 0.7959834 0.46533167 -0.32828295 0.18256158
-0.158554 -0.06925709 0.16830628 0.8618826 0.039442457 0.49566376 0.3558744 0.6517332
-0.47922152 0.39449185 -0.1602612 0.6587165 -0.17683156 -0.2859349 -0.16238512 -0.4026453
0.462783 0.5286537 -0.36967698 0.84138054 0.59878975 0.025850063 -0.20217438 -0.10696262
-0.41986117 0.17148618 -0.15632622 -0.19881041 -0.33852404 -0.22326283 -0.2667711 0.5056857
-0.5358655 0.18966626 -0.32775748 0.03660417 0.30778462 0.6289825 0.5991955 -0.65208334
-0.31246194 -0.1631593 -0.47062632 -0.03798014 0.78973645 0.023142591 -0.092502326 0.11670303
0.16067208 -0.5333245 0.06807377 -0.12482186 -0.26735586 0.6182513 -0.38935363 0.5673259
0.5702091 0.36347005 -0.2825924 -0.2957551 -0.28844392 0.32346505 -0.33190393 0.46056595
0.28021827 -0.31228247 -0.11997121 -0.06833511 0.67826736 0.7336823 -0.4845935 -0.50126076
-0.20421304 -0.3215307 0.5348438 -0.42451575 -0.29092798 0.011570448 -0.24185735 -0.38962224
0.18310753 -0.5145669 0.39218044 0.007294414 -0.07136008 0.3189671 -0.24463369 -0.16015857
-0.054850444 0.7317871 -0.0839017 -0.32526246 -0.4125957 -0.49464053 0.22851817 -0.802345
-0.42415708 0.49236903 -0.21513145 0.6412641 0.16823816 0.36814243 0.52871287 -0.31132576
0.17150132 0.49712124 -0.079603605 0.060114518 -0.20593584 -0.35479182 0.5935646 -0.37005284
-0.2906422 -0.37098318 -0.36310485 0.60268897 -0.28400013 0.6484944 -0.22192337 0.3783104
00000000: 0579 12bf 371d 0ebf ddb6 233e ad8c 5ebe
00000010: 91c5 4b3f f43f ee3e b414 a8be 6cf1 3a3e
00000020: fb5b 22be a9d6 8dbd 7b58 2c3e 57a4 5c3f
00000030: 6a8e 213d a4c7 fd3e 2b35 b63e fdd7 263f
00000040: 865c f5be d6fa c93e 831b 24be a5a1 283f
00000050: 5513 35be 0f66 92be 4948 26be 8627 cebe
00000060: e5f1 ec3e d955 073f 4d46 bdbe b764 573f
00000070: 494a 193f 83c3 d33c cd06 4fbe 380f dbbd
00000080: 0bf8 d6be 139a 2f3e fb13 20be f594 4bbe
00000090: 0653 adbe 039f 64be 3996 88be 9e74 013f
000000a0: 7b2e 09bf df37 423e d4cf a7be 41ee 153d
000000b0: f295 9d3e ff04 213f e064 193f efee 26bf
000000c0: 03fb 9fbe 3b13 27be eff5 f0be 1091 1bbd
000000d0: 2b2c 4a3f 8895 bd3c dc71 bdbd 0002 ef3d
000000e0: 3987 243e f487 08bf 436a 8b3d 9aa2 ffbd
000000f0: dee2 88be b845 1e3f 5c59 c7be 453c 113f
00000100: 39f9 113f bf18 ba3e f3af 90be 366d 97be
00000110: ecae 93be 369d a53e 50ef a9be 4dcf eb3e
00000120: c578 8f3e 7de3 9fbe 77b3 f5bd 47f3 8bbd
00000130: eea2 2d3f 9ad2 3b3f a41c f8be a052 00bf
00000140: 391d 51be ac9f a4be 86eb 083f 215a d9be
00000150: 83f4 94be fa91 3d3c 74a9 77be 917c c7be
00000160: 8a80 3b3e a8ba 03bf e0cb c83e fb05 ef3b
00000170: 3c25 92bd a84f a33e 4181 7abe 9c00 24be
00000180: dcaa 60bd 6656 3b3f a8d4 abbd cd88 a6be
00000190: be3f d3be 8641 fdbe ab00 6a3e 7b66 4dbf
000001a0: 1e2b d9be cb17 fc3e 6b4b 5cbe e229 243f
000001b0: a046 2c3e 2a7d bc3e ba59 073f 1766 9fbe
000001c0: 0b9e 2f3e ad86 fe3e 3707 a3bd a43a 763d
000001d0: d8e0 52be 46a7 b5be daf3 173f 9177 bdbe
000001e0: 0ecf 94be 82f1 bdbe e1e8 b9be d349 1a3f
000001f0: 7768 91be bb03 263f e13f 63be e7b1 c13e

linear2.weight f4 [3, 128]
-0.46115553 -0.11915629 0.06723909 -0.0010956997 0.25120944 0.48729223 -0.16525745 -0.031324256
-1.5676078 0.51794684 0.5215619 0.60650134 -0.78793037 0.449104 0.30342358 0.32197776
-1.1198394 0.66328764 0.040585116 0.2143624 -0.01248519 -1.5699456 0.34089428 0.023845589
0.52690583 0.40834075 -0.8119907 0.31925806 0.4832348 -0.1185008 -0.104392104 0.038953505
-0.80138016 -0.007407415 -0.048293635 -0.6904709 -0.20607314 -0.15733162 0.13616762 0.6240833
-0.19745347 -0.40595996 0.05596157 0.7584052 0.58927417 0.35210252 0.42721048 -0.41651827
-0.13061923 0.14282393 -0.8051086 -0.030093089 0.37967697 0.08531175 -0.24724263 -0.28043795
0.7025345 0.026825868 0.111701116 0.016589426 -0.16375542 0.152404 0.0117923645 0.06776681
0.20704839 0.37652883 -0.40748549 -0.05700533 -0.055161443 0.011286802 -0.06647122 0.2891689
0.32214424 -0.6272794 -0.17418058 0.18289074 0.5852591 0.35816902 -0.12733325 -0.07626336
0.11068953 0.008288544 -0.014161613 -0.4962018 -0.033352613 0.0035430586 -1.0834796 -0.2813045
0.3719928 -0.3931116 0.43586266 0.079837516 0.22506043 0.5676999 0.075361066 -0.24826255
0.12349586 0.2537064 0.24664947 -0.02587781 -0.28746054 -0.10240406 -0.17914033 -0.24486147
0.00066795765 0.58527815 0.028574035 0.5432483 0.36675316 0.42807344 0.41446584 -0.77129704
0.06897024 0.55189955 0.021990025 0.11754554 0.055276163 -1.0903264 0.21965595 -0.18605897
-0.15024443 -0.039201766 -0.28096578 0.030138649 -0.019485567 0.293319 0.1290635 0.22011453
-0.10185481 0.006074432 0.27952477 -0.897534 0.35067657 0.31161442 0.23861814 0.3358864
0.38287392 -1.4878497 -0.64449066 0.54239446 0.6493147 -0.037575923 -0.06058637 0.56205505
0.30679545 -0.03451118 0.16663654 0.43571094 0.26450312 0.35180405 -1.3488657 -0.17670394
0.5498694 0.007873516 0.14080748 0.49108613 0.70814216 0.034750614 0.12687297 0.23581612
0.035725344 0.28069597 -0.7007275 0.24018945 -0.0436566 -0.1428093 -0.26463088 0.15263173
-0.038867913 0.2233273 -0.14259693 -1.7479737 -0.90224606 0.102918 0.104509726 -0.2873563
-0.15894945 -0.2925351 -0.045596965 0.09477736 0.41026175 0.23471624 -0.51270705 0.50813496
0.30615276 -0.2158905 -0.1552307 -0.04169196 -0.34182253 0.5412982 -0.48371702 0.5172453
0.5900671 0.27366075 0.13350676 0.060210414 0.019338505 0.115647495 -0.31514904 0.29342633
-0.479123 0.31733063 0.13795392 0.16311805 0.19612937 0.1083241 -0.15571372 -0.058927353
-1.4616609 0.08581941 0.40146783 0.17971918 0.018976077 -0.0037718553 -0.8274402 -0.54836446
0.10577908 -0.1539864 0.81683004 0.22017512 -0.23576486 0.29398656 0.044286087 0.025401186
0.357649 0.4176734 -1.0432284 0.0006456077 0.109521165 0.11515343 0.19570011 -0.4051371
-0.03029495 0.47147563 0.043144457 0.6242702 0.47704726 0.09165327 0.25507015 -0.060808938
0.1879085 0.0019016427 -0.12909628 -0.052181974 -0.005907111 0.4403931 0.6215165 -0.10213417
0.039263528 -0.17030677 0.318588 0.5629633 -0.31476837 0.48533684 -0.7655935 0.11792054
00000000: 941c ecbe 3708 f4bd a6b4 893d 959d 8fba
00000010: 869e 803e 5e7e f93e 4039 29be dd4d 00bd
00000020: 5fa7 c8bf 2a98 043f 1585 053f ac43 1b3f
00000030: ceb5 49bf f6f0 e53e 565a 9b3e 45da a43e
00000040: e656 8fbf 38cd 293f 943c 263d d181 5b3e
00000050: af8e 4cbc faf3 c8bf b289 ae3e d357 c33c
00000060: 4de3 063f 0a12 d13e 9fde 4fbf cb75 a33e
00000070: 8d6a f73e 8cb0 f2bd 87cb d5bd b68d 1f3d
00000080: 4027 4dbf e7b9 f2bb 8ccf 45bd b3c2 30bf
00000090: d604 53be 8a1b 21be 866f 0b3e ecc3 1f3f
000000a0: 3e31 4abe fcd9 cfbe f637 653d d826 423f
000000b0: acda 163f c846 b43e 55bb da3e e241 d5be
000000c0: 0cc1 05be 7040 123e 991b 4ebf c885 f6bc
000000d0: 0565 c23e edb7 ae3d 2c2d 7dbe 9095 8fbe
000000e0: 4dd9 333f ecc1 db3c 8ec3 e43d 8ce6 873c
000000f0: 80af 27be cb0f 1c3e c334 413c 53c9 8a3d
00000100: 7e04 543e 63c8 c03e f0a1 d0be 6c7e 69bd
00000110: f7f0 61bd 47ec 383c 1022 88bd f20d 943e
00000120: 17f0 a43e 6295 20bf 655c 32be b647 3b3e
00000130: 8ad3 153f ee61 b73e a663 02be f72f 9cbd
00000140: 31b1 e23d accc 073c 1c06 68bc 2a0e febe
00000150: c09c 08bd a932 683b 76af 8abf 2507 90be
00000160: d775 be3e ec45 c9be 6429 df3e da81 a33d
00000170: 3e76 663e c854 113f e756 9a3d 8a38 7ebe
00000180: 66eb fc3d cee5 813e ae91 7c3e b3fd d3bc
00000190: 072e 93be 38b9 d1bd 9070 37be f7bc 7abe
000001a0: e119 2f3a cad4 153f 1814 ea3c 5212 0b3f
000001b0: 12c7 bb3e 712c db3e de34 d43e b973 45bf
000001c0: 4540 8d3d 4a49 0d3f 6d24 b43c b7bb f03d
000001d0: 4269 623d d18f 8bbf 7ded 603e 3e86 3ebe
000001e0: add9 19be 0892 20bd bfda 8fbe 54e5 f63c
000001f0: 32a0 9fbc e82d 963e 3929 043e b465 613e
00000200: 4199 d0bd 070c c73b df1d 8f3e cac4 65bf
00000210: e18b b33e ed8b 9f3e 5058 743e 4df9 ab3e
00000220: 0d08 c43e dc71 bebf 57fd 24bf 5dda 0a3f
00000230: 7d39 263f 36e9 19bd 6a29 78bd d7e2 0f3f
00000240: 4b14 9d3e 985b 0dbd c5a2 2a3e 8115 df3e
00000250: f46c 873e a91f b43e a2a7 acbf e1f1 34be
00000260: 3ec4 0c3f ebff 003c d62f 103e a46f fb3e
00000270: ce48 353f a956 0e3d fdea 013e c879 713e
00000280: bd54 123d 62b7 8f3e e162 33bf 39f4 753e
00000290: 43d1 32bd 9a3c 12be b37d 87be 7e4b 1c3e
000002a0: f633 1fbd e9af 643e ee04 12be 9abd dfbf
000002b0: 99f9 66bf acc6 d23d 3209 d63d 5d20 93be
000002c0: a5c3 22be 29c7 95be e2c3 3abd a21a c23d
000002d0: d40d d23e 7459 703e c540 03bf 2215 023f
000002e0: 0ec0 9c3e 6612 5dbe ccf4 1ebe 30c5 2abd
000002f0: 5d03 afbe 8592 0a3f c2a9 f7be 306a 043f
00000300: a30e 173f 431d 8c3e ffb5 083e 329f 763d
00000310: c96b 9e3c 98d8 ec3d 375b a1be fa3b 963e
00000320: 9c4f f5be 2979 a23e cb43 0d3e 6b08 273e
00000330: 23d6 483e 07d9 dd3d 6b73 1fbe cf5d 71bd
00000340: b417 bbbf 16c2 af3d 318d cd3e 4e08 383e
00000350: b873 9b3c 3b31 77bb 1fd3 53bf 9d61 0cbf
00000360: b4a2 d83d 9cae 1dbe c61b 513f 9675 613e
00000370: 586c 71be 6885 963e 5465 353d 2616 d03c
00000380: c51d b73e 4ad9 d53e 8288 85bf 003e 293a
00000390: a24c e03d 90d5 eb3d 9c65 483e 216e cfbe
000003a0: 1d2d f8bc 4165 f13e 3eb8 303d 2cd0 1f3f
000003b0: 8a3f f43e b6b4 bb3d 8e98 823e cb12 79bd
000003c0: 166b 403e 8a40 f93a d131 04be c4bc 55bd
000003d0: 7090 c1bb 347b e13e b51b 1f3f b82b d1bd
000003e0: cbd2 203d e664 2ebe f71d a33e 5d1e 103f
000003f0: 5229 a1be 127e f83e f0fd 43bf 5380 f13d

linear2.bias f4 [3]
0.25741205 0.29385608 0.23967186
00000000: 83cb 833e 4e74 963e 8a6c 753e
