models/last_model_state.pth (torch, 10359 bytes, 4 tensors)

linear1.weight f4 [128, 11]
00000000: 1e9b 04be 9a90 9cbe c1bc 133f 9e92 2f3e
00000010: 04af ea3e 2e88 543e ca5d 19bd 253d 81bd
00000020: f36a 893d 283e c03e 08af 083e 8778 e13e
00000030: 2439 afbe ba8d 043f d7fe 5a3e 69ee 073e
00000040: 5aab ffba b83b 243e 3b9d b53d 99bb 1dbd
00000050: 9d0e 1b3e 31d6 843e 4a52 ef3e 534b 223f
00000060: 52d6 05bf 1d55 d9bd 668e 35be f100 0bbe
00000070: 1caf 27bc 5af5 0b3e 5fc1 403e eb67 9a3d
00000080: 24a8 1c3d b7c5 1d3f edac f2be 47dc 92be
00000090: eae2 363e a177 9c3e 0a92 773d a700 ab3d
000000a0: 10e5 8dbc 1476 7cbb 3726 f9bc 6854 583e
000000b0: 81e4 2c3f a92a bd3e 226c ddbe 4fea bc3d
000000c0: 3729 073e 0c78 853e 2763 7fbd 06fa 333e
000000d0: 8eb0 883e 0d5e bd3d 2b29 843e d63c 29be
000000e0: 7eba da3e 2cf8 bebd f12f 4abe 7f69 a6bd
000000f0: 0253 32be 2971 bd3d 55d2 08be 065f 56be
00000100: 9aac a23d 9dc0 a5bc 687f 383f c8c0 7f3d
00000110: 81c3 213f 5d56 3dbe 927a d3bd c54e 553e
00000120: e353 843e c214 933e c102 0fbd 0085 1e3e
00000130: 0f67 a33d a2f3 323f d149 e13e c513 053f
00000140: 79b0 fa3d 531b 8f3e c82a 853e 9f35 533e
00000150: ee65 a7bd 9a44 7b3e 682f f33d 38a1 3ebd
00000160: e51f fdbe 8624 ce3e 02c1 893e 7579 12be
00000170: fbf1 2fbd 7bee dcbd 76e6 e43a 2faa ae3d
00000180: 3d7a 483d f801 6d3e 2d27 a23e f98c 1a3f
00000190: 1bee 9f3d e39f 2b3f 6df0 2b3e 2d1a 7f3c
000001a0: b1e2 4e3e fd04 2b3e 0783 843e 4d0d 14be
000001b0: 1b6c 233e 18f2 403e d236 0cbf be63 c7bd
000001c0: 2e28 213f d6d0 08bd 827e 79bc 53e2 b43d
000001d0: aa68 e8bd 13b7 523e 5346 3d3e e2e1 6c3e
000001e0: 74da 973e 1031 77be 302b 96be 6f53 c3be
000001f0: caa7 a73e ff68 42be d089 bbbc 6dfd 70be
00000200: 3d6e cd3e ae2c 1abe 5694 6a3d 54e7 2e3b
00000210: 186c 563e 19ed 243f 23ea c9be aa15 3d3d
00000220: 719b b33d e71a 673e 93c1 353e d02c b2bd
00000230: 5d72 88bd bab0 063e 0bd3 653e f0ce 533d
00000240: 73b8 883e c856 7a3e f9a0 ee3d 2068 66be
00000250: fef0 dfbd e058 1cbc a60e 31bc 69cb 93be
00000260: 25be fcbd 2ba2 d6bd ab55 6d3e f538 5c3d
00000270: 9794 593d 4bec 7a3d ccfe 4ebd 4730 853d
00000280: 2db0 b3be 845d 463e c0aa c6bc 36f5 a1be
00000290: 8f25 87be e861 ccbe 511f 27bd a67a 6fbc
000002a0: 0fcc 91bc ff77 5cbd de01 243e 6e87 c43e
000002b0: 54a6 a73e 4c78 68be 203a 79be 863d 043e
000002c0: 519b 1b3f 6318 ed3e b47d bc3e a2f2 243e
000002d0: 5591 db3d 658c 5c3d 3c3b 343e 0eef 693e
000002e0: 7db0 fe3d b3e5 d73d 00ca d73e 2a48 09bf
000002f0: af2b 1c3f 3ede 21bf e4d9 4d3e 37b1 f63d
00000300: 5d4b a0bd 33fe 4c3e dee2 833d 853d 713e
00000310: c484 283e b1e4 913e 8bf4 99be ca3a 96be
00000320: 21c9 203f 449a 273e 31ff d2bd 46a8 863d
00000330: d212 10be ceac ebbd 7126 a1bd 9e7f 443e
00000340: edd6 113e bab3 abbe f382 a13c 80a2 9ebe
00000350: abac 8c3e 49f9 92be 9226 83be 752e 7bbe
00000360: 9bfb 933e 2894 3c3e 36fc b7bd 3a5d eabd
00000370: f545 8bbe 1114 973e ad16 c73e 896d 37bd
00000380: 688d b53d 6f76 2bbd eb43 c2be 8414 f83d
00000390: 3c03 b53d 902f 893d c431 56be 49b5 dfbe
000003a0: 2654 e93e 434e 0cbf e8d9 113c 35cf 233e
000003b0: 02ea 573e 84f0 503e 3d4c fb3d d6dc 2a3e
000003c0: 06bd 61be d4ab eabd 6730 9b3e f816 db3e
000003d0: b2e5 633e 6ac2 533d 8d6a 44be 5dbd 4abd
000003e0: 07f9 3fbe f828 a63e 3e8d c2ba b951 68bd
000003f0: 39d5 a83e 6a6c 323f 2da0 f2be bd58 3b3f
-0.12949798 -0.30579072 0.5770989 0.17145774 0.4583665 0.20755073 -0.03744296 -0.063104905
0.06709852 0.3754742 0.13348019 0.44037268 -0.34223282 0.5177876 0.21386276 0.1327454
-0.0019506023 0.16038406 0.0886788 -0.038508985 0.15142293 0.25944665 0.4674247 0.63396186
-0.5228015 -0.10611937 -0.17730102 -0.13574578 -0.01023462 0.13667813 0.18823765 0.07539352
0.03824629 0.61629814 -0.47397557 -0.28683683 0.17859998 0.3056002 0.060442008 0.08349734
-0.01732114 -0.0038522528 -0.03041373 0.21125948 0.6753617 0.3694661 -0.4324656 0.09224378
0.13199316 0.2606815 -0.06235042 0.17575845 0.266972 0.092464544 0.2581266 -0.16527113
0.42720407 -0.09324679 -0.1974485 -0.081255905 -0.17414477 0.09250099 -0.13361485 -0.20934686
0.079430774 -0.020233447 0.72069407 0.06243971 0.6318894 -0.18489976 -0.10326113 0.2083083
0.2584525 0.28726774 -0.034914736 0.15480423 0.07978641 0.69903004 0.4400163 0.5198329
0.12240691 0.27950534 0.26009202 0.20625924 -0.081737384 0.24537888 0.118742764 -0.04654047
-0.49438396 0.4026224 0.26905066 -0.14304145 -0.04295538 -0.10787674 0.0017463702 0.08528554
0.0489447 0.23145282 0.31670514 0.6037136 0.07809087 0.6704084 0.16790934 0.015570206
0.20203663 0.16701122 0.25881216 -0.14458199 0.15959208 0.18842351 -0.5477115 -0.09735821
0.62951934 -0.033402286 -0.015227916 0.088322304 -0.11348088 0.2057765 0.18483858 0.23133042
0.29658854 -0.2413981 -0.29329824 -0.38149592 0.327452 -0.18985365 -0.022892863 -0.23534174
0.40123168 -0.15056106 0.05727037 0.0026688175 0.20939672 0.6442428 -0.39436445 0.04616324
0.087698825 0.22568856 0.17749624 -0.086999536 -0.06662438 0.13153353 0.22443788 0.051711023
0.26703224 0.24447167 0.11651797 -0.22500658 -0.109346375 -0.009542674 -0.010806715 -0.28866127
-0.12340955 -0.1048015 0.23177211 0.053765256 0.053120222 0.061260503 -0.050535962 0.06503349
-0.3509535 0.19371611 -0.024251342 -0.31632394 -0.26395842 -0.39918447 -0.04080135 -0.014616644
-0.017797498 -0.053825375 0.16016337 0.38384575 0.32744086 -0.2270214 -0.24338579 0.12914094
0.6078387 0.46307668 0.36814654 0.16108182 0.10721079 0.05384483 0.17600721 0.22845098
0.12436006 0.105418585 0.421463 -0.5362574 0.61004156 -0.6322974 0.2010265 0.1204552
-0.078268744 0.20018844 0.06439756 0.23558624 0.16456896 0.2849479 -0.30069384 -0.29341727
0.628069 0.16367441 -0.1030258 0.06575064 -0.1406968 -0.11507569 -0.0786866 0.19189307
0.14242144 -0.33535558 0.019715762 -0.30983353 0.27475485 -0.28705814 -0.25615364 -0.2452944
0.28902897 0.18415892 -0.08983652 -0.11443563 -0.2720181 0.29507497 0.38884488 -0.044782195
0.08864862 -0.041860994 -0.37942442 0.12113288 0.088385075 0.06698525 -0.20917422 -0.43692997
0.45572013 -0.5480692 0.008902051 0.15997012 0.2108536 0.2040425 0.12270401 0.16685805
-0.22044763 -0.11458555 0.30310366 0.4279096 0.2225559 0.05169908 -0.19181271 -0.049496997
-0.1874734 0.32453132 -0.0014843119 -0.05671856 0.32975176 0.69696677 -0.4738783 0.7318228

linear1.bias f4 [128]
00000000: 2e39 1fbe 7a90 8e3d b2ec d33e f391 443e
00000010: 7aff 2bbd 4f90 3c3e 827b ad3d 5832 fd3c
00000020: a74d 833e 0d6d 623e eb89 f83d c3b6 0a3d
00000030: 1700 1a3e 2844 84be d903 03bb 101d f8bd
00000040: 0eb4 543d 7562 2b3e 2ecd da3e ff87 3cbe
00000050: 75c9 c43e 1f8d c53e 9492 0d3e 4e7b 9abc
00000060: f308 213e 43e0 58bc 4d58 353e 2294 703e
00000070: 4f9b 8fbe 0626 b53e 7588 8b3e d7ae 7a3e
00000080: 9cf5 403e a1d5 04bd 94dc 01bd f05c 3cbe
00000090: f707 f73c f776 4e3e fb4e 063e 3b53 883e
000000a0: 8385 75bd 036a 0f3b f97e 283e d91b 55be
000000b0: ab2e 9ebe 226a 593e b4bb b5be d6a9 68bd
000000c0: d17a 6bbe cd2f 913e e936 593d d70a 563b
000000d0: 1d3a 4bbe 1662 6ebd 6d5f ab3e 5399 273e
000000e0: c65f 983d e19a 953c 78da b23e 88cb 8a3e
000000f0: 8ff5 2fbe 6276 173e 80b2 ac3c fcae 3a3e
00000100: abf3 783d ec10 f9bd a3c3 edbd fe17 e53c
00000110: 22d3 0d3e cafd 393e 899f ab3e 0a25 cdbd
00000120: d721 883d 9c5c 543e 3872 673e 4b28 633e
00000130: 2ea5 8c3e 3b03 943d c7e1 86bd 0cab 31bd
00000140: d643 c2bd be11 663e c5ad 353e a40c 1d3e
00000150: 041d 483d 214d 963d e3b5 aebd 8bf1 30bd
00000160: 3d7c 0d3e 4b19 993e 9f67 d6bc 96ed c03d
00000170: 5f3c 81be bee9 453e 8a4f 28bc ecfa 3d3e
00000180: 50b1 7a3e 21e5 b1bd 924a 603d 5ae8 e13d
00000190: 431d 863e 0482 c53d 5e8f ac3e 18b8 813e
000001a0: b1f5 9f3d ec14 c0be 1691 883d 0fc7 573e
000001b0: 8922 6b3e 2003 febd 1ae4 803e 0217 db3e
000001c0: 2f34 aebe 41b3 acbd 05e3 fdbb c1e0 063d
000001d0: 53b8 193e 80ec 343e 2cfd 99bd 8de0 873e
000001e0: b65d 1bbd b0cc 7f3d f54e a13e 0ac1 6f3e
000001f0: fda9 9c3e 1938 a53e 502d a33e 520f 55be
-0.15549156 0.069611505 0.41391522 0.191963 -0.04199169 0.18414424 0.08470823 0.030907795
0.25645182 0.22111912 0.12135681 0.0338657 0.15039097 -0.2583325 -0.0019991307 -0.12114918
0.051929526 0.16736777 0.42734665 -0.18411253 0.3843495 0.3858423 0.13825446 -0.018857624
0.1572607 -0.013237062 0.17709465 0.23494008 -0.2804818 0.35380572 0.27252546 0.24480759
0.18843693 -0.032430295 -0.0317045 -0.18394828 0.030155165 0.20162569 0.13116066 0.26626
-0.05994178 0.0021883256 0.16454686 -0.20811404 -0.3089498 0.21231893 -0.3549477 -0.056802593
-0.2299607 0.28356782 0.053030882 0.003266027 -0.19846387 -0.05819901 0.33471242 0.16367082
0.07440142 0.018262329 0.34932303 0.27108407 -0.17183517 0.14791253 0.02108121 0.18230814
0.060779255 -0.12161431 -0.1160958 0.027965542 0.13850072 0.18163219 0.33520153 -0.1001683
0.066470794 0.20738453 0.22602165 0.2218334 0.27469772 0.07227179 -0.06586032 -0.043376014
-0.09485595 0.22467706 0.17742069 0.15336853 0.048855796 0.0733893 -0.08530786 -0.043199103
0.13816924 0.2990211 -0.026172457 0.09420316 -0.25241372 0.19327447 -0.01027287 0.1855275
0.24481702 -0.08686281 0.054758616 0.11030646 0.261942 0.09643939 0.3370313 0.25335765
0.07810534 -0.37515962 0.06668298 0.21072029 0.22962393 -0.1240294 0.25174028 0.4279099
-0.34024188 -0.084326275 -0.00774801 0.032929186 0.1501172 0.17668343 -0.07518992 0.26538506
-0.037931167 0.062451065 0.31505552 0.23413482 0.3059844 0.32269362 0.31870508 -0.20806625

linear2.weight f4 [3, 128]
00000000: 6140 363e ab98 50be 207d 26be 1857 75be
00000010: 5fb3 94be 2f42 c83c ab50 88be ee47 93be
00000020: d9ea 883e e5bb 2cbe f31b f63e 904e 7b3e
00000030: d691 50bd ad7a de3d 5665 6fbc fdbb d03e
00000040: e2db 49be 5b64 d23e 0eb8 f93d 8c07 9d3e
00000050: d866 823e 7c5b 823e fdf4 53be fea5 86be
00000060: 47a5 88be abae 013e db7b b53e 8563 f33d
00000070: 5eb3 3c3d 1e6d 55bc 931d b53e aad6 49bd
00000080: ee95 91be 4cdf 49be bcaa b6be 57b0 413e
00000090: 74a1 44be 8317 ce3d 6014 83be fa8a cc3e
000000a0: 0faa 2cbe d8f3 38be b64b 72be 8342 1abe
000000b0: 7246 abbd 6290 99bc 0bef 11bd a8b2 4fbe
000000c0: e77a 193d faec ce3e 233d dc3e 86d2 f7bc
000000d0: 00b1 81b9 838d 1dbd b828 12bc 509f 15be
000000e0: edc7 83be 36e5 18be 42ff ed3e 130c 88be
000000f0: a41f 0cbe bb6c 10bd 0e0a 49bd 1df7 8e3d
00000100: 8556 9bbe 7fe8 69be 7f86 7cbe e849 bebd
00000110: 71b3 223e 8041 483c 327e 0fbe 6f87 93bd
00000120: 566e 08be beb2 88be ff89 f4bd 4a94 d13e
00000130: 1eff 2ebe c1c2 683d 0c49 c53e ee60 133f
00000140: 0957 76be f7c9 57be 81e7 94be 4994 48be
00000150: 9335 d2bd e2b9 6bbe b367 38be a7cd 153e
00000160: 8a21 82be b338 803e 8342 8ebe 7b75 11be
00000170: 7cd5 cd3c 6257 5dbe db29 0e3f 65a3 d43e
00000180: 076e 053f f900 60be 0d86 3ebe be62 8d3e
00000190: 8c6d c43e efcf 8cbd 3ab0 283e 859f 4c3e
000001a0: ce38 a3be a140 f7bc d255 98be d6f8 f93c
000001b0: 1959 403e 12b8 dbbc 0c63 913e 96a7 5e3e
000001c0: e80b c0bb 3da7 8cbe 3560 8e3e d3a8 823c
000001d0: 4a8e a33e 816a bcbd 53cd ff3c b92b d83d
000001e0: b083 8fbe a152 3cbe 025a 083f e530 ab3e
000001f0: 1a32 66be bc46 ca3b f780 a93e 2ff3 b3bc
00000200: 85a5 093e d6ad ec3d 1581 8ebe 98f8 8b3e
00000210: 66ae 68be a31d 51be 4cd7 e5bc 4adb 1cbe
00000220: a6ed 3ebe 4aca fbbc b16b 2b3d 18a8 db3d
00000230: 23ee 94be c6d3 d13c 598e 6ebc 06bf 1c3d
00000240: afb5 00be 64b4 94be 2803 833e 3fed 763d
00000250: cd10 f3bd 5dbc 5cbe 3ec0 40be ec84 3a3e
00000260: 3bd1 5fbe 5964 003d 4aaa 7f3e 1b1f d2bd
00000270: c2a4 773d 8fbf a73e b60a 98be 4c28 3ebe
00000280: 9756 213e 27ae 58be ade2 063e b452 86bd
00000290: e1b6 89be fccc 49be d6b2 53be 99c6 b23e
000002a0: 7d4c d43d 3dbd d93c 5138 95be 84e1 97be
000002b0: e6fe 1d3d 24fa 08bd 3284 c8bc f438 d43d
000002c0: 0062 c139 d567 d8bd d36e 26be 5273 aebd
000002d0: de8f 183d 14e1 3cbd c50d 6fbc e537 753e
000002e0: 896f 44be 2c1d 963e 0a5d 9a3d 790d 1c3d
000002f0: d252 b7bd c9ef 39be 4452 c6bd 8546 993d
00000300: a447 4c3f 9eaa 75be 1e9c 1d3e e9ae 063f
00000310: 9bb3 683e 8a64 99bd 5fa6 7f3e 5a00 a5be
00000320: 36a9 76be 50ea ae3e 6ded 5d3e 6753 d03e
00000330: b44a c83e ccb0 11be 97fe 4b3e 0d80 fa3e
00000340: 969b 903e c4d8 b13b c49f f9bd 7ed1 03be
00000350: f3fb 40be 669f db3e e1ed c13d 1d79 acbd
00000360: 9050 42be 1891 70be 4d43 6e3e 9407 93be
00000370: 52f6 a2bd 2643 393c 046a 13be 140f 05be
00000380: a8bf 73be 8607 873e 9a3a 65be 78fc 913e
00000390: 6fbd d53e 7638 3c3d 3604 49be c866 5ebd
000003a0: c61d 31be 7a52 b3bc 61b2 0d3d 0c14 ab3d
000003b0: 5ae4 f5bd e706 1a3e af73 08be 2ea9 f63e
000003c0: 17b4 cbbc a613 7d3e 3761 3bbe 1c56 bd3e
000003d0: 1fae 883c 0b79 1e3e 1e0a 6bbe f52a 79bd
000003e0: 7268 9b3e 4931 d1bd 3933 8d3e a94d f03d
000003f0: a349 43be 6059 1ebe a399 89be e0ee dd3b
0.17797996 -0.20370738 -0.16258669 -0.23959005 -0.290431 0.024445621 -0.26624045 -0.28765815
0.26741675 -0.16868551 0.480682 0.24541688 -0.05092033 0.10863242 -0.014611563 0.40768424
-0.19712785 0.4109219 0.12193309 0.3066982 0.2546909 0.25460422 -0.20698924 -0.26298517
-0.26688597 0.12664287 0.35446057 0.11884216 0.046069495 -0.013026504 0.35374126 -0.049276985
-0.284347 -0.19714087 -0.35677135 0.18914925 -0.19202214 0.10063078 -0.25601482 0.3994978
-0.16861747 -0.18061769 -0.23661694 -0.15064435 -0.08363046 -0.018745605 -0.03562836 -0.20282996
0.037470724 0.40415174 0.43015394 -0.030251753 -0.00024736673 -0.038465034 -0.008920841 -0.14611554
-0.2573847 -0.14931187 0.4648381 -0.26571712 -0.13683945 -0.035259943 -0.049081855 0.06980727
-0.30339447 -0.22842596 -0.24660681 -0.0929144 0.15888764 0.012222648 -0.14012983 -0.07203566
-0.1332334 -0.2669887 -0.11940383 0.40933448 -0.17089507 0.056826357 0.38532293 0.5756978
-0.24056639 -0.21073137 -0.29082873 -0.19587816 -0.10264125 -0.23020127 -0.18008308 0.14629231
-0.25416213 0.25043258 -0.2778512 -0.14204971 0.025126211 -0.21615365 0.55532616 0.4153091
0.52121013 -0.21875371 -0.18605824 0.27614397 0.38364828 -0.06875598 0.16473475 0.19982727
-0.31879276 -0.030182185 -0.29752976 0.030514162 0.18783988 -0.02682117 0.2839588 0.21743616
-0.0058607943 -0.27471343 0.27807775 0.015949642 0.31944495 -0.092000015 0.031225836 0.105552144
-0.28030157 -0.18390895 0.5326234 0.3343574 -0.2248005 0.006172983 0.33106205 -0.021966545
0.13442047 0.11556594 -0.27832857 0.273381 -0.22722778 -0.20421462 -0.028056763 -0.15318027
-0.18645343 -0.030736107 0.04185075 0.10725421 -0.29087934 0.025613677 -0.0145603055 0.03826811
-0.12569307 -0.29043877 0.25588346 0.06028485 -0.11868439 -0.2155623 -0.18823335 0.18214768
-0.21857159 0.0313457 0.24967304 -0.10259839 0.06045986 0.32763335 -0.29695672 -0.1857006
0.15755688 -0.21160184 0.13172407 -0.06558743 -0.26897338 -0.19707102 -0.20673689 0.34917143
0.103661515 0.026579494 -0.29144529 -0.29664242 0.03857317 -0.033441678 -0.024477098 0.103624254
0.00036884844 -0.105666794 -0.16253214 -0.08518089 0.037246577 -0.04611309 -0.014590685 0.23947103
-0.19183172 0.2931913 0.07537277 0.038098786 -0.089513436 -0.18157877 -0.0968366 0.07484154
0.79796815 -0.23990867 0.15391585 0.5261064 0.22724764 -0.074898794 0.2496581 -0.3222683
-0.24087986 0.3416314 0.21672602 0.4068863 0.39119494 -0.14227599 0.19921337 0.4892582
0.28243703 0.005427452 -0.12188676 -0.12872884 -0.18846111 0.4289505 0.094692 -0.08421538
-0.18976045 -0.23492849 0.2326786 -0.2871672 -0.07957138 0.011307513 -0.1439591 -0.12994033
-0.2380358 0.26372927 -0.22385636 0.2851293 0.4174609 0.045952283 -0.19630513 -0.05429724
-0.17296514 -0.021889914 0.034593944 0.08353433 -0.12006445 0.15041696 -0.1332538 0.4817595
-0.024866147 0.24714527 -0.18298803 0.3697976 0.01668459 0.15475862 -0.22953078 -0.060831983
0.30353123 -0.102144785 0.27578142 0.117335625 -0.19071059 -0.15463781 -0.26875028 0.006772861

linear2.bias f4 [3]
00000000: ef5b 5bbd bec2 aebd ede8 04be
-0.05355447 -0.08533238 -0.12979479
