models/last_model_state.pth (torch, 14263 bytes, 44 tensors)

linear1.weight f4 [128, 11]
-0.124553785 0.13925539 0.34148014 -0.10423277 0.18810232 -0.42697304 -0.3532 0.0684045
-0.25446287 -0.3011528 -0.46644843 0.5204192 -0.25260404 -0.671065 0.17894317 0.4439764
-0.15973769 0.28213573 -0.07443496 -0.2147767 0.16752505 -0.35250467 -0.08392595 -0.07103454
0.31711224 0.85571533 0.80420953 -0.80350214 -1.194162 0.6985274 0.72687393 -0.9993947
-0.9687632 0.020480024 0.6078398 -1.2563766 -0.2202248 -0.14120358 -0.30061886 -0.3755844
-0.64968985 -0.63294154 -0.3273912 -0.35634664 -0.3686212 1.0919521 0.6656355 -0.64783686
0.2124932 -0.45460826 -0.82816696 -0.7439678 -0.46871144 0.13787921 -0.05243686 -0.3843905
0.40011227 -0.16150814 -1.1769121 0.27308708 -0.29518327 -0.8942902 -1.3085625 -0.4801583
0.19051097 -1.1104283 -0.44125465 -0.8778359 0.0048351893 0.72324497 -0.60091496 0.0631345
-0.21765569 0.07930302 -1.2570856 -0.12409286 -1.0326046 -0.4798376 -0.41054636 0.037511885
0.48720974 0.4849986 0.3036269 0.27535364 -0.41461936 -0.29663667 -0.3972933 -0.29946682
0.3669533 0.7372794 0.3699543 -0.44654894 -0.77291036 -0.5860452 -0.70272446 0.23934783
-0.2630803 0.061239924 0.05034198 0.15848531 1.0269227 -1.0636951 -0.5655466 -0.13200387
-0.27184927 -0.78476393 -0.60810375 -0.4819919 -0.31439087 -1.2775863 -0.66379416 -0.19599076
-0.3413986 0.26965162 0.2020223 0.1645318 0.3496749 -0.06685499 -0.04655401 -0.49925312
-0.3853831 0.0015164316 -0.27814296 -0.046489064 0.061602052 -0.18456121 -0.25886324 -0.07319002
0.0468857 -0.018057518 -0.14786103 -0.28516957 0.26656878 0.4815897 -0.93798625 -0.438141
-0.054609075 -0.32604697 0.0049546757 0.00689704 0.030583382 0.039815597 0.11657699 0.6623628
-0.693455 0.57898 0.06330693 -0.5204459 -0.4462371 -0.002126571 0.23283838 -0.35168117
-0.13576491 -0.02491646 0.28629228 -0.81079626 0.58802336 -0.2666677 -0.045636527 0.25358602
-0.3131175 -0.3404618 -0.47525418 -0.062391523 -0.63004804 0.5337075 -1.5367991 0.3605822
0.12559855 -0.10841007 0.143164 0.08475278 -0.05542396 -0.11021046 -0.108699664 0.024198554
1.2364715 -0.68106306 -0.00049842906 0.84922516 0.3032037 0.26287207 0.94159937 -0.622976
-0.1669614 0.12377997 -0.42915156 -0.41709682 0.119546264 -0.117720276 0.7332121 -1.1062988
0.8131064 -1.2902889 0.8286979 -1.3868715 -2.065492 -1.5620023 -0.50513566 -0.03305093
-0.6168227 0.6303674 0.5049788 0.34349746 0.41222396 -0.14919165 -0.44173378 -0.5426469
-0.24242802 -0.0074204803 -0.2568409 -0.08896345 0.17128405 -0.1324753 -0.19000337 0.18326896
-0.08040945 -0.06989136 -0.18175855 -0.18870112 0.6021146 -0.7593701 0.18146665 0.16521959
-0.37229645 -0.16808732 -0.117609315 -0.004779044 -0.20100988 0.36806363 -0.4076764 0.5970803
0.35499185 -0.16204517 -0.10258859 -0.51131237 0.77146983 0.52730507 0.2948123 0.5979287
-0.9408203 -0.74362 0.37085748 0.256682 -0.67027617 0.013204204 -0.12107846 -0.20888017
-0.4014979 0.09229976 0.18466197 -0.102074385 -0.17511752 0.80945426 0.6334087 -1.1031467
00000000: 0e16 ffbd f798 0e3e 7cd6 ae3e fe77 d5bd
00000010: e59d 403e 369c dabe a1d6 b4be a917 8c3d
00000020: f548 82be b330 9abe 54d2 eebe 313a 053f
00000030: 5155 81be eaca 2bbf e13c 373e e050 e33e
00000040: 4792 23be 1874 903e 5b71 98bd 6cee 5bbe
00000050: b08b 2b3e 7e7b b4be 5ee1 abbd 8f7a 91bd
00000060: 895c a23e 2910 5b3f ade0 4d3f 51b2 4dbf
00000070: 4dda 98bf b1d2 323f 6914 3a3f 55d8 7fbf
00000080: dd00 78bf b9c5 a73c 649b 1b3f f3d0 a0bf
00000090: 9c82 61be ac97 10be b7ea 99be 994c c0be
000000a0: 1352 26bf 7508 22bf d29f a7be 1173 b6be
000000b0: ebbb bcbe 16c5 8b3f 1767 2a3f a3d8 25bf
000000c0: d197 593e 6ac2 e8be c002 54bf ac74 3ebf
000000d0: f2fa efbe 3530 0d3e 08c8 56bd d5ce c4be
000000e0: 84db cc3e 6462 25be 0ea5 96bf 12d2 8b3e
000000f0: 4322 97be 34f0 64bf fa7e a7bf 4fd7 f5be
00000100: 4f15 433e 8422 8ebf 21ec e1be dbb9 60bf
00000110: 8270 9e3b 9526 393f 90d5 19bf a94c 813d
00000120: 22e1 5ebe 9f69 a23d 2ee8 a0bf 6624 febd
00000130: 632c 84bf 46ad f5be 2233 d2be 10a6 193d
00000140: 8e73 f93e bd51 f83e fc74 9b3e 27fb 8c3e
00000150: fd48 d4be c3e0 97be 076a cbbe b753 99be
00000160: 4ee1 bb3e 58be 3c3f a66a bd3e 10a2 e4be
00000170: 74dd 45bf 0f07 16bf c0e5 33bf 9917 753e
00000180: 76b2 86be b7d6 7a3d 6433 4e3d f949 223e
00000190: 3472 833f 2927 88bf a9c7 10bf 062c 07be
000001a0: d42f 8bbe 4ae6 48bf b0ac 1bbf a4c7 f6be
000001b0: d7f7 a0be f387 a3bf 6aee 29bf cdb1 48be
000001c0: cccb aebe c70f 8a3e efde 4e3e 067b 283e
000001d0: 9708 b33e 45eb 88bd 6baf 3ebd 1b9e ffbe
000001e0: ef50 c5be 00c3 c63a c168 8ebe 516b 3ebd
000001f0: 6f52 7c3d 9dfd 3cbe b989 84be a6e4 95bd
00000200: 380b 403d 5ced 93bc e268 17be bf01 92be
00000210: b47b 883e ed92 f63e de1f 70bf 0454 e0be
00000220: c4ad 5fbd a1ef a6be d55a a23b 9100 e23b
00000230: 008a fa3c ae15 233d ebbf ee3d 9c90 293f
00000240: 4486 31bf 0938 143f 10a7 813d f13b 05bf
00000250: 3079 e4be f15d 0bbb 2f6d 6e3e 8e0f b4be
00000260: f505 0bbe 9b1d ccbc e794 923e 5890 4fbf
00000270: b388 163f ab88 88be 5eed 3abd 07d6 813e
00000280: f050 a0be 0251 aebe 8454 f3be 418e 7fbd
00000290: d44a 21bf 0ea1 083f d5b5 c4bf 3b9e b83e
000002a0: e89c 003e 1906 debd 9599 123e de92 ad3d
000002b0: 3c04 63bd 06b6 e1bd ee9d debd 0c3c c63c
000002c0: b344 9e3f 265a 2ebf 02a9 02ba d266 593f
000002d0: 843d 9b3e 2b97 863e a80c 713f 5b7b 1fbf
000002e0: eef7 2abe 5a80 fd3d c1b9 dbbe b78d d5be
000002f0: acd4 f43d 5417 f1bd cab3 3b3f 339b 8dbf
00000300: be27 503f 3028 a5bf 8c25 543f 0185 b1bf
00000310: 0531 04c0 b1ef c7bf 9250 01bf 6960 07bd
00000320: 18e8 1dbf c25f 213f 4a46 013f e6de af3e
00000330: 050f d33e b2c5 18be ee2a e2be e8ea 0abf
00000340: 0d3f 78be 8027 f3bb a780 83be 7832 b6bd
00000350: 1665 2f3e 9ba7 07be 3e90 42be dcaa 3b3e
00000360: b6ad a4bd 3423 8fbd ea1e 3abe de3a 41be
00000370: 2f24 1a3f 1466 42bf 65d2 393e 532f 293e
00000380: a49d bebe 151f 2cbe 27dd f0bd 8799 9cbb
00000390: 89d5 4dbe d672 bc3e f6ba d0be 41da 183f
000003a0: 7ec1 b53e 2bef 25be f719 d2bd 5ee5 02bf
000003b0: 0c7f 453f 77fd 063f a3f1 963e db11 193f
000003c0: 99d9 70bf e15d 3ebf 08e1 bd3e d36b 833e
000003d0: 3897 2bbf 7256 583c fcf7 f7bd afe4 55be
000003e0: 2291 cdbe a807 bd3d 0718 3d3e 600c d1bd
000003f0: 0252 33be 6538 4f3f 1327 223f e933 8dbf

linear1.bias f4 [128]
-0.810438 -0.10638426 0.23412281 -0.12413562 -0.4756634 0.2672323 0.44164002 0.7109613
-0.9202157 0.10412 1.2705874 -0.111294694 -0.9208476 -0.48183694 -0.10178894 -0.70288754
-0.44074032 0.2540173 1.1479104 -0.13169958 -0.52027804 -0.44477758 -0.87048006 -0.23932037
-0.42791757 -0.69288164 -0.2673723 0.9950733 -0.07550227 -0.88340664 0.13060857 0.91476
-0.87454367 -0.39862394 -0.17986822 0.1806173 0.9601144 0.37041733 0.619398 -0.3319508
-0.15737623 -0.34500402 0.5891995 -0.09722732 -0.88893616 -0.7612551 -0.8601231 -0.29439783
-0.48812348 -0.20174995 -0.28425163 -0.8407632 -0.1330102 0.2956817 -0.4851792 0.3303674
0.32460657 0.2784022 -0.5046167 -0.49718827 -0.6004384 0.50406456 -0.3790671 -0.9475116
-0.48893243 -0.2945415 0.067512974 -0.23254925 0.5438182 -0.64876723 -0.47777286 0.5784958
-0.8761814 1.1608531 0.34826297 -0.0079831565 -0.48208588 1.316911 -0.82281053 -0.44712228
-0.17160147 -0.16681366 -0.33240685 -0.7026919 -0.5902077 -0.017792767 -0.9846909 0.0038371668
-0.5725488 -0.25243992 0.2282101 -0.023137199 -0.8047894 -0.028023483 -0.17912346 -0.23094088
0.177907 0.08404789 0.14288983 -0.01768964 -0.6517717 -0.67839456 -1.1101637 -0.73521674
0.7263608 0.71452767 0.06192282 -0.7949995 -0.0943146 0.8094245 0.057004288 -0.5000662
0.4453696 -0.6076078 0.050016273 -0.019775027 -0.22137308 0.0817045 0.8004851 -0.34585103
0.07804453 -0.53982425 -0.37498546 0.597474 0.23475324 0.016448325 -0.14707156 -0.71965814
00000000: dd78 4fbf fedf d9bd e4bd 6f3e d13a febd
00000010: 278a f3be acd2 883e a41e e23e 8f01 363f
00000020: 4293 6bbf de3c d53d 9ca2 a23f 79ee e3bd
00000030: abbc 6bbf 55b3 f6be b876 d0bd 70f0 33bf
00000040: b7a8 e1be 8e0e 823e baee 923f 41dc 06be
00000050: f130 05bf e3b9 e3be c8d7 5ebf 6610 75be
00000060: 0318 dbbe b160 31bf 06e5 88be 20bd 7e3f
00000070: efa0 9abd f026 62bf 41be 053e b62d 6a3f
00000080: 18e2 5fbf 7018 ccbe 602f 38be bef3 383e
00000090: 0fca 753f 57a7 bd3e de90 1e3f 75f5 a9be
000000a0: 3c27 21be 5ea4 b0be c7d5 163f 1e1f c7bd
000000b0: 5291 63bf 9de1 42bf 0731 5cbf 50bb 96be
000000c0: 52eb f9be 8a97 4ebe 6e89 91be 423c 57bf
000000d0: d333 08be 9763 973e 6869 f8be ea25 a93e
000000e0: d532 a63e bc8a 8e3e 8f2e 01bf 768f febe
000000f0: 55b6 19bf 600a 013f 1515 c2be 1f90 72bf
00000100: 5a55 fabe 25ce 96be 3e44 8a3d 6421 6ebe
00000110: ab37 0b3f 9c15 26bf a59e f4be 4d18 143f
00000120: 6d4d 60bf d696 943f 864f b23e c9cb 02bc
00000130: f6d3 f6be 8a90 a83f b6a3 52bf 36ed e4be
00000140: 4cb8 2fbe 33d1 2abe 3b31 aabe 9ee3 33bf
00000150: da17 17bf 23c2 91bc b414 7cbf fa78 7b3b
00000160: 8f92 12bf ce3f 81be e9af 693e 398a bdbc
00000170: ae06 4ebf 8191 e5bc 246c 37be c47b 6cbe
00000180: 412d 363e 4d21 ac3d b651 123e dde9 90bc
00000190: 83da 26bf 44ab 2dbf d819 8ebf 2a37 3cbf
000001a0: c8f2 393f 49eb 363f c8a2 7d3d 1685 4bbf
000001b0: 0328 c1bd 7236 4f3f 547d 693d 5704 00bf
000001c0: 7c07 e43e 2f8c 1bbf dddd 4c3d 3dff a1bc
000001d0: a0af 62be b054 a73d 97ec 4c3f 6313 b1be
000001e0: cfd5 9f3d ec31 0abf 18fe bfbe 0ef4 183f
000001f0: 2763 703e a3be 863c ed99 16be 843b 38bf

linear2.weight f4 [3, 128]
-0.012633344 -0.37635583 0.60881746 0.017724171 0.07940237 0.12591618 0.30765116 0.16460606
0.005286948 0.14237607 0.44180843 -0.04013026 -0.14039418 -0.0023068185 -0.13180737 0.013057399
-1.3161694 0.6903736 0.50081193 0.013809718 0.07190943 -1.2251799 -0.05707644 -0.06876956
0.02505001 0.023564111 0.02057232 0.47239572 0.048038036 -0.15194134 0.09443749 0.40577373
-0.33564088 -0.019380566 0.07447073 0.10148829 0.28043917 0.25654334 0.13221413 -0.093949676
0.0024707227 0.0013625672 0.08816371 -0.027717663 -0.46352014 0.27418488 -0.108011626 -0.8775725
-0.03882412 -0.123084314 0.033883907 -1.3706222 -0.016534833 0.47440347 -0.24037203 0.06774491
0.7384577 0.16903792 -0.23907122 0.0035470852 -0.25481567 0.71605945 -0.465334 -0.25706756
-0.011816887 -0.06872779 0.13884558 -0.6209779 0.115611255 -0.86359316 -0.22763741 0.53845805
-0.043716174 0.40605193 0.543449 0.026172172 -1.419864 0.78514266 -0.12892018 -0.18419412
-0.68171775 0.016390048 0.026942767 -0.017335162 -0.027693465 0.049333423 -0.5360247 0.11228103
-0.16463049 0.011733948 0.11135101 -0.7246401 -0.5034617 -0.2877485 0.012767542 0.07278992
0.06938066 -0.6937181 0.1400881 -0.053396363 -0.060673464 -1.2194633 -0.56277317 -0.13450575
0.8435392 0.09192034 0.1426632 -0.031734087 0.23228024 0.18396255 -0.20910145 -0.02224556
-0.08207211 -0.76708055 0.083671845 -0.12369635 -1.6953146 0.0024775644 0.5924414 -0.0097498065
0.26831138 -0.891289 0.28475392 0.10155251 0.64288306 0.05984297 -0.5428924 -0.6826433
-0.01694373 0.23906738 -1.3657855 -0.2061516 -1.455345 -0.4963363 0.6342363 0.3631872
-0.080996625 -0.8963167 0.6078784 0.005602031 -0.2207932 0.25212586 0.057734042 0.042796697
0.26765436 -0.4172258 0.5971818 0.08022509 0.14036034 0.54215574 -0.08927082 -0.66454846
-1.1440449 -0.0060168533 -0.3327924 0.50330806 0.035963256 -0.020556884 -0.7755861 0.6549164
0.18451987 -0.47661433 0.3982583 -0.92138445 0.08088923 -0.11681719 0.08776832 -0.04699909
-1.473498 0.012883309 0.38152587 -1.5629567 0.08340947 0.1334882 0.14322513 0.51347804
-0.39258927 0.047535904 -0.04575551 0.12211804 0.044543836 0.09856272 0.10468931 -0.0245408
-1.6524731 -1.0689108 -0.9962093 -1.6836251 0.15648684 -0.5033636 0.20575461 -0.8056831
0.014521992 0.065618955 -0.9302181 0.5863663 0.40573877 -0.03725123 0.24748413 0.5332269
-0.10806323 0.5172691 1.0373979 -2.0463495 0.42762405 0.8366728 -0.14319758 0.4214599
0.3001091 0.017554365 0.018319864 -0.42237836 0.007849811 -0.87570506 0.10726608 -0.9532846
0.26373675 -0.6662189 0.36665672 -0.35970396 -0.050229296 -0.0123773115 0.23972549 -1.443217
-0.73626655 0.49796832 0.2749741 0.13131866 -0.45447323 0.10641444 0.010723824 -1.002581
0.063913174 0.1644727 -0.030323753 0.019410867 -0.7085613 0.27356797 0.34025872 0.24620534
0.45570582 0.16261296 0.23371856 0.08867725 0.15486242 -0.09315485 0.25895056 -0.024906626
0.6713718 0.107843906 -0.21495129 0.2938317 1.1585952 -0.0068185525 0.2915713 0.06969474
00000000: 16fc 4ebc b6b1 c0be 76db 1b3f 4832 913c
00000010: b69d a23d 2cf0 003e 7484 9d3e 7e8e 283e
00000020: 223e ad3b 08cb 113e b734 e23e a15f 24bd
00000030: 7ec3 0fbe fe2d 17bb 83f8 06be b3ee 553c
00000040: 3d78 a8bf 53bc 303f 3635 003f 2842 623c
00000050: 4045 933d b2d2 9cbf fcc8 69bd 0ed7 8cbd
00000060: ae35 cd3c 8609 c13c 4887 a83c dadd f13e
00000070: 88c3 443d 8396 1bbe 7168 c13d 93c1 cf3e
00000080: 1fd9 abbe fec3 9ebc 1c84 983d 18d9 cf3d
00000090: b995 8f3e a659 833e 2463 073e b068 c0bd
000000a0: d9eb 213b 2b98 b23a 2d8f b43d 2710 e3bc
000000b0: 8352 edbe f661 8c3e 3335 ddbd 97a8 60bf
000000c0: 0a06 1fbd a113 fcbd dac9 0a3d 8c70 afbf
000000d0: 0f74 87bc 03e5 f23e 1624 76be d8bd 8a3d
000000e0: 900b 3d3f 4718 2d3e 16cf 74be 3776 683b
000000f0: 3377 82be ac4f 373f 4240 eebe 5c9e 83be
00000100: 9e9b 41bc 28c1 8cbd 892d 0e3e 68f8 1ebf
00000110: 98c5 ec3d 7114 5dbf c819 69be 63d8 093f
00000120: bb0f 33bd 0ae6 cf3e 791f 0b3f 0667 d63c
00000130: 1bbe b5bf 1cff 483f a703 04be 629d 3cbe
00000140: 0e85 2ebf 6c44 863c 14b7 dc3c 7802 8ebc
00000150: 68dd e2bc d811 4a3d ea38 09bf 99f3 e53d
00000160: e594 28be bf3f 403c 000c e43d 0382 39bf
00000170: dee2 00bf c553 93be f42e 513c e212 953d
00000180: 7317 8e3d 8297 31bf 4173 0f3e 25b6 5abd
00000190: bd84 78bd 6017 9cbf e711 10bf e0bb 09be
000001a0: 2ff2 573f bb40 bc3d 4d16 123e 9afb 01bd
000001b0: dfda 6d3e ae60 3c3e b11e 56be 523c b6bc
000001c0: 6c15 a8bd 645f 44bf 255c ab3d 8354 fdbd
000001d0: 1200 d9bf a25e 223b 3daa 173f a7bd 1fbc
000001e0: 1c60 893e 842b 64bf 44cb 913e c3fa cf3d
000001f0: fc93 243f e71d 753d fffa 0abf b6c1 2ebf
00000200: 94cd 8abc 14ce 743e 0fd2 aebf 6819 53be
00000210: bf48 babf cb1f febe 4f5d 223f acf3 b93e
00000220: 8fe1 a5bd 0375 65bf eb9d 1b3f 3e91 b73b
00000230: 9d17 62be a416 813e 887a 6c3d 974b 2f3d
00000240: fe09 893e 9f9e d5be e8e0 183f 0d4d a43d
00000250: 9fba 0f3e b8ca 0a3f 9fd3 b6bd d91f 2abf
00000260: 1070 92bf 0629 c5bb c463 aabe ccd8 003f
00000270: 354e 133d e966 a8bc d08c 46bf 9aa8 273f
00000280: c7f2 3c3e cb06 f4be 83e8 cb3e dadf 6bbf
00000290: 41a9 a53d da3d efbd e1bf b33d 1e82 40bd
000002a0: 959b bcbf 8414 533c 5c57 c33e f70e c8bf
000002b0: 96d2 aa3d 21b1 083e 9ca9 123e 4c73 033f
000002c0: 7601 c9be 02b5 423d 216a 3bbd 0619 fa3d
000002d0: 9973 363d 40db c93d 5967 d63d ca09 c9bc
000002e0: 3d84 d3bf 12d2 88bf 9307 7fbf 0781 d7bf
000002f0: 163e 203e 70dc 00bf 56b1 523e 3f41 4ebf
00000300: a6ed 6d3c 3b63 863d c622 6ebf 1a1c 163f
00000310: febc cf3e bf94 18bd 7b6c 7d3e 8f81 083f
00000320: 4150 ddbd bf6b 043f 74c9 843f 64f7 02c0
00000330: 8af1 da3e 3030 563f 63a2 12be 98c9 d73e
00000340: e6a7 993e 2cce 8f3c 8a13 963c fa41 d8be
00000350: 7e9c 003c 352e 60bf 52ae db3d 760a 74bf
00000360: 8108 873e 528d 2abf 6eba bb3e 1e2b b8be
00000370: 3cbd 4dbd 35ca 4abc 997a 753e 56bb b8bf
00000380: f77b 3cbf b4f5 fe3e 68c9 8c3e 6678 063e
00000390: b7b0 e8be d0ef d93d fab2 2f3c 9354 80bf
000003a0: e9e4 823d 886b 283e 8569 f8bc 8a03 9f3c
000003b0: 4664 35bf 1a11 8c3e 6436 ae3e 411d 7c3e
000003c0: 4652 e93e 0384 263e eb53 6f3e 6b9c b53d
000003d0: 4194 1e3e f8c7 bebd 2b95 843e fb08 ccbc
000003e0: 06df 2b3f 44dd dc3d 311c 5cbe 1c71 963e
000003f0: d94c 943f 2a6e dfbb d548 953e 1ebc 8e3d

linear2.bias f4 [3]
0.66048086 0.33154395 0.47299573
00000000: 4615 293f 21c0 a93e 7f2c f23e

linear1.weight f4 [128, 11]
-0.124553785 0.13925539 0.34148014 -0.10423277 0.18810232 -0.42697304 -0.3532 0.0684045
-0.25446287 -0.3011528 -0.46644843 0.5204192 -0.25260404 -0.671065 0.17894317 0.4439764
-0.15973769 0.28213573 -0.07443496 -0.2147767 0.16752505 -0.35250467 -0.08392595 -0.07103454
0.31711224 0.85571533 0.80420953 -0.80350214 -1.194162 0.6985274 0.72687393 -0.9993947
-0.9687632 0.020480024 0.6078398 -1.2563766 -0.2202248 -0.14120358 -0.30061886 -0.3755844
-0.64968985 -0.63294154 -0.3273912 -0.35634664 -0.3686212 1.0919521 0.6656355 -0.64783686
0.2124932 -0.45460826 -0.82816696 -0.7439678 -0.46871144 0.13787921 -0.05243686 -0.3843905
0.40011227 -0.16150814 -1.1769121 0.27308708 -0.29518327 -0.8942902 -1.3085625 -0.4801583
0.19051097 -1.1104283 -0.44125465 -0.8778359 0.0048351893 0.72324497 -0.60091496 0.0631345
-0.21765569 0.07930302 -1.2570856 -0.12409286 -1.0326046 -0.4798376 -0.41054636 0.037511885
0.48720974 0.4849986 0.3036269 0.27535364 -0.41461936 -0.29663667 -0.3972933 -0.29946682
0.3669533 0.7372794 0.3699543 -0.44654894 -0.77291036 -0.5860452 -0.70272446 0.23934783
-0.2630803 0.061239924 0.05034198 0.15848531 1.0269227 -1.0636951 -0.5655466 -0.13200387
-0.27184927 -0.78476393 -0.60810375 -0.4819919 -0.31439087 -1.2775863 -0.66379416 -0.19599076
-0.3413986 0.26965162 0.2020223 0.1645318 0.3496749 -0.06685499 -0.04655401 -0.49925312
-0.3853831 0.0015164316 -0.27814296 -0.046489064 0.061602052 -0.18456121 -0.25886324 -0.07319002
0.0468857 -0.018057518 -0.14786103 -0.28516957 0.26656878 0.4815897 -0.93798625 -0.438141
-0.054609075 -0.32604697 0.0049546757 0.00689704 0.030583382 0.039815597 0.11657699 0.6623628
-0.693455 0.57898 0.06330693 -0.5204459 -0.4462371 -0.002126571 0.23283838 -0.35168117
-0.13576491 -0.02491646 0.28629228 -0.81079626 0.58802336 -0.2666677 -0.045636527 0.25358602
-0.3131175 -0.3404618 -0.47525418 -0.062391523 -0.63004804 0.5337075 -1.5367991 0.3605822
0.12559855 -0.10841007 0.143164 0.08475278 -0.05542396 -0.11021046 -0.108699664 0.024198554
1.2364715 -0.68106306 -0.00049842906 0.84922516 0.3032037 0.26287207 0.94159937 -0.622976
-0.1669614 0.12377997 -0.42915156 -0.41709682 0.119546264 -0.117720276 0.7332121 -1.1062988
0.8131064 -1.2902889 0.8286979 -1.3868715 -2.065492 -1.5620023 -0.50513566 -0.03305093
-0.6168227 0.6303674 0.5049788 0.34349746 0.41222396 -0.14919165 -0.44173378 -0.5426469
-0.24242802 -0.0074204803 -0.2568409 -0.08896345 0.17128405 -0.1324753 -0.19000337 0.18326896
-0.08040945 -0.06989136 -0.18175855 -0.18870112 0.6021146 -0.7593701 0.18146665 0.16521959
-0.37229645 -0.16808732 -0.117609315 -0.004779044 -0.20100988 0.36806363 -0.4076764 0.5970803
0.35499185 -0.16204517 -0.10258859 -0.51131237 0.77146983 0.52730507 0.2948123 0.5979287
-0.9408203 -0.74362 0.37085748 0.256682 -0.67027617 0.013204204 -0.12107846 -0.20888017
-0.4014979 0.09229976 0.18466197 -0.102074385 -0.17511752 0.80945426 0.6334087 -1.1031467
00000000: 0e16 ffbd f798 0e3e 7cd6 ae3e fe77 d5bd
00000010: e59d 403e 369c dabe a1d6 b4be a917 8c3d
00000020: f548 82be b330 9abe 54d2 eebe 313a 053f
00000030: 5155 81be eaca 2bbf e13c 373e e050 e33e
00000040: 4792 23be 1874 903e 5b71 98bd 6cee 5bbe
00000050: b08b 2b3e 7e7b b4be 5ee1 abbd 8f7a 91bd
00000060: 895c a23e 2910 5b3f ade0 4d3f 51b2 4dbf
00000070: 4dda 98bf b1d2 323f 6914 3a3f 55d8 7fbf
00000080: dd00 78bf b9c5 a73c 649b 1b3f f3d0 a0bf
00000090: 9c82 61be ac97 10be b7ea 99be 994c c0be
000000a0: 1352 26bf 7508 22bf d29f a7be 1173 b6be
000000b0: ebbb bcbe 16c5 8b3f 1767 2a3f a3d8 25bf
000000c0: d197 593e 6ac2 e8be c002 54bf ac74 3ebf
000000d0: f2fa efbe 3530 0d3e 08c8 56bd d5ce c4be
000000e0: 84db cc3e 6462 25be 0ea5 96bf 12d2 8b3e
000000f0: 4322 97be 34f0 64bf fa7e a7bf 4fd7 f5be
00000100: 4f15 433e 8422 8ebf 21ec e1be dbb9 60bf
00000110: 8270 9e3b 9526 393f 90d5 19bf a94c 813d
00000120: 22e1 5ebe 9f69 a23d 2ee8 a0bf 6624 febd
00000130: 632c 84bf 46ad f5be 2233 d2be 10a6 193d
00000140: 8e73 f93e bd51 f83e fc74 9b3e 27fb 8c3e
00000150: fd48 d4be c3e0 97be 076a cbbe b753 99be
00000160: 4ee1 bb3e 58be 3c3f a66a bd3e 10a2 e4be
00000170: 74dd 45bf 0f07 16bf c0e5 33bf 9917 753e
00000180: 76b2 86be b7d6 7a3d 6433 4e3d f949 223e
00000190: 3472 833f 2927 88bf a9c7 10bf 062c 07be
000001a0: d42f 8bbe 4ae6 48bf b0ac 1bbf a4c7 f6be
000001b0: d7f7 a0be f387 a3bf 6aee 29bf cdb1 48be
000001c0: cccb aebe c70f 8a3e efde 4e3e 067b 283e
000001d0: 9708 b33e 45eb 88bd 6baf 3ebd 1b9e ffbe
000001e0: ef50 c5be 00c3 c63a c168 8ebe 516b 3ebd
000001f0: 6f52 7c3d 9dfd 3cbe b989 84be a6e4 95bd
00000200: 380b 403d 5ced 93bc e268 17be bf01 92be
00000210: b47b 883e ed92 f63e de1f 70bf 0454 e0be
00000220: c4ad 5fbd a1ef a6be d55a a23b 9100 e23b
00000230: 008a fa3c ae15 233d ebbf ee3d 9c90 293f
00000240: 4486 31bf 0938 143f 10a7 813d f13b 05bf
00000250: 3079 e4be f15d 0bbb 2f6d 6e3e 8e0f b4be
00000260: f505 0bbe 9b1d ccbc e794 923e 5890 4fbf
00000270: b388 163f ab88 88be 5eed 3abd 07d6 813e
00000280: f050 a0be 0251 aebe 8454 f3be 418e 7fbd
00000290: d44a 21bf 0ea1 083f d5b5 c4bf 3b9e b83e
000002a0: e89c 003e 1906 debd 9599 123e de92 ad3d
000002b0: 3c04 63bd 06b6 e1bd ee9d debd 0c3c c63c
000002c0: b344 9e3f 265a 2ebf 02a9 02ba d266 593f
000002d0: 843d 9b3e 2b97 863e a80c 713f 5b7b 1fbf
000002e0: eef7 2abe 5a80 fd3d c1b9 dbbe b78d d5be
000002f0: acd4 f43d 5417 f1bd cab3 3b3f 339b 8dbf
00000300: be27 503f 3028 a5bf 8c25 543f 0185 b1bf
00000310: 0531 04c0 b1ef c7bf 9250 01bf 6960 07bd
00000320: 18e8 1dbf c25f 213f 4a46 013f e6de af3e
00000330: 050f d33e b2c5 18be ee2a e2be e8ea 0abf
00000340: 0d3f 78be 8027 f3bb a780 83be 7832 b6bd
00000350: 1665 2f3e 9ba7 07be 3e90 42be dcaa 3b3e
00000360: b6ad a4bd 3423 8fbd ea1e 3abe de3a 41be
00000370: 2f24 1a3f 1466 42bf 65d2 393e 532f 293e
00000380: a49d bebe 151f 2cbe 27dd f0bd 8799 9cbb
00000390: 89d5 4dbe d672 bc3e f6ba d0be 41da 183f
000003a0: 7ec1 b53e 2bef 25be f719 d2bd 5ee5 02bf
000003b0: 0c7f 453f 77fd 063f a3f1 963e db11 193f
000003c0: 99d9 70bf e15d 3ebf 08e1 bd3e d36b 833e
000003d0: 3897 2bbf 7256 583c fcf7 f7bd afe4 55be
000003e0: 2291 cdbe a807 bd3d 0718 3d3e 600c d1bd
000003f0: 0252 33be 6538 4f3f 1327 223f e933 8dbf

linear1.bias f4 [128]
-0.810438 -0.10638426 0.23412281 -0.12413562 -0.4756634 0.2672323 0.44164002 0.7109613
-0.9202157 0.10412 1.2705874 -0.111294694 -0.9208476 -0.48183694 -0.10178894 -0.70288754
-0.44074032 0.2540173 1.1479104 -0.13169958 -0.52027804 -0.44477758 -0.87048006 -0.23932037
-0.42791757 -0.69288164 -0.2673723 0.9950733 -0.07550227 -0.88340664 0.13060857 0.91476
-0.87454367 -0.39862394 -0.17986822 0.1806173 0.9601144 0.37041733 0.619398 -0.3319508
-0.15737623 -0.34500402 0.5891995 -0.09722732 -0.88893616 -0.7612551 -0.8601231 -0.29439783
-0.48812348 -0.20174995 -0.28425163 -0.8407632 -0.1330102 0.2956817 -0.4851792 0.3303674
0.32460657 0.2784022 -0.5046167 -0.49718827 -0.6004384 0.50406456 -0.3790671 -0.9475116
-0.48893243 -0.2945415 0.067512974 -0.23254925 0.5438182 -0.64876723 -0.47777286 0.5784958
-0.8761814 1.1608531 0.34826297 -0.0079831565 -0.48208588 1.316911 -0.82281053 -0.44712228
-0.17160147 -0.16681366 -0.33240685 -0.7026919 -0.5902077 -0.017792767 -0.9846909 0.0038371668
-0.5725488 -0.25243992 0.2282101 -0.023137199 -0.8047894 -0.028023483 -0.17912346 -0.23094088
0.177907 0.08404789 0.14288983 -0.01768964 -0.6517717 -0.67839456 -1.1101637 -0.73521674
0.7263608 0.71452767 0.06192282 -0.7949995 -0.0943146 0.8094245 0.057004288 -0.5000662
0.4453696 -0.6076078 0.050016273 -0.019775027 -0.22137308 0.0817045 0.8004851 -0.34585103
0.07804453 -0.53982425 -0.37498546 0.597474 0.23475324 0.016448325 -0.14707156 -0.71965814
00000000: dd78 4fbf fedf d9bd e4bd 6f3e d13a febd
00000010: 278a f3be acd2 883e a41e e23e 8f01 363f
00000020: 4293 6bbf de3c d53d 9ca2 a23f 79ee e3bd
00000030: abbc 6bbf 55b3 f6be b876 d0bd 70f0 33bf
00000040: b7a8 e1be 8e0e 823e baee 923f 41dc 06be
00000050: f130 05bf e3b9 e3be c8d7 5ebf 6610 75be
00000060: 0318 dbbe b160 31bf 06e5 88be 20bd 7e3f
00000070: efa0 9abd f026 62bf 41be 053e b62d 6a3f
00000080: 18e2 5fbf 7018 ccbe 602f 38be bef3 383e
00000090: 0fca 753f 57a7 bd3e de90 1e3f 75f5 a9be
000000a0: 3c27 21be 5ea4 b0be c7d5 163f 1e1f c7bd
000000b0: 5291 63bf 9de1 42bf 0731 5cbf 50bb 96be
000000c0: 52eb f9be 8a97 4ebe 6e89 91be 423c 57bf
000000d0: d333 08be 9763 973e 6869 f8be ea25 a93e
000000e0: d532 a63e bc8a 8e3e 8f2e 01bf 768f febe
000000f0: 55b6 19bf 600a 013f 1515 c2be 1f90 72bf
00000100: 5a55 fabe 25ce 96be 3e44 8a3d 6421 6ebe
00000110: ab37 0b3f 9c15 26bf a59e f4be 4d18 143f
00000120: 6d4d 60bf d696 943f 864f b23e c9cb 02bc
00000130: f6d3 f6be 8a90 a83f b6a3 52bf 36ed e4be
00000140: 4cb8 2fbe 33d1 2abe 3b31 aabe 9ee3 33bf
00000150: da17 17bf 23c2 91bc b414 7cbf fa78 7b3b
00000160: 8f92 12bf ce3f 81be e9af 693e 398a bdbc
00000170: ae06 4ebf 8191 e5bc 246c 37be c47b 6cbe
00000180: 412d 363e 4d21 ac3d b651 123e dde9 90bc
00000190: 83da 26bf 44ab 2dbf d819 8ebf 2a37 3cbf
000001a0: c8f2 393f 49eb 363f c8a2 7d3d 1685 4bbf
000001b0: 0328 c1bd 7236 4f3f 547d 693d 5704 00bf
000001c0: 7c07 e43e 2f8c 1bbf dddd 4c3d 3dff a1bc
000001d0: a0af 62be b054 a73d 97ec 4c3f 6313 b1be
000001e0: cfd5 9f3d ec31 0abf 18fe bfbe 0ef4 183f
000001f0: 2763 703e a3be 863c ed99 16be 843b 38bf

linear2.weight f4 [3, 128]
-0.012633344 -0.37635583 0.60881746 0.017724171 0.07940237 0.12591618 0.30765116 0.16460606
0.005286948 0.14237607 0.44180843 -0.04013026 -0.14039418 -0.0023068185 -0.13180737 0.013057399
-1.3161694 0.6903736 0.50081193 0.013809718 0.07190943 -1.2251799 -0.05707644 -0.06876956
0.02505001 0.023564111 0.02057232 0.47239572 0.048038036 -0.15194134 0.09443749 0.40577373
-0.33564088 -0.019380566 0.07447073 0.10148829 0.28043917 0.25654334 0.13221413 -0.093949676
0.0024707227 0.0013625672 0.08816371 -0.027717663 -0.46352014 0.27418488 -0.108011626 -0.8775725
-0.03882412 -0.123084314 0.033883907 -1.3706222 -0.016534833 0.47440347 -0.24037203 0.06774491
0.7384577 0.16903792 -0.23907122 0.0035470852 -0.25481567 0.71605945 -0.465334 -0.25706756
-0.011816887 -0.06872779 0.13884558 -0.6209779 0.115611255 -0.86359316 -0.22763741 0.53845805
-0.043716174 0.40605193 0.543449 0.026172172 -1.419864 0.78514266 -0.12892018 -0.18419412
-0.68171775 0.016390048 0.026942767 -0.017335162 -0.027693465 0.049333423 -0.5360247 0.11228103
-0.16463049 0.011733948 0.11135101 -0.7246401 -0.5034617 -0.2877485 0.012767542 0.07278992
0.06938066 -0.6937181 0.1400881 -0.053396363 -0.060673464 -1.2194633 -0.56277317 -0.13450575
0.8435392 0.09192034 0.1426632 -0.031734087 0.23228024 0.18396255 -0.20910145 -0.02224556
-0.08207211 -0.76708055 0.083671845 -0.12369635 -1.6953146 0.0024775644 0.5924414 -0.0097498065
0.26831138 -0.891289 0.28475392 0.10155251 0.64288306 0.05984297 -0.5428924 -0.6826433
-0.01694373 0.23906738 -1.3657855 -0.2061516 -1.455345 -0.4963363 0.6342363 0.3631872
-0.080996625 -0.8963167 0.6078784 0.005602031 -0.2207932 0.25212586 0.057734042 0.042796697
0.26765436 -0.4172258 0.5971818 0.08022509 0.14036034 0.54215574 -0.08927082 -0.66454846
-1.1440449 -0.0060168533 -0.3327924 0.50330806 0.035963256 -0.020556884 -0.7755861 0.6549164
0.18451987 -0.47661433 0.3982583 -0.92138445 0.08088923 -0.11681719 0.08776832 -0.04699909
-1.473498 0.012883309 0.38152587 -1.5629567 0.08340947 0.1334882 0.14322513 0.51347804
-0.39258927 0.047535904 -0.04575551 0.12211804 0.044543836 0.09856272 0.10468931 -0.0245408
-1.6524731 -1.0689108 -0.9962093 -1.6836251 0.15648684 -0.5033636 0.20575461 -0.8056831
0.014521992 0.065618955 -0.9302181 0.5863663 0.40573877 -0.03725123 0.24748413 0.5332269
-0.10806323 0.5172691 1.0373979 -2.0463495 0.42762405 0.8366728 -0.14319758 0.4214599
0.3001091 0.017554365 0.018319864 -0.42237836 0.007849811 -0.87570506 0.10726608 -0.9532846
0.26373675 -0.6662189 0.36665672 -0.35970396 -0.050229296 -0.0123773115 0.23972549 -1.443217
-0.73626655 0.49796832 0.2749741 0.13131866 -0.45447323 0.10641444 0.010723824 -1.002581
0.063913174 0.1644727 -0.030323753 0.019410867 -0.7085613 0.27356797 0.34025872 0.24620534
0.45570582 0.16261296 0.23371856 0.08867725 0.15486242 -0.09315485 0.25895056 -0.024906626
0.6713718 0.107843906 -0.21495129 0.2938317 1.1585952 -0.0068185525 0.2915713 0.06969474
00000000: 16fc 4ebc b6b1 c0be 76db 1b3f 4832 913c
00000010: b69d a23d 2cf0 003e 7484 9d3e 7e8e 283e
00000020: 223e ad3b 08cb 113e b734 e23e a15f 24bd
00000030: 7ec3 0fbe fe2d 17bb 83f8 06be b3ee 553c
00000040: 3d78 a8bf 53bc 303f 3635 003f 2842 623c
00000050: 4045 933d b2d2 9cbf fcc8 69bd 0ed7 8cbd
00000060: ae35 cd3c 8609 c13c 4887 a83c dadd f13e
00000070: 88c3 443d 8396 1bbe 7168 c13d 93c1 cf3e
00000080: 1fd9 abbe fec3 9ebc 1c84 983d 18d9 cf3d
00000090: b995 8f3e a659 833e 2463 073e b068 c0bd
000000a0: d9eb 213b 2b98 b23a 2d8f b43d 2710 e3bc
000000b0: 8352 edbe f661 8c3e 3335 ddbd 97a8 60bf
000000c0: 0a06 1fbd a113 fcbd dac9 0a3d 8c70 afbf
000000d0: 0f74 87bc 03e5 f23e 1624 76be d8bd 8a3d
000000e0: 900b 3d3f 4718 2d3e 16cf 74be 3776 683b
000000f0: 3377 82be ac4f 373f 4240 eebe 5c9e 83be
00000100: 9e9b 41bc 28c1 8cbd 892d 0e3e 68f8 1ebf
00000110: 98c5 ec3d 7114 5dbf c819 69be 63d8 093f
00000120: bb0f 33bd 0ae6 cf3e 791f 0b3f 0667 d63c
00000130: 1bbe b5bf 1cff 483f a703 04be 629d 3cbe
00000140: 0e85 2ebf 6c44 863c 14b7 dc3c 7802 8ebc
00000150: 68dd e2bc d811 4a3d ea38 09bf 99f3 e53d
00000160: e594 28be bf3f 403c 000c e43d 0382 39bf
00000170: dee2 00bf c553 93be f42e 513c e212 953d
00000180: 7317 8e3d 8297 31bf 4173 0f3e 25b6 5abd
00000190: bd84 78bd 6017 9cbf e711 10bf e0bb 09be
000001a0: 2ff2 573f bb40 bc3d 4d16 123e 9afb 01bd
000001b0: dfda 6d3e ae60 3c3e b11e 56be 523c b6bc
000001c0: 6c15 a8bd 645f 44bf 255c ab3d 8354 fdbd
000001d0: 1200 d9bf a25e 223b 3daa 173f a7bd 1fbc
000001e0: 1c60 893e 842b 64bf 44cb 913e c3fa cf3d
000001f0: fc93 243f e71d 753d fffa 0abf b6c1 2ebf
00000200: 94cd 8abc 14ce 743e 0fd2 aebf 6819 53be
00000210: bf48 babf cb1f febe 4f5d 223f acf3 b93e
00000220: 8fe1 a5bd 0375 65bf eb9d 1b3f 3e91 b73b
00000230: 9d17 62be a416 813e 887a 6c3d 974b 2f3d
00000240: fe09 893e 9f9e d5be e8e0 183f 0d4d a43d
00000250: 9fba 0f3e b8ca 0a3f 9fd3 b6bd d91f 2abf
00000260: 1070 92bf 0629 c5bb c463 aabe ccd8 003f
00000270: 354e 133d e966 a8bc d08c 46bf 9aa8 273f
00000280: c7f2 3c3e cb06 f4be 83e8 cb3e dadf 6bbf
00000290: 41a9 a53d da3d efbd e1bf b33d 1e82 40bd
000002a0: 959b bcbf 8414 533c 5c57 c33e f70e c8bf
000002b0: 96d2 aa3d 21b1 083e 9ca9 123e 4c73 033f
000002c0: 7601 c9be 02b5 423d 216a 3bbd 0619 fa3d
000002d0: 9973 363d 40db c93d 5967 d63d ca09 c9bc
000002e0: 3d84 d3bf 12d2 88bf 9307 7fbf 0781 d7bf
000002f0: 163e 203e 70dc 00bf 56b1 523e 3f41 4ebf
00000300: a6ed 6d3c 3b63 863d c622 6ebf 1a1c 163f
00000310: febc cf3e bf94 18bd 7b6c 7d3e 8f81 083f
00000320: 4150 ddbd bf6b 043f 74c9 843f 64f7 02c0
00000330: 8af1 da3e 3030 563f 63a2 12be 98c9 d73e
00000340: e6a7 993e 2cce 8f3c 8a13 963c fa41 d8be
00000350: 7e9c 003c 352e 60bf 52ae db3d 760a 74bf
00000360: 8108 873e 528d 2abf 6eba bb3e 1e2b b8be
00000370: 3cbd 4dbd 35ca 4abc 997a 753e 56bb b8bf
00000380: f77b 3cbf b4f5 fe3e 68c9 8c3e 6678 063e
00000390: b7b0 e8be d0ef d93d fab2 2f3c 9354 80bf
000003a0: e9e4 823d 886b 283e 8569 f8bc 8a03 9f3c
000003b0: 4664 35bf 1a11 8c3e 6436 ae3e 411d 7c3e
000003c0: 4652 e93e 0384 263e eb53 6f3e 6b9c b53d
000003d0: 4194 1e3e f8c7 bebd 2b95 843e fb08 ccbc
000003e0: 06df 2b3f 44dd dc3d 311c 5cbe 1c71 963e
000003f0: d94c 943f 2a6e dfbb d548 953e 1ebc 8e3d

linear2.bias f4 [3]
0.66048086 0.33154395 0.47299573
00000000: 4615 293f 21c0 a93e 7f2c f23e

linear1.weight f4 [128, 11]
-0.124553785 0.13925539 0.34148014 -0.10423277 0.18810232 -0.42697304 -0.3532 0.0684045
-0.25446287 -0.3011528 -0.46644843 0.5204192 -0.25260404 -0.671065 0.17894317 0.4439764
-0.15973769 0.28213573 -0.07443496 -0.2147767 0.16752505 -0.35250467 -0.08392595 -0.07103454
0.31711224 0.85571533 0.80420953 -0.80350214 -1.194162 0.6985274 0.72687393 -0.9993947
-0.9687632 0.020480024 0.6078398 -1.2563766 -0.2202248 -0.14120358 -0.30061886 -0.3755844
-0.64968985 -0.63294154 -0.3273912 -0.35634664 -0.3686212 1.0919521 0.6656355 -0.64783686
0.2124932 -0.45460826 -0.82816696 -0.7439678 -0.46871144 0.13787921 -0.05243686 -0.3843905
0.40011227 -0.16150814 -1.1769121 0.27308708 -0.29518327 -0.8942902 -1.3085625 -0.4801583
0.19051097 -1.1104283 -0.44125465 -0.8778359 0.0048351893 0.72324497 -0.60091496 0.0631345
-0.21765569 0.07930302 -1.2570856 -0.12409286 -1.0326046 -0.4798376 -0.41054636 0.037511885
0.48720974 0.4849986 0.3036269 0.27535364 -0.41461936 -0.29663667 -0.3972933 -0.29946682
0.3669533 0.7372794 0.3699543 -0.44654894 -0.77291036 -0.5860452 -0.70272446 0.23934783
-0.2630803 0.061239924 0.05034198 0.15848531 1.0269227 -1.0636951 -0.5655466 -0.13200387
-0.27184927 -0.78476393 -0.60810375 -0.4819919 -0.31439087 -1.2775863 -0.66379416 -0.19599076
-0.3413986 0.26965162 0.2020223 0.1645318 0.3496749 -0.06685499 -0.04655401 -0.49925312
-0.3853831 0.0015164316 -0.27814296 -0.046489064 0.061602052 -0.18456121 -0.25886324 -0.07319002
0.0468857 -0.018057518 -0.14786103 -0.28516957 0.26656878 0.4815897 -0.93798625 -0.438141
-0.054609075 -0.32604697 0.0049546757 0.00689704 0.030583382 0.039815597 0.11657699 0.6623628
-0.693455 0.57898 0.06330693 -0.5204459 -0.4462371 -0.002126571 0.23283838 -0.35168117
-0.13576491 -0.02491646 0.28629228 -0.81079626 0.58802336 -0.2666677 -0.045636527 0.25358602
-0.3131175 -0.3404618 -0.47525418 -0.062391523 -0.63004804 0.5337075 -1.5367991 0.3605822
0.12559855 -0.10841007 0.143164 0.08475278 -0.05542396 -0.11021046 -0.108699664 0.024198554
1.2364715 -0.68106306 -0.00049842906 0.84922516 0.3032037 0.26287207 0.94159937 -0.622976
-0.1669614 0.12377997 -0.42915156 -0.41709682 0.119546264 -0.117720276 0.7332121 -1.1062988
0.8131064 -1.2902889 0.8286979 -1.3868715 -2.065492 -1.5620023 -0.50513566 -0.03305093
-0.6168227 0.6303674 0.5049788 0.34349746 0.41222396 -0.14919165 -0.44173378 -0.5426469
-0.24242802 -0.0074204803 -0.2568409 -0.08896345 0.17128405 -0.1324753 -0.19000337 0.18326896
-0.08040945 -0.06989136 -0.18175855 -0.18870112 0.6021146 -0.7593701 0.18146665 0.16521959
-0.37229645 -0.16808732 -0.117609315 -0.004779044 -0.20100988 0.36806363 -0.4076764 0.5970803
0.35499185 -0.16204517 -0.10258859 -0.51131237 0.77146983 0.52730507 0.2948123 0.5979287
-0.9408203 -0.74362 0.37085748 0.256682 -0.67027617 0.013204204 -0.12107846 -0.20888017
-0.4014979 0.09229976 0.18466197 -0.102074385 -0.17511752 0.80945426 0.6334087 -1.1031467
00000000: 0e16 ffbd f798 0e3e 7cd6 ae3e fe77 d5bd
00000010: e59d 403e 369c dabe a1d6 b4be a917 8c3d
00000020: f548 82be b330 9abe 54d2 eebe 313a 053f
00000030: 5155 81be eaca 2bbf e13c 373e e050 e33e
00000040: 4792 23be 1874 903e 5b71 98bd 6cee 5bbe
00000050: b08b 2b3e 7e7b b4be 5ee1 abbd 8f7a 91bd
00000060: 895c a23e 2910 5b3f ade0 4d3f 51b2 4dbf
00000070: 4dda 98bf b1d2 323f 6914 3a3f 55d8 7fbf
00000080: dd00 78bf b9c5 a73c 649b 1b3f f3d0 a0bf
00000090: 9c82 61be ac97 10be b7ea 99be 994c c0be
000000a0: 1352 26bf 7508 22bf d29f a7be 1173 b6be
000000b0: ebbb bcbe 16c5 8b3f 1767 2a3f a3d8 25bf
000000c0: d197 593e 6ac2 e8be c002 54bf ac74 3ebf
000000d0: f2fa efbe 3530 0d3e 08c8 56bd d5ce c4be
000000e0: 84db cc3e 6462 25be 0ea5 96bf 12d2 8b3e
000000f0: 4322 97be 34f0 64bf fa7e a7bf 4fd7 f5be
00000100: 4f15 433e 8422 8ebf 21ec e1be dbb9 60bf
00000110: 8270 9e3b 9526 393f 90d5 19bf a94c 813d
00000120: 22e1 5ebe 9f69 a23d 2ee8 a0bf 6624 febd
00000130: 632c 84bf 46ad f5be 2233 d2be 10a6 193d
00000140: 8e73 f93e bd51 f83e fc74 9b3e 27fb 8c3e
00000150: fd48 d4be c3e0 97be 076a cbbe b753 99be
00000160: 4ee1 bb3e 58be 3c3f a66a bd3e 10a2 e4be
00000170: 74dd 45bf 0f07 16bf c0e5 33bf 9917 753e
00000180: 76b2 86be b7d6 7a3d 6433 4e3d f949 223e
00000190: 3472 833f 2927 88bf a9c7 10bf 062c 07be
000001a0: d42f 8bbe 4ae6 48bf b0ac 1bbf a4c7 f6be
000001b0: d7f7 a0be f387 a3bf 6aee 29bf cdb1 48be
000001c0: cccb aebe c70f 8a3e efde 4e3e 067b 283e
000001d0: 9708 b33e 45eb 88bd 6baf 3ebd 1b9e ffbe
000001e0: ef50 c5be 00c3 c63a c168 8ebe 516b 3ebd
000001f0: 6f52 7c3d 9dfd 3cbe b989 84be a6e4 95bd
00000200: 380b 403d 5ced 93bc e268 17be bf01 92be
00000210: b47b 883e ed92 f63e de1f 70bf 0454 e0be
00000220: c4ad 5fbd a1ef a6be d55a a23b 9100 e23b
00000230: 008a fa3c ae15 233d ebbf ee3d 9c90 293f
00000240: 4486 31bf 0938 143f 10a7 813d f13b 05bf
00000250: 3079 e4be f15d 0bbb 2f6d 6e3e 8e0f b4be
00000260: f505 0bbe 9b1d ccbc e794 923e 5890 4fbf
00000270: b388 163f ab88 88be 5eed 3abd 07d6 813e
00000280: f050 a0be 0251 aebe 8454 f3be 418e 7fbd
00000290: d44a 21bf 0ea1 083f d5b5 c4bf 3b9e b83e
000002a0: e89c 003e 1906 debd 9599 123e de92 ad3d
000002b0: 3c04 63bd 06b6 e1bd ee9d debd 0c3c c63c
000002c0: b344 9e3f 265a 2ebf 02a9 02ba d266 593f
000002d0: 843d 9b3e 2b97 863e a80c 713f 5b7b 1fbf
000002e0: eef7 2abe 5a80 fd3d c1b9 dbbe b78d d5be
000002f0: acd4 f43d 5417 f1bd cab3 3b3f 339b 8dbf
00000300: be27 503f 3028 a5bf 8c25 543f 0185 b1bf
00000310: 0531 04c0 b1ef c7bf 9250 01bf 6960 07bd
00000320: 18e8 1dbf c25f 213f 4a46 013f e6de af3e
00000330: 050f d33e b2c5 18be ee2a e2be e8ea 0abf
00000340: 0d3f 78be 8027 f3bb a780 83be 7832 b6bd
00000350: 1665 2f3e 9ba7 07be 3e90 42be dcaa 3b3e
00000360: b6ad a4bd 3423 8fbd ea1e 3abe de3a 41be
00000370: 2f24 1a3f 1466 42bf 65d2 393e 532f 293e
00000380: a49d bebe 151f 2cbe 27dd f0bd 8799 9cbb
00000390: 89d5 4dbe d672 bc3e f6ba d0be 41da 183f
000003a0: 7ec1 b53e 2bef 25be f719 d2bd 5ee5 02bf
000003b0: 0c7f 453f 77fd 063f a3f1 963e db11 193f
000003c0: 99d9 70bf e15d 3ebf 08e1 bd3e d36b 833e
000003d0: 3897 2bbf 7256 583c fcf7 f7bd afe4 55be
000003e0: 2291 cdbe a807 bd3d 0718 3d3e 600c d1bd
000003f0: 0252 33be 6538 4f3f 1327 223f e933 8dbf

linear1.bias f4 [128]
-0.810438 -0.10638426 0.23412281 -0.12413562 -0.4756634 0.2672323 0.44164002 0.7109613
-0.9202157 0.10412 1.2705874 -0.111294694 -0.9208476 -0.48183694 -0.10178894 -0.70288754
-0.44074032 0.2540173 1.1479104 -0.13169958 -0.52027804 -0.44477758 -0.87048006 -0.23932037
-0.42791757 -0.69288164 -0.2673723 0.9950733 -0.07550227 -0.88340664 0.13060857 0.91476
-0.87454367 -0.39862394 -0.17986822 0.1806173 0.9601144 0.37041733 0.619398 -0.3319508
-0.15737623 -0.34500402 0.5891995 -0.09722732 -0.88893616 -0.7612551 -0.8601231 -0.29439783
-0.48812348 -0.20174995 -0.28425163 -0.8407632 -0.1330102 0.2956817 -0.4851792 0.3303674
0.32460657 0.2784022 -0.5046167 -0.49718827 -0.6004384 0.50406456 -0.3790671 -0.9475116
-0.48893243 -0.2945415 0.067512974 -0.23254925 0.5438182 -0.64876723 -0.47777286 0.5784958
-0.8761814 1.1608531 0.34826297 -0.0079831565 -0.48208588 1.316911 -0.82281053 -0.44712228
-0.17160147 -0.16681366 -0.33240685 -0.7026919 -0.5902077 -0.017792767 -0.9846909 0.0038371668
-0.5725488 -0.25243992 0.2282101 -0.023137199 -0.8047894 -0.028023483 -0.17912346 -0.23094088
0.177907 0.08404789 0.14288983 -0.01768964 -0.6517717 -0.67839456 -1.1101637 -0.73521674
0.7263608 0.71452767 0.06192282 -0.7949995 -0.0943146 0.8094245 0.057004288 -0.5000662
0.4453696 -0.6076078 0.050016273 -0.019775027 -0.22137308 0.0817045 0.8004851 -0.34585103
0.07804453 -0.53982425 -0.37498546 0.597474 0.23475324 0.016448325 -0.14707156 -0.71965814
00000000: dd78 4fbf fedf d9bd e4bd 6f3e d13a febd
00000010: 278a f3be acd2 883e a41e e23e 8f01 363f
00000020: 4293 6bbf de3c d53d 9ca2 a23f 79ee e3bd
00000030: abbc 6bbf 55b3 f6be b876 d0bd 70f0 33bf
00000040: b7a8 e1be 8e0e 823e baee 923f 41dc 06be
00000050: f130 05bf e3b9 e3be c8d7 5ebf 6610 75be
00000060: 0318 dbbe b160 31bf 06e5 88be 20bd 7e3f
00000070: efa0 9abd f026 62bf 41be 053e b62d 6a3f
00000080: 18e2 5fbf 7018 ccbe 602f 38be bef3 383e
00000090: 0fca 753f 57a7 bd3e de90 1e3f 75f5 a9be
000000a0: 3c27 21be 5ea4 b0be c7d5 163f 1e1f c7bd
000000b0: 5291 63bf 9de1 42bf 0731 5cbf 50bb 96be
000000c0: 52eb f9be 8a97 4ebe 6e89 91be 423c 57bf
000000d0: d333 08be 9763 973e 6869 f8be ea25 a93e
000000e0: d532 a63e bc8a 8e3e 8f2e 01bf 768f febe
000000f0: 55b6 19bf 600a 013f 1515 c2be 1f90 72bf
00000100: 5a55 fabe 25ce 96be 3e44 8a3d 6421 6ebe
00000110: ab37 0b3f 9c15 26bf a59e f4be 4d18 143f
00000120: 6d4d 60bf d696 943f 864f b23e c9cb 02bc
00000130: f6d3 f6be 8a90 a83f b6a3 52bf 36ed e4be
00000140: 4cb8 2fbe 33d1 2abe 3b31 aabe 9ee3 33bf
00000150: da17 17bf 23c2 91bc b414 7cbf fa78 7b3b
00000160: 8f92 12bf ce3f 81be e9af 693e 398a bdbc
00000170: ae06 4ebf 8191 e5bc 246c 37be c47b 6cbe
00000180: 412d 363e 4d21 ac3d b651 123e dde9 90bc
00000190: 83da 26bf 44ab 2dbf d819 8ebf 2a37 3cbf
000001a0: c8f2 393f 49eb 363f c8a2 7d3d 1685 4bbf
000001b0: 0328 c1bd 7236 4f3f 547d 693d 5704 00bf
000001c0: 7c07 e43e 2f8c 1bbf dddd 4c3d 3dff a1bc
000001d0: a0af 62be b054 a73d 97ec 4c3f 6313 b1be
000001e0: cfd5 9f3d ec31 0abf 18fe bfbe 0ef4 183f
000001f0: 2763 703e a3be 863c ed99 16be 843b 38bf

linear2.weight f4 [3, 128]
-0.012633344 -0.37635583 0.60881746 0.017724171 0.07940237 0.12591618 0.30765116 0.16460606
0.005286948 0.14237607 0.44180843 -0.04013026 -0.14039418 -0.0023068185 -0.13180737 0.013057399
-1.3161694 0.6903736 0.50081193 0.013809718 0.07190943 -1.2251799 -0.05707644 -0.06876956
0.02505001 0.023564111 0.02057232 0.47239572 0.048038036 -0.15194134 0.09443749 0.40577373
-0.33564088 -0.019380566 0.07447073 0.10148829 0.28043917 0.25654334 0.13221413 -0.093949676
0.0024707227 0.0013625672 0.08816371 -0.027717663 -0.46352014 0.27418488 -0.108011626 -0.8775725
-0.03882412 -0.123084314 0.033883907 -1.3706222 -0.016534833 0.47440347 -0.24037203 0.06774491
0.7384577 0.16903792 -0.23907122 0.0035470852 -0.25481567 0.71605945 -0.465334 -0.25706756
-0.011816887 -0.06872779 0.13884558 -0.6209779 0.115611255 -0.86359316 -0.22763741 0.53845805
-0.043716174 0.40605193 0.543449 0.026172172 -1.419864 0.78514266 -0.12892018 -0.18419412
-0.68171775 0.016390048 0.026942767 -0.017335162 -0.027693465 0.049333423 -0.5360247 0.11228103
-0.16463049 0.011733948 0.11135101 -0.7246401 -0.5034617 -0.2877485 0.012767542 0.07278992
0.06938066 -0.6937181 0.1400881 -0.053396363 -0.060673464 -1.2194633 -0.56277317 -0.13450575
0.8435392 0.09192034 0.1426632 -0.031734087 0.23228024 0.18396255 -0.20910145 -0.02224556
-0.08207211 -0.76708055 0.083671845 -0.12369635 -1.6953146 0.0024775644 0.5924414 -0.0097498065
0.26831138 -0.891289 0.28475392 0.10155251 0.64288306 0.05984297 -0.5428924 -0.6826433
-0.01694373 0.23906738 -1.3657855 -0.2061516 -1.455345 -0.4963363 0.6342363 0.3631872
-0.080996625 -0.8963167 0.6078784 0.005602031 -0.2207932 0.25212586 0.057734042 0.042796697
0.26765436 -0.4172258 0.5971818 0.08022509 0.14036034 0.54215574 -0.08927082 -0.66454846
-1.1440449 -0.0060168533 -0.3327924 0.50330806 0.035963256 -0.020556884 -0.7755861 0.6549164
0.18451987 -0.47661433 0.3982583 -0.92138445 0.08088923 -0.11681719 0.08776832 -0.04699909
-1.473498 0.012883309 0.38152587 -1.5629567 0.08340947 0.1334882 0.14322513 0.51347804
-0.39258927 0.047535904 -0.04575551 0.12211804 0.044543836 0.09856272 0.10468931 -0.0245408
-1.6524731 -1.0689108 -0.9962093 -1.6836251 0.15648684 -0.5033636 0.20575461 -0.8056831
0.014521992 0.065618955 -0.9302181 0.5863663 0.40573877 -0.03725123 0.24748413 0.5332269
-0.10806323 0.5172691 1.0373979 -2.0463495 0.42762405 0.8366728 -0.14319758 0.4214599
0.3001091 0.017554365 0.018319864 -0.42237836 0.007849811 -0.87570506 0.10726608 -0.9532846
0.26373675 -0.6662189 0.36665672 -0.35970396 -0.050229296 -0.0123773115 0.23972549 -1.443217
-0.73626655 0.49796832 0.2749741 0.13131866 -0.45447323 0.10641444 0.010723824 -1.002581
0.063913174 0.1644727 -0.030323753 0.019410867 -0.7085613 0.27356797 0.34025872 0.24620534
0.45570582 0.16261296 0.23371856 0.08867725 0.15486242 -0.09315485 0.25895056 -0.024906626
0.6713718 0.107843906 -0.21495129 0.2938317 1.1585952 -0.0068185525 0.2915713 0.06969474
00000000: 16fc 4ebc b6b1 c0be 76db 1b3f 4832 913c
00000010: b69d a23d 2cf0 003e 7484 9d3e 7e8e 283e
00000020: 223e ad3b 08cb 113e b734 e23e a15f 24bd
00000030: 7ec3 0fbe fe2d 17bb 83f8 06be b3ee 553c
00000040: 3d78 a8bf 53bc 303f 3635 003f 2842 623c
00000050: 4045 933d b2d2 9cbf fcc8 69bd 0ed7 8cbd
00000060: ae35 cd3c 8609 c13c 4887 a83c dadd f13e
00000070: 88c3 443d 8396 1bbe 7168 c13d 93c1 cf3e
00000080: 1fd9 abbe fec3 9ebc 1c84 983d 18d9 cf3d
00000090: b995 8f3e a659 833e 2463 073e b068 c0bd
000000a0: d9eb 213b 2b98 b23a 2d8f b43d 2710 e3bc
000000b0: 8352 edbe f661 8c3e 3335 ddbd 97a8 60bf
000000c0: 0a06 1fbd a113 fcbd dac9 0a3d 8c70 afbf
000000d0: 0f74 87bc 03e5 f23e 1624 76be d8bd 8a3d
000000e0: 900b 3d3f 4718 2d3e 16cf 74be 3776 683b
000000f0: 3377 82be ac4f 373f 4240 eebe 5c9e 83be
00000100: 9e9b 41bc 28c1 8cbd 892d 0e3e 68f8 1ebf
00000110: 98c5 ec3d 7114 5dbf c819 69be 63d8 093f
00000120: bb0f 33bd 0ae6 cf3e 791f 0b3f 0667 d63c
00000130: 1bbe b5bf 1cff 483f a703 04be 629d 3cbe
00000140: 0e85 2ebf 6c44 863c 14b7 dc3c 7802 8ebc
00000150: 68dd e2bc d811 4a3d ea38 09bf 99f3 e53d
00000160: e594 28be bf3f 403c 000c e43d 0382 39bf
00000170: dee2 00bf c553 93be f42e 513c e212 953d
00000180: 7317 8e3d 8297 31bf 4173 0f3e 25b6 5abd
00000190: bd84 78bd 6017 9cbf e711 10bf e0bb 09be
000001a0: 2ff2 573f bb40 bc3d 4d16 123e 9afb 01bd
000001b0: dfda 6d3e ae60 3c3e b11e 56be 523c b6bc
000001c0: 6c15 a8bd 645f 44bf 255c ab3d 8354 fdbd
000001d0: 1200 d9bf a25e 223b 3daa 173f a7bd 1fbc
000001e0: 1c60 893e 842b 64bf 44cb 913e c3fa cf3d
000001f0: fc93 243f e71d 753d fffa 0abf b6c1 2ebf
00000200: 94cd 8abc 14ce 743e 0fd2 aebf 6819 53be
00000210: bf48 babf cb1f febe 4f5d 223f acf3 b93e
00000220: 8fe1 a5bd 0375 65bf eb9d 1b3f 3e91 b73b
00000230: 9d17 62be a416 813e 887a 6c3d 974b 2f3d
00000240: fe09 893e 9f9e d5be e8e0 183f 0d4d a43d
00000250: 9fba 0f3e b8ca 0a3f 9fd3 b6bd d91f 2abf
00000260: 1070 92bf 0629 c5bb c463 aabe ccd8 003f
00000270: 354e 133d e966 a8bc d08c 46bf 9aa8 273f
00000280: c7f2 3c3e cb06 f4be 83e8 cb3e dadf 6bbf
00000290: 41a9 a53d da3d efbd e1bf b33d 1e82 40bd
000002a0: 959b bcbf 8414 533c 5c57 c33e f70e c8bf
000002b0: 96d2 aa3d 21b1 083e 9ca9 123e 4c73 033f
000002c0: 7601 c9be 02b5 423d 216a 3bbd 0619 fa3d
000002d0: 9973 363d 40db c93d 5967 d63d ca09 c9bc
000002e0: 3d84 d3bf 12d2 88bf 9307 7fbf 0781 d7bf
000002f0: 163e 203e 70dc 00bf 56b1 523e 3f41 4ebf
00000300: a6ed 6d3c 3b63 863d c622 6ebf 1a1c 163f
00000310: febc cf3e bf94 18bd 7b6c 7d3e 8f81 083f
00000320: 4150 ddbd bf6b 043f 74c9 843f 64f7 02c0
00000330: 8af1 da3e 3030 563f 63a2 12be 98c9 d73e
00000340: e6a7 993e 2cce 8f3c 8a13 963c fa41 d8be
00000350: 7e9c 003c 352e 60bf 52ae db3d 760a 74bf
00000360: 8108 873e 528d 2abf 6eba bb3e 1e2b b8be
00000370: 3cbd 4dbd 35ca 4abc 997a 753e 56bb b8bf
00000380: f77b 3cbf b4f5 fe3e 68c9 8c3e 6678 063e
00000390: b7b0 e8be d0ef d93d fab2 2f3c 9354 80bf
000003a0: e9e4 823d 886b 283e 8569 f8bc 8a03 9f3c
000003b0: 4664 35bf 1a11 8c3e 6436 ae3e 411d 7c3e
000003c0: 4652 e93e 0384 263e eb53 6f3e 6b9c b53d
000003d0: 4194 1e3e f8c7 bebd 2b95 843e fb08 ccbc
000003e0: 06df 2b3f 44dd dc3d 311c 5cbe 1c71 963e
000003f0: d94c 943f 2a6e dfbb d548 953e 1ebc 8e3d

linear2.bias f4 [3]
0.66048086 0.33154395 0.47299573
00000000: 4615 293f 21c0 a93e 7f2c f23e
