models/PPOtest1.pth (torch, 77915 bytes, 7 tensors)

shared.0.weight f4 [128, 11]
00000000: 166e 8dbe 08a8 75bd e423 23be d5ad 7c3d
00000010: 2733 2dbe ac14 c63c 153b 213e 5d31 f33c
00000020: bd55 6fbd d75a b73d 3e78 98be 7f74 f5bd
00000030: 6e0f 573e 534d 6f3e 0459 b93e c106 70be
00000040: 9c68 59be 6b97 3e3e 67d3 25be 8224 103e
00000050: c236 7fbe f50e 09be 22c6 b2be fde3 27be
00000060: 8531 58be 72a3 96be b713 bcbe 20ca af3e
00000070: 8e40 333e b0e0 c53e 01e7 873e f8b0 73be
00000080: 520c 883d 459d 25be 40a9 8abe 25ea 993e
00000090: 3a1c 2c3e 275f 5dbe d4c4 b73e e5c7 7d3e
000000a0: 38a5 073e a16c 91bd 0921 8abd b7d2 efbe
000000b0: f632 b6bb 8b0f ce3e 95f5 dc3e 4bbd ee3d
000000c0: 5d06 513e 7bce 4a3d 93e7 e9bd af42 a13d
000000d0: 3578 a53c 3dac 943c b4fb 69be 718d 113e
000000e0: b0c6 bfbd 7415 8cbe e306 a33e 0c94 55bd
000000f0: fdda 95be 9d27 da3c 7da9 683e 0eae 73bc
00000100: 5252 963e 6884 74bd 4f6e 183f 262a 87be
00000110: d3fd 5a3c eba2 8d3c f8b8 3cbe f264 013b
00000120: 0366 2a3e 36d6 bc3c b410 793d 6651 edbc
00000130: 6bad 3fbe 8c27 433b f23a b53e a8d7 aa3e
00000140: 3b4d b73d d9e2 0cbe 692c 97bc ae93 a7be
00000150: db73 d43d da4b febd 7b2f 083e f6be 67be
00000160: 8316 a03e 5587 aa3e 9bc8 cabd 46bf bc3b
00000170: 3197 c8bd bfa6 a13d 0466 293e 0654 dfbc
00000180: 9633 e3bd 2ce9 313e 3048 9fbd 2f44 f5bd
00000190: 2f5f 113f 0d58 d03d bc62 12bd 1251 bd3d
000001a0: 1d02 abbe f1ff 083e c1a6 8fbd adbd 6b3e
000001b0: 7da1 9dbe 1393 c0bd 32b9 833e ba39 5dbd
000001c0: 09c7 8b3d d0ca a6be 4432 a33d df79 e03d
000001d0: e566 90be 01c1 a23e bac3 04be 1314 f2bd
000001e0: 158f 063e b625 59be c57d 94bd bd55 a03d
000001f0: 4340 213e 1bf0 fc3d bb23 cbbd cd25 413e
00000200: 420e 0f3e 681f 493e 69f1 8dbe ec44 4fbc
00000210: bff6 ec3e a9a0 3b3b f322 0a3e 6766 61be
00000220: d64f 253e 5ece 36be beb6 ae3e cd23 973e
00000230: b338 173e bf03 f93d 5e42 9ebe 9313 bfbe
00000240: f1b4 bcbd ab72 ed3d 62dc 14bd 7536 893e
00000250: 5db0 a6be 838a 7dbe aa50 4bbe d516 a63e
00000260: af65 0d3e 30ee 163c a269 923e 0f42 ea3e
00000270: eb29 6a3e d292 8dbe 43e5 683e f8ea 9b3d
00000280: ec72 a53c 44bd 9d3d d35f 323c f7fa 933d
00000290: 2bd5 91be 7f97 bebe 7eda f13d 5759 993e
000002a0: e119 e0bb 0ea0 4dbe b307 83be d4a8 5e3e
000002b0: d9eb 8e3e d435 993d 2319 9c3d 60be 513e
000002c0: 9f17 73bc 9fba b33e 9aff aa3e d0d3 b9bd
000002d0: 53f9 3c3e d6fa 7e3d 7bbe 76be 5d88 443d
000002e0: 98f7 97bd 1572 fbbd befb 92be cd86 123f
000002f0: 256b 5b3e a2aa 83bc fad4 ae3c 3020 68be
00000300: eb21 cebd e474 d83d f2b7 013e 4ccb c33d
00000310: e2ba 93bd 00ac 94be 58b8 ef3e 477c 433e
00000320: 92b0 363e 5be5 f13d 5b4f 723e 2087 1abe
00000330: e2d0 6c3e fdfb e8bd 8077 983d 587e 7fbe
00000340: 4f13 aabd 548f ba3e 56a8 acbd 39df 913e
00000350: a50e 633d 16b1 2cbd 93eb ef3d 64ab 12be
00000360: e7f0 75be 7ce5 933d 1ae5 92bd d300 613d
00000370: 9eff 0c3f 6929 573d 9b94 9dbd 3ce5 bebb
00000380: 5ff7 8f3e 946b d73d cfde b5be 4f49 df3c
00000390: 92d5 a0be 8524 bcba 52ec 1e3e 201e ecbc
000003a0: 653f 733e 0090 ff3c 8c76 7d3e f154 243e
000003b0: b107 08be 9964 de3d 18da b23d da67 dc3b
000003c0: dbdb 4cbe b750 9a3d 75e0 a7bd bab8 093f
000003d0: 0bd7 d3bd 20af fd3d b5ea 253e f057 703d
000003e0: dcbc 6d3d c8b4 00be b7dc 0ebe 2436 133e
000003f0: 61bf 243d 6575 96be e08f c93e 6fd7 c93e
-0.2762305 -0.0599747 -0.1593166 0.061689217 -0.16914044 0.024179779 0.15745194 0.029686624
-0.058431376 0.08952873 -0.29779238 -0.119851105 0.2100198 0.2336934 0.36200726 -0.23440076
-0.21231312 0.18612449 -0.16193925 0.14076427 -0.24923232 -0.13384612 -0.34916788 -0.16395564
-0.2111264 -0.29421574 -0.3673379 0.34333897 0.17505094 0.38647985 0.2654343 -0.23797977
0.06642975 -0.16173275 -0.27082253 0.3006145 0.16807643 -0.21618329 0.35892355 0.24783285
0.1324662 -0.071007974 -0.06744582 -0.4684045 -0.0055602742 0.40246233 0.43156114 0.116571985
0.20412584 0.04951332 -0.114211224 0.07874047 0.02019892 0.018148536 -0.22849923 0.14214112
-0.093640685 -0.27360117 0.31841192 -0.05214314 -0.29268637 0.026630217 0.22720905 -0.014873041
0.2935968 -0.059696585 0.5954332 -0.26399344 0.0133661805 0.0172896 -0.18429935 0.0019744006
0.16640477 0.023051362 0.060806945 -0.028969478 -0.18718497 0.002977821 0.35396534 0.33367658
0.089502774 -0.1375841 -0.018453794 -0.32729858 0.1037366 -0.12416811 0.13299362 -0.2263144
0.31267175 0.33306375 -0.09901544 0.0057601063 -0.097944625 0.078931324 0.16542822 -0.027261745
-0.110938236 0.17374104 -0.077774405 -0.119758956 0.56785864 0.10173044 -0.03573869 0.092439786
-0.3340005 0.13378884 -0.07014228 0.23021574 -0.30787268 -0.09403052 0.2572723 -0.05401013
0.06825072 -0.3257661 0.07968572 0.10960745 -0.28203502 0.31787875 -0.12965289 -0.11820235
0.13140519 -0.21205792 -0.07250551 0.07828853 0.1574717 0.12350484 -0.099189244 0.18862076
0.13970283 0.19640887 -0.27723244 -0.01265071 0.46282002 0.0028629696 0.13489895 -0.2201172
0.16143736 -0.1785216 0.34123796 0.295195 0.14767723 0.12158918 -0.3091001 -0.3731962
-0.09214199 0.11594137 -0.036342986 0.2679936 -0.3255643 -0.2475987 -0.1985499 0.32439294
0.1380832 0.009212062 0.28596216 0.45753524 0.22867553 -0.27651078 0.22743706 0.07613176
0.0201964 0.07702115 0.010887104 0.07225602 -0.28482947 -0.37224957 0.11809252 0.29950973
-0.0068390225 -0.20080587 -0.25591812 0.2174409 0.27914312 0.0748097 0.07621982 0.20482779
-0.014837175 0.35103318 0.33398134 -0.09073603 0.18454485 0.062250935 -0.240961 0.04798161
-0.07420272 -0.12277619 -0.2870769 0.5723694 0.21427591 -0.016072575 0.02134179 -0.22668529
-0.10065063 0.1056917 0.12667826 0.0956026 -0.072133794 -0.29037476 0.4682033 0.19090377
0.17840794 0.11811324 0.23663084 -0.15090609 0.23126557 -0.11376188 0.07444668 -0.2495054
-0.08304464 0.36437476 -0.08430545 0.28490618 0.055433888 -0.04216107 0.11714854 -0.14323193
-0.24017678 0.07221505 -0.07172604 0.054932427 0.5507754 0.052529726 -0.0769436 -0.0058256667
0.28118417 0.10518566 -0.35521552 0.027256636 -0.3141294 -0.0014354145 0.15519837 -0.028822958
0.23754652 0.031196594 0.24752253 0.16048028 -0.13284184 0.10859031 0.08733004 0.0067262473
-0.20005743 0.075349264 -0.08197109 0.53797495 -0.103437506 0.12386918 0.16202815 0.058677614
0.05804144 -0.12568963 -0.13951384 0.14376122 0.040221576 -0.2938644 0.3936758 0.39422175

shared.0.bias f4 [128]
00000000: 171b a53e 0bee 7a3e 6c92 6ebd 0742 be3d
00000010: 1b9d d83c 5400 0abd 0873 c93c 0fb0 283d
00000020: 9844 023e bcc8 4bbc 404e 253d a3a3 703e
00000030: a315 18be 4a50 3bbe a43b 523e 56fe a53c
00000040: 5bec 303e 8521 043e 17f7 c3bd 334e 2fbe
00000050: 09e2 1d3d 3f9c 3e3c faab a5be 74e2 27be
00000060: f583 d93d 229a 3bbe 4033 033e aa8a 0e3e
00000070: 4b7e d63d 827b d2bd af82 6f3e 5ae8 ba3d
00000080: 26dd b33d 73e9 04be 761c 4f3e 181a b63c
00000090: 6f03 04bd 7d46 823e 0ca3 943e 2aba 59bd
000000a0: f883 16be 2a6c 39be f373 66bd 5fb4 b33d
000000b0: ea25 143e a992 963e d925 ed3c 6969 96be
000000c0: 1a0b 73be 4ee4 0dbe 1338 2a3c 3f5e e23d
000000d0: 7e8e 143e 6a81 26bb 1234 803e 0274 983d
000000e0: 042d 653e bdb1 14bd 54cd 54be a63b 54be
000000f0: 548e 713d d5f7 89bd 9a29 55be 346a 46be
00000100: a273 313e 5852 523e 4801 acbd e1c7 7abe
00000110: 5c04 6cbc 39ae a93c f4b2 1abe beda 973e
00000120: e488 74bd 84d5 163e 9986 78bd 0d3b 0fbd
00000130: d350 f33d a15b 4bbe 0ce7 99bb eaee 3e3e
00000140: bc02 1cbd f086 3cbe fadf 81bd 9a23 483e
00000150: 874e 643d fdea 3c3a 758c acbd e048 26be
00000160: 5f28 f53d ae83 6a3e 1902 cd3d a9e4 503e
00000170: c76b 963d a355 57be 954a 813e 80fe b3bc
00000180: 6e13 ccbd d897 e3bc 2360 55be abb0 2d3e
00000190: e94b 7f3e fe5f d4bd 18c7 7ebe 1da5 a93d
000001a0: aad4 98be 7e0c 023e 43ac a73d 36de 9dbe
000001b0: 1c38 c1bd 3f75 303e 1284 d83d 5212 363d
000001c0: 1380 b1bc fe9e a13d 8079 5d3b e588 f8bd
000001d0: 2149 173e 5c4c 613e 33ff 3abe c170 253e
000001e0: f567 8cbe 2b75 26be 5911 88bd 2ce2 da3d
000001f0: ae0d 11be 6fec 633e 325a 3dbe a252 debc
0.3224723 0.24504869 -0.058245108 0.092899375 0.026442101 -0.03369172 0.024590984 0.041183528
0.12721479 -0.0124379955 0.04035783 0.23499922 -0.14852004 -0.18292347 0.20530564 0.020262878
0.17277662 0.12903412 -0.09568613 -0.17119674 0.038545642 0.011633932 -0.3235777 -0.16394979
0.10620872 -0.18320516 0.12812519 0.13920084 0.10473307 -0.102774635 0.23389696 0.09126349
0.08782415 -0.12979679 0.202257 0.02222924 -0.032229837 0.25444403 0.29030645 -0.053156056
-0.1469878 -0.18107668 -0.05626292 0.087746374 0.14467588 0.29408768 0.028948711 -0.29377297
-0.23734704 -0.13856623 0.010389346 0.11053132 0.14507481 -0.0025406727 0.25039726 0.07444002
0.22380453 -0.036302317 -0.20781451 -0.20725879 0.058973625 -0.06736723 -0.20816651 -0.19376451
0.17329267 0.20539224 -0.08398682 -0.2449031 -0.014405336 0.020712959 -0.15107328 0.29659075
-0.05970086 0.14729887 -0.060675237 -0.034968425 0.1188065 -0.19859172 -0.0046967324 0.18645826
-0.038088545 -0.1841085 -0.06341548 0.19544831 0.055738952 0.0007206647 -0.084252276 -0.16238737
0.11970591 0.22901794 0.10010166 0.20399727 0.07344776 -0.21028762 0.25252214 -0.021971941
-0.099646434 -0.027782366 -0.20837454 0.16961925 0.24931301 -0.103698716 -0.24880636 0.08283446
-0.2984975 0.12700078 0.08187153 -0.30833596 -0.0943453 0.17232226 0.105720654 0.044451065
-0.021667516 0.078916535 0.0033794343 -0.121354856 0.1477399 0.22001785 -0.18261413 0.16156293
-0.27423063 -0.16255634 -0.06643934 0.1068767 -0.14165375 0.22258161 -0.18491438 -0.027139012

shared.2.weight f4 [128, 128]
00000000: e7cc 393c 1e06 82bc 7ee1 c13d 5252 073d
00000010: ab10 e7bc ecda 9bbc feeb 533e 03fd 803d
00000020: 12f4 073d b925 3ebe 3215 e33c 3e26 0fbd
00000030: 959f 813d c7d7 d9bd 1cd5 033d d63f 9bbc
00000040: 84a4 84bd c185 e33c 1923 193c aaf0 6a3e
00000050: 7dcf 2f3d 6f64 4b3d 80d8 97be 654a 56bd
00000060: fe92 c83d 5552 b2bd 1908 1d3e 3898 6b3d
00000070: 7e6a 97bd 9ff9 40bd 4c6d ab3d d1d8 7fbb
00000080: 418d febd 3a9c 603d 1058 7c3d c6af 483e
00000090: fe86 34bd 4c93 40bd 2ff3 bebc fd19 8c3d
000000a0: a744 5ebe c124 843c 6a11 2abd 2d5c b23c
000000b0: 85bb 57bd 8a26 143c 6801 df3d e725 cdbd
000000c0: 89d3 dfbc 3189 353e d3e5 713e bba0 a5bd
000000d0: 7e0e a93c 551e 963d 0134 013e 5ee2 933d
000000e0: e2ac 02be e43d a83d 9d03 5b3d d74d 853c
000000f0: ec85 f63d e4d9 473c 7c58 4d3d b72a d3bd
00000100: 2da6 933d 6408 183e 77c9 6a3e 4954 17bd
00000110: 2062 273d cb95 37be df9c 1ebe 3c1d b3bc
00000120: 308f 2b3e de03 41be 3272 783c 28dc 9f3e
00000130: 168c 8cbb 7abf 5e3e 1703 f63d 1c81 b4ba
00000140: 6be5 debd a878 923c b06a 84be 25f7 4a3d
00000150: 0654 0d3d 8432 e93d c8fa c3bc ec53 423e
00000160: 23e1 f7bd 816f 99bd 1646 debd d577 903b
00000170: 0692 923c 05e6 12bd 2164 a43d fa87 4e3d
00000180: 6ed7 213e fdfd 84be 2c55 0f3e b7d9 183e
00000190: deed 2d3a 4f91 ab3d f494 07be 276a 03be
000001a0: 6c91 abbc b747 71bd f422 f1bc e70d 25be
000001b0: 0f85 3bbc 257c 143e c318 813d 6773 733d
000001c0: 09c6 833c e7ef febd 8964 5cbe 1263 1f3e
000001d0: a551 0d3e 89ac e23b 0928 f1bd ff1c 4ebc
000001e0: 6752 6d3d 5090 c2bd f5aa f23d 7c84 5a3d
000001f0: 216a 5abe fe51 db3d 7594 ccbe bdfd 52be
00000200: 93b4 a2bd a0f9 8f3c 651c b5bc 16ec 12bd
00000210: dffa bd3b 47af 683d 9cbf fb3c adbb cbbc
00000220: 4dfb 13bd e78a 89bd b165 183d 98ac 91bb
00000230: 6132 d53b 80bb 2d3d 0332 39bd cee3 ecbd
00000240: a32d 00bd a04d 383d 2b12 813c 75c9 823c
00000250: 3b94 2d3d 48a1 a8bb 0c31 b4bd 1885 293d
00000260: ed6a 74bd 56d4 9b3d 2323 c13d 3a89 80bd
00000270: 8da9 e8bd cacd 573d 9dbe a9bc d900 a4bd
00000280: b8f5 1abd 5dc7 a9bd a9fa b9bd 5d90 503d
00000290: 4197 d8bd b51f 5bbd 405a 01bd a172 4a3d
000002a0: 4973 183b 2281 813d 624c cbbd 8386 c63c
000002b0: 0000 f13c dd23 92bd 1bda afbd 4700 b1bd
000002c0: d96e 42bd 0600 c43c 65e9 4a3c 0a81 adbd
000002d0: 9fd3 19bd 4abd edbc 8afc f13c 8cfd e53c
000002e0: 1e3d 393d 5393 87bd c78b febb 7b40 d6bb
000002f0: c9ad d1bd 1769 483d f0c1 3d3c 9f17 14bc
00000300: 0c77 003d e9ef 3cbd aee6 963d 713b 23bc
00000310: 99ef 82bd 4157 503d 7e29 603d 785b 383d
00000320: f111 a8bd 81ed 27bd 7afc 853c 0a10 3d3d
00000330: e7a4 abbd f18d 143c 63f9 85bd bf42 91bc
00000340: 6d70 a53d c7a8 1d3d 034b d2bb fd55 3bbd
00000350: 2968 cb3c 28b3 433a 6e04 a9bd 45e4 0cbd
00000360: 2f4b ccbd c736 d1bd a525 c3bb 8f94 22bd
00000370: 99e6 423d 040f d9bb 4879 9cbd 37c1 a2bd
00000380: 2568 a93d ff22 f33a 82cc a6bd 0a1f 263d
00000390: 927f 6ebd 9828 cf3b cc41 533d 936b 95bd
000003a0: 5d8e 1fbd ea05 b1bc 4d5c dbbd 639a abbb
000003b0: 07bc 013d d567 52bd db38 e0bd 9375 8c3c
000003c0: eb53 acbd 6f56 81bd 5693 babd 6a0f d63c
000003d0: 7299 853c d287 0d3d 2143 a0bd 1f93 c7bd
000003e0: 0ed0 bfbc 229c 3bbb cd80 30bb d079 6b3c
000003f0: 7be0 233d baa1 85bc d59d d43c 37d2 bb3c
0.011340356 -0.015872058 0.09466837 0.03303749 -0.02820619 -0.019025289 0.20695493 0.06298258
0.033191748 -0.18569078 0.027720068 -0.03494858 0.06329266 -0.106368594 0.03218566 -0.018951338
-0.06476691 0.02777374 0.009346747 0.22943369 0.042922486 0.049656328 -0.29657364 -0.052317042
0.097936615 -0.0870711 0.1533512 0.057518214 -0.07393359 -0.047113057 0.08370456 -0.0039039145
-0.12429286 0.05483649 0.06160742 0.19598302 -0.04407405 -0.047015473 -0.023309318 0.06840894
-0.21705876 0.016130807 -0.041520514 0.021772468 -0.052669067 0.009042392 0.1088894 -0.10016995
-0.027322548 0.17728116 0.23622827 -0.080872975 0.020636793 0.07330004 0.12617494 0.072209105
-0.12761262 0.0821493 0.053470243 0.016272468 0.12037262 0.012197945 0.050133213 -0.103108816
0.0720943 0.14846951 0.22928415 -0.036945615 0.040865064 -0.17928235 -0.15489529 -0.021864526
0.1675384 -0.18849131 0.015163945 0.31222653 -0.0042891605 0.2175273 0.12012308 -0.0013771388
-0.10883602 0.017879799 -0.25862646 0.0495521 0.03450396 0.11386588 -0.023923293 0.18977326
-0.12103488 -0.07491971 -0.108532116 0.0044088163 0.017891895 -0.035863895 0.080269106 0.050422646
0.15804836 -0.25975028 0.13997334 0.14926802 0.0006634871 0.08377325 -0.13240415 -0.12833463
-0.020943366 -0.058906283 -0.029435612 -0.16118585 -0.011445298 0.14500482 0.06303551 0.059436228
0.016085641 -0.124481015 -0.21522726 0.15565136 0.13800676 0.0069175404 -0.11775214 -0.012580155
0.057939913 -0.09500182 0.11849014 0.053349003 -0.21329547 0.10708998 -0.39957014 -0.20604606
-0.07944598 0.017575085 -0.022108266 -0.03586968 0.0057977284 0.056807783 0.030731015 -0.024869764
-0.03612833 -0.06715947 0.037206355 -0.0044456236 0.00650625 0.042415142 -0.04521371 -0.11566888
-0.031293523 0.044995904 0.015755733 0.015965203 0.04237769 -0.0051461793 -0.087984174 0.041386694
-0.059672285 0.07608859 0.0943053 -0.06276174 -0.11360464 0.05268649 -0.020720774 -0.08007974
-0.037831992 -0.08289979 -0.09081013 0.050918926 -0.105757244 -0.053497035 -0.03158021 0.049425725
0.0023262075 0.06323458 -0.09926678 0.024234062 0.029418945 -0.07135747 -0.08586522 -0.08642631
-0.047468994 0.023925792 0.012384747 -0.08471878 -0.037555333 -0.029020924 0.029539365 0.028075002
0.0452243 -0.06619897 -0.0077681276 -0.0065384484 -0.10238225 0.048928346 0.011581883 -0.009038835
0.031363532 -0.046127234 0.073682174 -0.009962902 -0.06393356 0.05086446 0.05472707 0.045009106
-0.08206547 -0.040997986 0.016355742 0.046157874 -0.08381062 0.009067045 -0.06541707 -0.017732022
0.08078084 0.038491037 -0.0064176335 -0.0457363 0.02482994 0.0007465356 -0.08252798 -0.034397382
-0.09975278 -0.10215526 -0.0059554153 -0.039692458 0.047583196 -0.0066241045 -0.0764032 -0.07947009
0.08271817 0.0018549858 -0.081444755 0.040556945 -0.05822713 0.006321978 0.05157642 -0.07295909
-0.038954128 -0.021609265 -0.10710964 -0.00523691 0.031673457 -0.051368553 -0.10948344 0.017145908
-0.084144436 -0.06315314 -0.09110133 0.026130397 0.01630852 0.034553356 -0.07825304 -0.09744858
-0.023414638 -0.0028626998 -0.002693224 0.014372304 0.040009003 -0.016312469 0.025954166 0.022927387

shared.2.bias f4 [128]
00000000: c99e 3c3b 551d 703b 0590 f23b cdcb 393c
00000010: 578f aebd 4d17 bebd d120 b83d 367a 0e3c
00000020: 5512 013d d4b6 b6bd 3fdc 01bd a100 13bd
00000030: 3cab a9bd 837e 4a3d 46c3 943d 8527 9dbd
00000040: 58e9 c3bd 6435 b23b 75d1 8a3c 3e98 96bd
00000050: cc94 39bd 28ec 833d 4024 04bd 76e7 c33d
00000060: 2547 833c 28b4 6ebd de30 03bd 5791 5d3d
00000070: b339 4dbd c06b 1e3d 846f ed38 3d69 163d
00000080: 93bf c43d 7bd8 8a3d ff6e 3bbd 2f5d be3c
00000090: 6203 d83d 5574 87bd f47a af3c 1151 35bd
000000a0: 3d32 8b3d 2b72 77bd c72a e13c 6556 b53d
000000b0: 35bd 9c3c edb2 4bbc e969 fabd 8444 d53d
000000c0: feb1 70bd 6632 093e ed2c 9a3c ce0f 723d
000000d0: 7914 ab3c 8ac8 34bc af7e a1bc 329c babb
000000e0: ca9d ecbd 1543 53bb 957b e13d 5332 4d3b
000000f0: e596 42bd 860c 68bd c5fd a8bd a34f 5c3d
00000100: 7a99 8b3d 43d1 a63c fe84 b6bd 5947 7c3d
00000110: b595 4b3d 4a1c 42bd 9e19 01bd 66ee e9bc
00000120: b185 a63c cf34 b7bc 216c 8abc 4621 803d
00000130: eece 8fbd 10d2 253d 413d c73c cd93 e8bd
00000140: ae3b c23d 2a7d 093d a563 403d 3797 00be
00000150: c7c3 e23c daed ea3c ba40 1f3b 06be f4bd
00000160: 9cf8 2fbe 3b34 73bd 53a6 21bb 8e7f a43d
00000170: 1c88 e3bd 7b76 07bd 49ff 173d 4f58 7abd
00000180: c87d da3c 976b 86bd 3624 a5bb 8ad6 a5bd
00000190: f192 2fbd fffe fb3b a967 d7bd 49e6 5dbd
000001a0: 7652 363d 127d 5e3d 4091 3bbc b65e 9fba
000001b0: 5237 3f3c 0c76 bf3d 44ea c5bc 5bba 843d
000001c0: 8aad 06be 5915 d53d 96a1 b63b 868f 87bd
000001d0: a6e0 14bc 297d c33d 1bd3 8abd 4a12 eebd
000001e0: e9ba 6dbd d43a 7fbd 728c aebd 07d9 323c
000001f0: 03cc e43c eef4 17bd 3a08 0b3d 136b 56bc
0.0028781167 0.0036638577 0.0074024224 0.011340094 -0.08523434 -0.09281788 0.08990634 0.00869613
0.031511623 -0.089215904 -0.031704184 -0.03588927 -0.082846135 0.049437057 0.07263808 -0.076735534
-0.09565991 0.0054384936 0.01694558 -0.07353257 -0.04530792 0.064415276 -0.032261133 0.09565632
0.016025135 -0.05827728 -0.032029025 0.054093685 -0.050103854 0.038676977 0.00011321812 0.036721457
0.096068524 0.067795716 -0.04576015 0.023237793 0.1054752 -0.066139854 0.021420933 -0.044266764
0.067966916 -0.060411613 0.027486218 0.08854369 0.01913319 -0.012432796 -0.12227232 0.10413459
-0.058763497 0.13398132 0.01882025 0.059097104 0.020883786 -0.01103414 -0.019713728 -0.0056948895
-0.115535334 -0.003223603 0.110098995 0.0031310513 -0.047507185 -0.05665257 -0.08251528 0.053786885
0.06816383 0.020363456 -0.08912085 0.06159148 0.04970332 -0.04739026 -0.03151857 -0.02855606
0.02032742 -0.022364048 -0.016897263 0.062563464 -0.070218906 0.040483534 0.0243212 -0.11356316
0.09484039 0.03356663 0.04697003 -0.12557684 0.027681245 0.02867787 0.0024300055 -0.119503066
-0.1718468 -0.059375983 -0.0024665787 0.080321416 -0.11109945 -0.033071976 0.037108693 -0.061119374
0.026671305 -0.0656349 -0.005039717 -0.08097561 -0.042864744 0.00769031 -0.105178185 -0.054174695
0.044512235 0.054318495 -0.0114482045 -0.0012158963 0.011670904 0.093486875 -0.024159558 0.06480857
-0.13152137 0.10404462 0.0055734618 -0.06619172 -0.0090867635 0.09545357 -0.067785464 -0.11624582
-0.05803958 -0.062311962 -0.085228816 0.010916001 0.027929312 -0.037098818 0.033943392 -0.013087052

actor.weight f4 [3, 128]
00000000: d230 1fbd 3a78 62bc 74af 913e d668 d93d
00000010: b7fc 56be d4be 12bb 9539 90be 7ffc 9ebe
00000020: 4bb3 e5be f996 29be 0998 b9be d8b0 afbd
00000030: b02d b13d 4724 72bc 084b 06be c13d cbbd
00000040: bfe0 d3bc f91c 77be ad5e 8bbe a623 333d
00000050: 3652 5abe ee07 66bd 9bd9 b7bc 4542 853e
00000060: 53e5 4e3e 111f d9bb bbce b3be 6a5b 9c3e
00000070: 191a 413e be61 ba3e 62b3 833e 4989 adbd
00000080: af52 4cbe 746d 25be 4602 32be 5a9d ac3e
00000090: 9c9e c4be d9ca f13d e172 eb3c 224f 903e
000000a0: e112 44be 6063 953c 49bf 07be 9b1b b43c
000000b0: bf70 52be 2bb0 fb3d 09f2 47bd abc5 b0be
000000c0: 6f90 17bd 96ae 353e b2e5 9c3e 336a b9bc
000000d0: 4947 3ebe 186a a13e baec b0be d2e3 8cbe
000000e0: 7ae4 873d 7c75 07be a280 8e3e 878d 0dbe
000000f0: 4268 c73d a71c dd3c 37f1 093b 347c 8cbd
00000100: fb50 5f3e 73e5 b2bd 05cd f73c f475 adbe
00000110: f7ce 7c3e 3427 443e 5a37 9a3e da65 f6be
00000120: 8dba 903e 17f6 ddbd 14af 2d3d f536 b23d
00000130: a2ff 213e 4ac0 9abe 93ec 27be c8c3 5fbd
00000140: a2ab c3bd 9f03 3d3d 3ba7 3bbe 6206 e5bc
00000150: 4e8f a0bd 362e c13b 0f04 18be 6999 cebe
00000160: 6b44 dabd 8e5e fd3c 6cc2 1cbe 17f7 b63d
00000170: aa0a 53be f154 25be 6257 323e aff6 3f3e
00000180: 15cb 8f3e 880b 3f3e 3fbd a93d d6ab 653e
00000190: e2f8 bdbe d086 203d b13f 4cbe 580c 8dbd
000001a0: 28cb 75be fed1 073e 5eac 483e f39d 603e
000001b0: 9b28 a53d 38d6 993e 78c3 24bd e4da 913e
000001c0: 5542 123e b763 8a3e 8362 4c3e 4490 f8bc
000001d0: d194 8f3e 67df ac3e 8128 90be e3bb 6d3d
000001e0: b3b0 89bc 2d1f 8e3e 1e5f 26be d1ef 79be
000001f0: 0752 45be 5412 8e3e 2fd3 963e 0bca 25be
00000200: 2f92 ac3e abcd aabc 1a23 7dbe 656b 1bbe
00000210: 84b2 843e aad4 ac3c 9dea 593e 92de 803e
00000220: 6c0b c63e 7584 a2be 8ab2 b1be da56 68bd
00000230: 5855 bdbc da3b bcbc f9d7 883e 253a 17be
00000240: f876 54bd 8bec 52bc 1402 efba 044d d13c
00000250: 27f6 efbc 541e 49bd 994f 9a3e dcf3 4dbe
00000260: ea3c bc3d a7a2 583e af27 d13e af9a 79be
00000270: de6f cbbe 9029 abbe 6dfa fa3c 6a58 123e
00000280: a1ea a2bd acb5 ec3c 64b5 573e dd75 08be
00000290: 182b b23d 665d 2c3e 71b2 7a3d 2d75 34bd
000002a0: 56c0 80be 25e6 cf3c 8850 27bd 5b8c 753e
000002b0: 236c 9b3e e6d8 d5bc c2f3 083d 46cc 143e
000002c0: f562 abbd a10a ecbe ea10 60bd 81d5 8b3d
000002d0: 04c6 063e f24d edbe af73 423e 1c14 263e
000002e0: b2b9 133d 1e84 9e3e 1697 b9be 238b 843e
000002f0: 5e67 0dbe 5a5f 13bd 8e5c a03e fa81 88bd
00000300: 3005 8ebe c501 ad3d 3248 293e ebac eebc
00000310: e0f3 c5be eef4 cc3d 01a6 0ebe b39e 713d
00000320: 3cc6 7dbe 51bb bcbd edcf b93e 33bd 97be
00000330: 6001 86be 2775 443e f018 c73e 0daa 66be
00000340: d208 8d3e dbec 71bd a6b5 273e 9eb8 2dbd
00000350: 6b8f a83d 66b0 66bb c347 033e 3836 38be
00000360: 0f44 dbbd 9623 dc3c b339 793e 46aa d2bd
00000370: 037b 533e fe68 0c3d fbd9 88be db0e f5bc
00000380: 47cc 44be f625 083e 9b47 aabd c397 febd
00000390: 4ce4 d6bb 35f5 9d3e 5a9a 983e 5864 3e3e
000003a0: cee2 6b3e 5525 d3be 68b7 bebe 57cf c4be
000003b0: 7e6a c43d 8ae9 d2be 9678 86bd b3ea 8fbe
000003c0: fb99 2abe fb74 f43c f080 a9bd 4e26 8ebd
000003d0: b652 cdbe 6ebe cbbe bc03 343d ee8c 80bd
000003e0: abb4 bfbd f99a 73be c8fd 603e a982 963e
000003f0: 1f86 ff3d 4ade f0bd 805f c1be 56a9 c23e
-0.038864918 -0.01382261 0.28454173 0.10615699 -0.2099484 -0.0022391574 -0.28168932 -0.31052014
-0.44863352 -0.16561498 -0.36248806 -0.08578652 0.08651292 -0.014779157 -0.1311456 -0.09923888
-0.025864003 -0.24132146 -0.2722067 0.04373517 -0.21320423 -0.056159906 -0.02244263 0.26027122
0.20204668 -0.006626018 -0.3511866 0.30538493 0.18857612 0.36402696 0.25722796 -0.08473451
-0.19953416 -0.16155034 -0.1738368 0.337138 -0.3840226 0.11806268 0.028741302 0.28185374
-0.19147827 0.018235862 -0.13256563 0.02198582 -0.20550822 0.12289461 -0.048814807 -0.3452581
-0.037002977 0.1774238 0.30643994 -0.022633648 -0.1858188 0.31526256 -0.34555608 -0.27517563
0.06635375 -0.1322841 0.27832514 -0.1382352 0.097366825 0.026991202 0.0021048316 -0.06859627
0.21808235 -0.0873517 0.030249128 -0.33879054 0.24688326 0.1915558 0.30120355 -0.48124582
0.28267327 -0.108379535 0.042403296 0.087018885 0.15820172 -0.3022483 -0.1639884 -0.05463007
-0.09554221 0.04614603 -0.18325512 -0.027957145 -0.07839833 0.0058954014 -0.14845298 -0.40351418
-0.10657581 0.030928876 -0.15308541 0.089338474 -0.20609537 -0.16145684 0.17416146 0.18746446
0.28084627 0.18656743 0.08288049 0.22428831 -0.37103945 0.039191067 -0.19946171 -0.0688712
-0.24003279 0.132637 0.19597003 0.21935253 0.080643855 0.30046248 -0.040225476 0.28487313
0.14283116 0.270292 0.19959454 -0.030342229 0.28043225 0.33764192 -0.28155902 0.05804051
-0.01680789 0.2775816 -0.16247222 -0.24407889 -0.19269572 0.27748358 0.29457995 -0.16190355
0.3370528 -0.020850023 -0.24720421 -0.15177687 0.25917447 0.0210975 0.21280904 0.25169808
0.3868059 -0.31741682 -0.34706527 -0.056723453 -0.023111984 -0.022977758 0.26727274 -0.14768274
-0.05187127 -0.012873779 -0.0018234872 0.02554942 -0.02929218 -0.04910119 0.30138853 -0.20112556
0.09191306 0.21155797 0.4085059 -0.24375413 -0.39733785 -0.33430147 0.03063699 0.1429154
-0.07954908 0.028895222 0.21065289 -0.13326211 0.08699626 0.16832504 0.06120533 -0.04405706
-0.2514674 0.025378296 -0.040848285 0.23979323 0.3035594 -0.026104402 0.03343559 0.14531049
-0.08368484 -0.4610186 -0.05470363 0.06827832 0.13161474 -0.4634853 0.18989442 0.16218609
0.036065765 0.30960172 -0.36248082 0.25887403 -0.13808963 -0.035979606 0.31320614 -0.06665416
-0.27738333 0.08447603 0.16531447 -0.029135188 -0.38662624 0.10007654 -0.13930513 0.058989238
-0.24782652 -0.09215415 0.36291447 -0.29636535 -0.26172924 0.19185315 0.38886213 -0.22525807
0.27545792 -0.059063774 0.16377887 -0.042412393 0.0823048 -0.0035200357 0.12820344 -0.17989433
-0.107063405 0.026872437 0.24338417 -0.10286383 0.20652394 0.034279816 -0.26728806 -0.02991431
-0.1921855 0.13295731 -0.08314439 -0.1243129 -0.006557977 0.3085114 0.2980526 0.18592966
0.23035738 -0.4123942 -0.37249303 -0.38439438 0.09590624 -0.411938 -0.06565969 -0.2810875
-0.16660301 0.029840937 -0.08276546 -0.069409 -0.40102166 -0.39793724 0.043948874 -0.0627688
-0.093606316 -0.23789586 0.2197181 0.2939656 0.124767534 -0.11761148 -0.37768173 0.38019818

actor.bias f4 [3]
00000000: 3435 f53b 3e5c cbbc bef7 4a3d
0.007483149 -0.024824258 0.04955267

critic.weight f4 [1, 128]
00000000: a44b 4e3d caa8 c5bc b547 613e bb13 16bd
00000010: bd11 b73d a08d 82bc 223d aebc 642e 95bc
00000020: 40ac 6d3d e309 8bbe d8db 243e 9600 553d
00000030: b107 65bd 6f25 813d a746 273d 2a2c bebe
00000040: fbb1 673d f6a1 5cbd ad23 77bd 84ed 883c
00000050: 477f 07bd 7230 653d 694c 84bd 2e97 943d
00000060: f6d1 603d 99f2 c63b fb16 e53c e3ff 193d
00000070: 5e1b 66bd 982e 5f3d 4788 8a3b cd95 93bd
00000080: a712 95bd 4b34 f73d a70b 313e 0348 df3d
00000090: b012 2bbd 92fd a4bc 8791 af3d b819 cd3c
000000a0: da53 d73d 9c57 adbd b6fa a8bd 2c81 ae3c
000000b0: 3347 a9ba 409b 193e c591 27bd 21bd e13d
000000c0: 9803 7a3d 09e1 3c3d 700b 8fbc 8f1c 6a3c
000000d0: b2f8 fe3d d8f8 9c3b 6d10 b43c 63fb 373d
000000e0: b67e aebd f01c 4a3b 78d0 ad3c c337 dbbc
000000f0: 0ac7 06bf 3525 363d 63ac 63bc 8f23 3cba
00000100: 940e 42bc f59f dabc 22e2 56bd 42f5 8b3d
00000110: 52eb f23c 7efd 03bd 82c4 d43c 4c0a 8bbd
00000120: eacd 0a3c 030e 78be 0f1b 4d3d 4ac0 793d
00000130: 8f61 fdbc fc52 5b3b 2544 203c e227 26be
00000140: 5fd9 8e3c 994c 48bb 25c0 3bbd fc64 b3be
00000150: 8ee5 17bd d336 4e3c 1191 59bd 02be 0ebe
00000160: e03d 77be f461 163c e66a 8e3d a44c 8abd
00000170: 1004 e13d c859 53bd edd6 70bd a8c1 10bd
00000180: d7dc 05ba 9b13 19bd 3a5a 67bd cd01 f33d
00000190: b06e aebd 895e 8d3c 7fab dcbd e886 8d3d
000001a0: b977 19bd b094 b23d 0561 5ebd c0a5 06bc
000001b0: 0e1c bebc 2b24 1cbd 1b3f e63b b915 27bd
000001c0: 1d88 f6bd 7804 033d 92f3 f73d af55 b23c
000001d0: 9a29 1cbc 6deb 623c fbd8 a2bd 0b26 0a3b
000001e0: 0c12 8f3b 9480 81bc 31f3 febd 9d3e 4ebc
000001f0: 96d4 183c 9768 d63b 1b54 513c d605 6b3d
0.050365105 -0.024128336 0.2200001 -0.03663991 0.0893893 -0.015936673 -0.021269385 -0.018210597
0.0580256 -0.2715598 0.16099489 0.052002512 -0.05591554 0.06305968 0.040838864 -0.3714307
0.05656622 -0.053865395 -0.060336757 0.016714819 -0.033080366 0.055954404 -0.064598866 0.07255398
0.054887734 0.0060714004 0.02796506 0.03759755 -0.056178443 0.054487795 0.0042276713 -0.072063066
-0.07278948 0.12070521 0.17289601 0.10902407 -0.04176587 -0.020140443 0.08572679 0.025036678
0.1051404 -0.08463976 -0.08250944 0.021301828 -0.0012914896 0.1500063 -0.0409105 0.110224016
0.061038584 0.046113048 -0.017461509 0.014289035 0.124497786 0.0047904067 0.021980489 0.044917475
-0.08520262 0.0030840002 0.02121757 -0.026759988 -0.5264746 0.044469077 -0.013896081 -0.00071769295
-0.011844296 -0.026687602 -0.05246175 0.068338886 0.029653225 -0.03222417 0.025972608 -0.06789073
0.008471945 -0.24224095 0.050074633 0.060974397 -0.030930309 0.003346621 0.009781872 -0.16226152
0.017437635 -0.0030563234 -0.04583754 -0.35037982 -0.037084155 0.012586313 -0.05311686 -0.1393967
-0.24144697 0.009178627 0.06953983 -0.06752899 0.10987103 -0.051599294 -0.05879872 -0.035340935
-0.0005106455 -0.037372213 -0.05648253 0.11865578 -0.08517206 0.017256992 -0.10774898 0.06910497
-0.037467692 0.08719766 -0.054291744 -0.008218229 -0.023206737 -0.03812043 0.0070265657 -0.0407922
-0.1203768 0.031986684 0.12107004 0.021769373 -0.009531403 0.013850075 -0.07951542 0.0021079804
0.004366165 -0.015808381 -0.12448729 -0.01258817 0.009328028 0.00654323 0.0127764 0.057378612
